Tetris-PPO/trained/PPO/tetris_2/stage1.pth (torch, 149549 bytes, 11 tensors)

critic.0.weight f4 [64, 200]
0.03201112 0.106543034 0.009180342 0.16238302 0.021099977 -0.11022884 0.040095404 0.0015716918
0.24991445 -0.15362877 0.10299357 -0.031343915 -0.022703843 -0.11212772 -0.0061559016 -0.19958961
-0.086406775 -0.047117963 0.0111182155 -0.06343521 0.13758291 -0.06840112 -0.28657272 0.021353403
0.06931291 -0.007002872 -0.075640425 -0.17703907 0.01712931 -0.13446322 -0.06846227 -0.07033015
-0.1438436 0.31696767 0.17858224 0.0846052 -0.02252983 -0.19757685 0.00515442 0.17523596
-0.021562433 -0.19837625 0.06137555 0.002256078 0.19298466 -0.13050696 0.063601784 0.018177802
-0.15423866 0.00342319 -0.03353074 0.074527286 0.058560558 0.09035593 0.04342931 0.001112807
0.058218855 0.026254527 -0.016581358 -0.010191463 -0.06985739 -0.044244535 -0.124243215 0.10254433
-0.20271346 0.04642738 -0.020607192 0.01983685 -0.056570474 0.029313175 -0.034127627 -0.13618332
-0.014035142 0.15845881 0.018234812 -0.1907235 0.0817271 -0.004440287 -0.039296716 -0.0402437
0.09414329 0.14672016 0.12703651 0.08147621 0.08615212 0.10444695 0.118729375 -0.06285803
0.12927163 0.16649525 -0.048416514 0.03501177 0.1964541 -0.06997522 -0.036021996 0.04509801
-0.071977854 -0.07444468 0.01644973 0.044674736 -0.011181519 -0.052328076 -0.040107694 -0.09320109
0.056284666 0.16004981 0.02832082 -0.17598367 0.07028705 0.15636212 0.037390154 -0.14210074
-0.06405863 0.10642159 -0.0155213475 0.005138338 0.106773116 0.080325045 -0.029041123 -0.006205881
-0.16991276 0.15063165 -0.05518854 0.15830627 -0.015414332 0.007787936 -0.012797656 -0.0062717283
-0.040379025 -0.046329252 -0.059974436 0.1683611 0.10403997 0.032483466 0.10303913 -0.14269435
0.0067128865 0.08161743 0.009472562 0.13977611 0.022445219 -0.009232571 -0.18577889 0.010578565
-0.1962763 0.07358493 -0.058243435 -0.06175785 -0.067035384 0.11738142 -0.10562535 0.008578618
-0.2532456 -0.066927366 -0.05489293 0.17487344 0.06737747 -0.018462075 -0.1570382 -0.0064784912
-0.13469976 0.021430729 -0.032334562 0.14021431 0.08166273 -0.11389004 0.22212496 -0.05219469
0.11620295 -0.051814396 -0.109855 -0.05393189 0.16855511 -0.06678459 0.07828986 -0.08252531
0.040001236 -0.12164002 -0.09686934 -0.06125606 -0.05516511 0.02611366 0.06959859 0.14185005
0.03942547 0.0050374763 0.057355657 -0.013377632 -0.08860077 0.15553452 -0.12325704 -0.20099354
-0.049057975 -0.032753944 0.05578928 0.032897186 -0.12155752 0.0051105455 -0.015860422 -0.04613717
0.0710323 -0.05093462 -0.0761063 0.018066207 -0.013014234 -0.091715604 -0.059427805 -0.13751283
0.079041034 -0.22419599 -0.12226588 0.21585743 0.050636128 0.12007696 -0.02812704 -0.09812458
-0.0451984 0.099481545 -0.061616357 -0.004309161 0.1537152 0.020684889 0.018323379 0.23851009
0.15347351 -0.07106177 0.13470006 -0.09864984 0.1469456 0.030486451 -0.06557424 -0.02056098
0.00863911 0.14951052 0.11187743 -0.016212156 -0.09728838 -0.044092577 -0.10321404 0.17962125
0.18205328 -0.031949703 -0.035807766 0.1470083 0.23278317 -0.096221 0.02272233 -0.14241125
-0.07029338 0.0043688905 0.17202988 -0.012455405 -0.08746545 0.17670119 0.12282904 0.025103873
00000000: 181e 033d 3c33 da3d 2569 163c bc47 263e
00000010: dcd9 ac3c a8bf e1bd 143b 243d 3a01 ce3a
00000020: 93e9 7f3e dc50 1dbe 4bee d23d 7a62 00bd
00000030: 69fd b9bc 38a3 e5bd 72b7 c9bb 3861 4cbe
00000040: 09f6 b0bd c4fe 40bd 2d29 363c 52ea 81bd
00000050: 89e2 0c3e e315 8cbd a9b9 92be 55ed ae3c
00000060: edf3 8d3d 5978 e5bb 5ee9 9abd bb49 35be
00000070: c452 8c3c bab0 09be f235 8cbd 4109 90bd
00000080: bd4b 13be 9649 a23e 43de 363e 7e45 ad3d
00000090: 7a90 b8bc 9651 4abe 69e6 a83b 0e71 333e
000000a0: b3a3 b0bc 2523 4bbe ee64 7b3d b5da 133b
000000b0: c59d 453e 9ea3 05be a741 823d 9de9 943c
000000c0: bdf0 1dbe 9957 603b 8757 09bd c3a1 983d
000000d0: 32dd 6f3d 880c b93d efe2 313d 9bdb 913a
000000e0: e576 6e3d bc13 d73c a1d5 87bc 18fa 26bc
000000f0: 6411 8fbd c239 35bd 3a73 febd c302 d23d
00000100: 1e94 4fbe a32a 3e3d 6ad0 a8bc e480 a23c
00000110: 71b6 67bd 2f22 f03c 69c9 0bbd a473 0bbe
00000120: a7f3 65bc 0743 223e 2c61 953c 054d 43be
00000130: 8a60 a73d d47f 91bb 98f5 20bd 94d6 24bd
00000140: 32ce c03d cf3d 163e dc15 023e 00dd a63d
00000150: 8670 b03d 48e8 d53d 6328 f33d b6bb 80bd
00000160: c85f 043e bb7d 2a3e 6550 46bd 8068 0f3d
00000170: 432b 493e 2b4f 8fbd cd8b 13bd b1b8 383d
00000180: 2069 93bd 7476 98bd 96c1 863c dbfc 363d
00000190: b132 37bc f755 56bd f747 24bd 37e0 bebd
000001a0: c08a 663d 19e4 233e 1001 e83c 1035 34be
000001b0: a8f2 8f3d 641d 203e 6b26 193d db82 11be
000001c0: 2c31 83bd 90f3 d93d 404d 7ebc 815f a83b
000001d0: ddab da3d 7581 a43d a6e7 edbc b45a cbbb
000001e0: 9cfd 2dbe 2f3f 1a3e 610d 62bd 0a1b 223e
000001f0: 658c 7cbc f131 ff3b 42ad 51bc 1283 cdbb
00000200: 7a64 25bd bec3 3dbd c1a7 75bd da66 2c3e
00000210: e812 d53d 620d 053d 2e06 d33d 781e 12be
00000220: c6f7 db3b 0a27 a73d ce32 1b3c 7821 0f3e
00000230: 09df b73c 3644 17bc d23c 3ebe b851 2d3c
00000240: a8fc 48be b2b3 963d ab90 6ebd cdf5 7cbd
00000250: d949 89bd ac65 f03d 1a52 d8bd 558d 0c3c
00000260: 68a9 81be 3711 89bd 69d7 60bd 0612 333e
00000270: 33fd 893d c73d 97bc 9fce 20be 8649 d4bb
00000280: bcee 09be 7f8f af3c 3f71 04bd 5794 0f3e
00000290: ca3e a73d 2e3f e9bd ba74 633e 19ca 55bd
000002a0: d0fb ed3d 553b 54bd a9fb e0bd afe7 5cbd
000002b0: b699 2c3e 5cc6 88bd 6f56 a03d 0803 a9bd
000002c0: 56d8 233d 671e f9bd 6f63 c6bd a2e7 7abd
000002d0: cff4 61bd 50ec d53c b589 8e3d 2441 113e
000002e0: 9a7c 213d 6a11 a53b c4ed 6a3d db2d 5bbc
000002f0: 5274 b5bd 7144 1f3e 306e fcbd 40d1 4dbe
00000300: 04f1 48bd 0029 06bd 4d83 643d 33bf 063d
00000310: 26f3 f8bd 5d76 a73b b7ed 81bc 54fa 3cbd
00000320: 6279 913d d2a0 50bd 9fdd 9bbd 95ff 933c
00000330: a739 55bc 64d5 bbbd 926a 73bd 2ad0 0cbe
00000340: 44e0 a13d a293 65be 8966 fabd bb09 5d3e
00000350: d467 4f3d e9ea f53d ae6a e6bc 8af5 c8bd
00000360: f521 39bd fbbc cb3d 6f61 7cbd dd33 8dbb
00000370: 8467 1d3e 5b73 a93c e91a 963c fd3b 743e
00000380: 2928 1d3e d588 91bd d0ee 093e ed08 cabd
00000390: e878 163e b9be f93c ca4b 86bd 806f a8bc
000003a0: 0e8b 0d3c 4919 193e fe1f e53d 5bcf 84bc
000003b0: 213f c7bd 6b9a 34bd e261 d3bd a2ee 373e
000003c0: 2d6c 3a3e b1dd 02bd 2aab 12bd 5889 163e
000003d0: b65e 6e3e 840f c5bd 2e24 ba3c 41d4 11be
000003e0: faf5 8fbd e928 8f3b 9a28 303e c111 4cbc
000003f0: 1621 b3bd 28f1 343e cb8d fb3d a3a6 cd3c

critic.0.bias f4 [64]
-0.014845558 0.0003737429 -0.016609306 0.009653786 0.009653585 0.011370117 -0.0003193343 -0.009402935
-0.016290907 -0.013910655 0.016438799 0.007767629 -0.0044112247 0.008070775 -0.0014154471 0.007934968
0.0030568491 -0.0014334185 -0.019787412 -0.0014620651 0.0036218844 -0.004363553 -0.01446368 0.003193969
0.0013126904 0.010355649 0.0021837126 -0.0057495763 0.0029267394 0.008019579 -0.008537738 -0.009482594
0.015298286 -0.009383586 -0.0019730243 -0.003816259 -0.0026926824 0.0029640158 -0.004013005 0.0007422509
0.00028303638 -0.013370022 -0.018308755 -0.009282942 0.0008387709 -0.010304671 -0.00085472 0.021356637
-0.0030392108 -0.013038117 0.012059012 0.01296889 -0.010384763 0.009191982 -0.0046943994 -0.0049291616
0.007118853 0.012799775 0.01611956 0.010473358 -0.005794297 0.0061470224 0.015584482 0.0067740353
00000000: c93a 73bc ecf2 c339 3d10 88bc ea2a 1e3c
00000010: 122a 1e3c ba49 3a3c 536c a7b9 c50e 1abc
00000020: 8274 85bc 84e9 63bc a9aa 863c 9887 fe3b
00000030: 098c 90bb 493b 043c 8686 b9ba ab01 023c
00000040: 6b55 483b 8be1 bbba 3619 a2bc c4a2 bfba
00000050: 235d 6d3b 23fc 8ebb 12f9 6cbc e851 513b
00000060: 950e ac3a bdaa 293c 9e1c 0f3b f166 bcbb
00000070: 8ace 3f3b 8d64 033c dee1 0bbc e25c 1bbc
00000080: aaa5 7a3c 9dbd 19bc db4d 01bb 341a 7abb
00000090: b777 30bb ef3f 423b 877f 83bb 9d93 423a
000000a0: 8064 9439 f00d 5bbc 3efc 95bc 7b17 18bc
000000b0: f6e0 5b3a ecd4 28bc 4a0f 60ba 1df4 ae3c
000000c0: 7f2d 47bb d49d 55bc 2a93 453c 787b 543c
000000d0: da24 2abc f899 163c 7ad3 99bb ce84 a1bb
000000e0: 4445 e93b 26b6 513c 2b0d 843c 7398 2b3c
000000f0: 16de bdbb f66c c93b 0e56 7f3c baf8 dd3b

critic.2.weight f4 [64, 64]
0.07172621 0.17695728 -0.1347871 0.087138996 0.043523706 0.084916 -0.09095649 -0.40454826
-0.013420199 -0.035456132 0.26138493 -0.05968327 0.047586642 -0.14754573 0.032588713 0.10636224
0.16392843 -0.08585205 -0.3416923 0.19393696 -0.11984017 -0.049200363 0.23883425 0.035838354
-0.1351839 -0.25677013 0.4231974 -0.13296384 -0.06978043 -0.09136665 0.0004754893 0.0904544
-0.08831971 0.31964338 0.21102813 0.13821715 0.14005929 0.04834 0.22817507 -0.041886322
0.17770883 0.0013763919 -0.4251092 0.25636518 -0.20408992 0.034331176 0.1145377 -0.21385524
0.04253154 0.31473744 0.050987635 -0.13414732 -0.024435792 0.23721258 0.021202423 -0.040993262
-0.04808665 -0.06252023 0.09391167 0.44361416 0.046324674 -0.07149324 0.0045156153 -0.3301294
0.17792615 0.13265334 0.21251407 -0.07483481 -0.045770813 -0.12102071 0.45193955 0.053723875
0.22361736 -0.06456113 0.12708637 0.1453072 -0.09217351 0.058321048 -0.10186824 0.12694332
-0.19354314 0.07200764 0.0033089577 -0.14709932 0.20132825 0.14417323 0.05026152 -0.25992465
-0.25334898 0.029110448 0.18486983 0.35820848 -0.086400315 -0.15410526 0.20383728 0.071735226
0.19358733 -0.027389552 -0.038335543 0.13603748 0.0870888 -0.002500713 -0.2716215 -0.43627658
0.1911958 -0.25950295 -0.16548282 0.030374635 0.07912844 -0.26832718 -0.21712667 0.29321003
-0.18163562 0.14771609 -0.21634752 0.103461646 0.015610311 0.1863848 0.007826966 -0.09981383
0.025622893 -0.28567818 0.14863291 0.014152314 0.23873606 0.2285476 0.10334143 0.122529835
0.14554054 0.050274283 0.10893634 0.22377296 -0.1475245 0.035620324 -0.13204874 -0.04398202
0.24301726 0.02754381 -0.20225005 -0.22503729 -0.38098264 -0.009713257 -0.14652725 -0.20677316
0.15087694 0.20293526 0.28670034 -0.19720964 0.07836974 0.042076554 0.49136406 -0.09245157
-0.21882413 -0.3815878 -0.17660598 -0.018135983 0.033586986 -0.03600137 -0.14209531 -0.24023384
-0.2118682 -0.13137795 -0.024831148 0.14730097 -0.11220055 0.010961225 -0.0023710646 0.093604855
0.002138576 0.3214486 -0.021890672 0.13985126 0.13138063 -0.509328 0.35227066 -0.03697082
-0.17229044 0.04714107 -0.26602778 0.080427416 -0.046828914 0.040286344 0.15238988 -0.006936314
0.0953968 0.02658621 -0.24913318 -0.002986898 0.02485249 0.036202434 0.0545798 0.08795126
-0.3091516 0.1274021 -0.1938609 -0.12529771 0.17066626 -0.22748037 -0.15679607 0.009972994
-0.076303214 0.4183341 -0.16141999 0.019796813 0.15329516 0.14292693 -0.4010169 -0.10739178
0.26749387 -0.08463741 -0.16451462 0.03052896 0.17748305 -0.030435147 0.13447657 -0.02451628
0.02407061 0.3722972 0.0867257 0.003723376 0.2641165 -0.08934169 0.012790745 -0.11648004
0.004466204 0.0057246876 0.10032361 0.20444237 -0.21479228 0.21439746 0.008796369 -0.19180816
0.16455303 -0.21714608 0.019977171 -0.17999633 0.19159785 0.2728179 0.4472419 -0.13097867
-0.1559704 0.32149017 0.04102031 0.028271295 -0.26667675 0.09215135 0.19917496 -0.12828045
-0.08123899 -0.041378006 0.08103388 -0.21725966 0.0049295938 0.13323519 0.12513089 0.009109564
00000000: 31e5 923d 4a34 353e a105 0abe ee75 b23d
00000010: ea45 323d 71e8 ad3d 6547 babd f320 cfbe
00000020: 65e0 5bbc 733a 11bd 3fd4 853e 7276 74bd
00000030: 36ea 423d 3a16 17be be7b 053d 72d4 d93d
00000040: dbdc 273e 33d3 afbd 4bf2 aebe 6997 463e
00000050: c36e f5bd 5286 49bd f790 743e 3dcb 123d
00000060: a66d 0abe 6077 83be 54ad d83e ac27 08be
00000070: 0be9 8ebd 701e bbbd 184b f939 2840 b93d
00000080: f7e0 b4bd 4ca8 a33e c217 583e cc88 0d3e
00000090: b46b 0f3e 2a00 463d baa6 693e fe90 2bbd
000000a0: 4ef9 353e 0c68 b43a eaa7 d9be 4c42 833e
000000b0: f3fc 50be d99e 0c3d be92 ea3d defc 5abe
000000c0: 8d35 2e3d 4425 a13e 69d8 503d ea5d 09be
000000d0: 922d c8bc dbe7 723e b4b0 ad3c 8de8 27bd
000000e0: 82f6 44bd 9b0a 80bd c354 c03d 6521 e33e
000000f0: f1be 3d3d 0c6b 92bd baf7 933b b906 a9be
00000100: 4632 363e 47d6 073e 4a9d 593e fe42 99bd
00000110: 2d7a 3bbd b5d9 f7bd 9f64 e73e 910d 5c3d
00000120: f3fb 643e a038 84bd ee22 023e 69cb 143e
00000130: 77c5 bcbd 0de2 6e3d 4ca0 d0bd 6efd 013e
00000140: 2c30 46be be78 933d 19db 583b 34a1 16be
00000150: fe28 4e3e 26a2 133e 06df 4d3d d814 85be
00000160: f5b6 81be 0979 ee3c 844e 3d3e 1a67 b73e
00000170: a6f2 b0bd c5cd 1dbe b8ba 503e ebe9 923d
00000180: c23b 463e 0e60 e0bc bb05 1dbd 694d 0b3e
00000190: 9d5b b23d 01e3 23bb f911 8bbe a55f dfbe
000001a0: d5c8 433e 92dd 84be 5474 29be 3ad4 f83c
000001b0: 170e a23d 2e62 89be 7456 5ebe a01f 963e
000001c0: b0fe 39be e342 173e 348a 5dbe b3e3 d33d
000001d0: 64c2 7f3c a8db 3e3e ad3c 003c 316b ccbd
000001e0: 1ae7 d13c 6944 92be 3a33 183e 1bdf 673c
000001f0: 3a77 743e 6208 6a3e aca4 d33d ecf0 fa3d
00000200: 9408 153e 68ec 4d3d 041a df3d bd24 653e
00000210: aa10 17be 9ee6 113d c937 07be 7e26 34bd
00000220: 84d9 783e 8ea3 e13c a31a 4fbe 2d70 66be
00000230: 2810 c3be 5a24 1fbc 3d0b 16be 58bc 53be
00000240: 7c7f 1a3e 43ce 4f3e 63ca 923e 53f1 49be
00000250: 5080 a03d 7758 2c3d 1294 fb3e 4057 bdbd
00000260: 6f13 60be 7a5f c3be 33d8 34be ea91 94bc
00000270: 8292 093d 2c76 13bd 6f81 11be dcff 75be
00000280: faf3 58be f187 06be b16a cbbc 11d6 163e
00000290: 67c9 e5bd b696 333c dd63 1bbb e7b3 bf3d
000002a0: 5a27 0c3b e994 a43e 1154 b3bc 2b35 0f3e
000002b0: a588 063e 5263 02bf d25c b43e b76e 17bd
000002c0: e86c 30be ff16 413d cb34 88be 21b7 a43d
000002d0: adcf 3fbd 4b03 253d 180c 1c3e 054a e3bb
000002e0: 665f c33d 53cb d93c c51c 7fbe d5bf 43bb
000002f0: 7397 cb3c 0149 143d 128f 5f3d ca1f b43d
00000300: 1e49 9ebe b275 023e 7983 46be 0b4e 00be
00000310: 23c3 2e3e 9df0 68be 268f 20be c565 233c
00000320: dc44 9cbd e32f d63e 484b 25be ed2c a23c
00000330: 68f9 1c3e 705b 123e 1652 cdbe 39f0 dbbd
00000340: f5f4 883e 6156 adbd 8576 28be df17 fa3c
00000350: 1ebe 353e 2153 f9bc 3ab4 093e 5ed6 c8bc
00000360: ba2f c53c bd9d be3e 3e9d b13d e203 743b
00000370: 473a 873e c7f8 b6bd 4690 513c 168d eebd
00000380: 3c59 923b 2996 bb3b 7776 cd3d 5759 513e
00000390: 82f2 5bbe 028b 5b3e a51e 103c 5c69 44be
000003a0: 9780 283e 8b5b 5ebe 2aa7 a33c f550 38be
000003b0: 3a32 443e caae 8b3e e4fc e43e 461f 06be
000003c0: b4b6 1fbe 5c9a a43e ea04 283d 3499 e73c
000003d0: db89 88be d9b9 bc3d 85f4 4b3e f35b 03be
000003e0: a160 a6bd fc7b 29bd 17f5 a53d 5179 5ebe
000003f0: 6e88 a13b ce6e 083e 5022 003e 4840 153c

critic.2.bias f4 [64]
-0.031200688 0.00824745 0.026401656 -0.009434912 -0.011192886 -0.0027703738 -0.0046372265 -0.016914628
-0.002714892 -0.01704249 -0.03820751 -0.02502866 0.017461108 -0.037263084 -0.0031760961 0.011576787
0.02343326 0.012911966 0.027897358 -0.0307696 -0.012667744 -0.033695485 -0.011946489 -0.017925065
-0.03375163 0.025463684 0.016810253 -0.024434308 0.033965223 -0.025867233 0.011610509 -0.009649422
0.019251855 0.0036903357 0.018345192 -0.01215562 -0.0023597179 -0.008988925 0.021950308 -0.037463643
0.0035865328 -0.009525378 0.037611045 0.019840756 -0.009471467 0.017594708 -0.019300917 -0.0067780395
0.018037032 0.0022185785 0.029668197 0.027804673 -0.01408067 0.014781575 0.01398162 0.022724668
-0.00064502517 0.02018427 -0.024269566 0.008770634 0.009241708 -0.02202535 -0.0031516883 -0.02926253
00000000: 9698 ffbc 5020 073c 4948 d83c e494 1abc
00000010: 5e62 37bc 298f 35bb e0f3 97bb 8c90 8abc
00000020: 54ec 31bb b19c 8bbc 7a7f 1cbd e808 cdbc
00000030: 990a 8f3c 2da1 18bd 0d26 50bb 90ac 3d3c
00000040: 1cf7 bf3c b68c 533c 0089 e43c 8710 fcbc
00000050: 5f8c 4fbc 4704 0abd 35bb 43bc 96d7 92bc
00000060: 263f 0abd 3799 d03c a8b5 893c 752a c8bc
00000070: 1e1f 0b3d 85e7 d3bc 013a 3e3c 9c18 1ebc
00000080: 11b6 9d3c 8fd9 713b a848 963c 5e28 47bc
00000090: 7fa5 1abb 4946 13bc 22d1 b33c 7a73 19bd
000000a0: 090c 6b3b 5510 1cbc 0a0e 1a3d 1589 a23c
000000b0: 362e 1bbc c722 903c f51c 9ebc 511a debb
000000c0: 66c2 933c 9265 113b b80a f33c a0c6 e33c
000000d0: 9cb2 66bc 6b2e 723c 2a13 653c 1529 ba3c
000000e0: e816 29ba 7b59 a53c f8d0 c6bc b5b2 0f3c
000000f0: 886a 173c 826e b4bc 8e8c 4ebb f9b7 efbc

critic.4.weight f4 [1, 64]
-0.056371048 0.030183122 0.17190044 -0.18979847 -0.21249665 -0.029422337 0.10395543 -0.07923666
-0.13479461 -0.23002706 -0.071364164 -0.18881683 0.124046974 -0.060687315 -0.09436853 0.07074305
0.055985056 0.074385226 0.14662582 -0.20145279 -0.053406253 -0.11149025 0.09029898 -0.17492726
-0.18510263 0.08194824 0.14324296 -0.04582491 0.066773705 -0.10335076 0.3197849 -0.09643337
0.28159255 -0.17796333 0.42028248 0.112131305 0.045381326 0.13377345 0.19151816 -0.2522586
-0.28750262 0.079519816 0.087567724 0.08451931 -0.14227834 -0.1309265 -0.26666954 -0.31025544
0.102239124 -0.14215411 0.23858677 0.08823117 -0.10183369 0.23151124 -0.13758063 0.17356241
-0.13092145 0.19198216 -0.03978168 0.21988511 0.06927859 -0.26479226 0.010735785 -0.32767308
00000000: 54e5 66bd 9842 f73c ab06 303e 885a 42be
00000010: b998 59be 1d07 f1bc 96e6 d43d d446 a2bd
00000020: 9907 0abe 378c 6bbe 6027 92bd 3359 41be
00000030: 570c fe3d 4393 78bd 4a44 c1bd bbe1 903d
00000040: 9650 653d 4857 983d 1425 163e a449 4ebe
00000050: 84c0 5abd 0055 e4bd acee b83d 2220 33be
00000060: 8b8b 3dbe 7bd4 a73d 48ae 123e e7b2 3bbd
00000070: a7c0 883d 90a9 d3bd d9ba a33e dc7e c5bd
00000080: e62c 903e 053c 36be 442f d73e 19a5 e53d
00000090: c5e1 393d e8fb 083e 561d 443e 0a28 81be
000000a0: 8b33 93be 49db a23d b556 b33d 7618 ad3d
000000b0: 6ab1 11be 9911 06be e988 88be cdd9 9ebe
000000c0: bf62 d13d d990 11be 1750 743e 8bb2 b43d
000000d0: 2f8e d0bd 4811 6d3e f0e1 0cbe 58ba 313e
000000e0: 4610 06be f996 443e 1df2 22bd 9029 613e
000000f0: efe1 8d3d da92 87be 25e5 2f3c c4c4 a7be

actor.0.weight f4 [64, 200]
0.12666567 0.063131295 0.05339329 0.038985353 0.0039222995 -0.08012507 -0.021268792 -0.0080479225
0.13830805 0.14445311 0.09303121 0.04447228 -0.032469574 0.21218504 -0.054332424 0.08183906
0.17813769 -0.047046226 -0.057184573 -0.06722089 -0.04817156 -0.098799765 0.27060726 0.032551847
0.069817685 0.10008837 0.028266339 0.0061399555 -0.21921235 0.10466831 -0.033813607 0.045495577
0.08101702 -0.093382366 0.056801356 0.060689855 0.14202577 0.0033141002 -0.050136432 -0.053440526
-0.056393642 0.0044337944 -0.047927264 0.054622162 -0.054422393 -0.07438927 -0.0027509194 -0.0036475246
-0.0804146 -0.076379314 0.17272913 0.11158973 0.05775598 0.032591514 -0.0031552133 0.07782404
-0.08050131 -0.07940183 0.02888295 -0.15647055 0.020668555 -0.27271554 0.16135308 -0.039841022
0.03541798 -0.1484936 0.22183885 -0.17364717 0.018210743 -0.076132745 0.013804564 -0.040540133
-0.11052484 0.10134795 0.025586674 0.02959449 -0.18057692 0.055965777 0.01689904 -0.080532685
-0.15898585 0.015344492 0.002103932 -0.12686402 0.073864885 0.0029142317 0.092379935 0.14859681
-0.1314497 -0.06426419 -0.120372556 0.056530032 -0.008967041 -0.06230863 -0.03851484 0.053073455
0.053208772 0.0427599 0.088816725 0.088707305 -0.072683044 -0.08933275 -0.047972906 -0.058652464
0.19210108 0.03676507 0.19334272 0.23682584 -0.005134522 -0.0060025305 -0.15720364 -0.029794285
-0.05342772 0.03783566 0.07014473 0.07679316 0.0014883751 -0.0010409112 -0.08875024 0.2381963
-0.12027188 0.02413979 0.042356897 -0.085178226 -0.080940776 0.09997875 0.045405693 0.05556202
0.10635604 0.11575881 0.061640605 0.019979166 -0.014837091 0.12916139 -0.07136945 0.056930583
0.15411042 0.08475146 0.039754104 0.13835049 0.045947403 0.11227974 0.034413513 -0.039855473
0.14882664 -0.11818314 0.03912617 0.052129883 0.05206934 0.01361931 -0.06931596 -0.10520079
-0.038301643 0.003065619 0.06289959 -0.08290635 0.17627053 -0.12251045 0.042293683 -0.090123594
-0.06930815 -0.028951183 -0.05014031 -0.12091623 0.012425021 0.23569678 0.20846596 -0.079624645
-0.15148614 -0.10454872 -0.004693346 -0.03283679 0.047793075 -0.10036767 -0.1348753 -0.07733535
-0.090792075 -0.041206703 -0.15551935 0.09007314 -0.26396486 0.10467428 0.18967353 -0.07853389
0.05237731 0.05568478 0.03875655 0.108693495 0.025178153 -0.03691728 -0.14314292 0.053987805
0.07903071 0.20060405 0.07213156 0.16094124 -0.06067421 -0.09421748 0.0143574 -0.01569264
0.08683117 0.0724357 0.041915238 0.08035156 -0.097199515 -0.043066636 -0.00086590124 -0.097520865
-0.048433233 0.06549041 0.13745947 -0.17250721 0.08230608 -0.09572052 0.11599877 0.013015137
0.075467296 0.025630333 0.04652417 0.10514956 -0.041558765 -0.09629639 0.07609598 0.21402395
0.085199095 0.1394884 0.05459575 -0.08886411 -0.06980099 0.010222671 -0.011918958 0.054782998
0.08590742 0.065807566 -0.12573946 -0.17586708 0.10567447 0.003988687 0.049940348 0.024258684
-0.058737174 0.011180453 0.040961895 0.05032876 0.0028807137 -0.12221713 -0.08578835 -0.010615204
0.064678684 0.20633763 -0.17616704 0.12824471 0.0108701065 -0.08551982 0.050277352 0.00032173507
00000000: a5b4 013e fb4a 813d ecb2 5a3d 1baf 1f3d
00000010: a286 803b 9d18 a4bd e43b aebc 6fdb 03bc
00000020: a0a0 0d3e 84eb 133e 2687 be3d 9128 363d
00000030: d1fe 04bd 0947 593e ad8b 5ebd 3d9b a73d
00000040: ba69 363e 8bb3 40bd 5f3a 6abd 1bab 89bd
00000050: 8b4f 45bd 8857 cabd 098d 8a3e 1655 053d
00000060: 93fc 8e3d 22fb cc3d cf8e e73c ae31 c93b
00000070: 3479 60be 575c d63d 2380 0abd 9259 3a3d
00000080: 40ec a53d 413f bfbd 8aa8 683d ed95 783d
00000090: 346f 113e 6031 593b dc5b 4dbd 74e4 5abd
000000a0: 05fd 66bd 5d49 913b 614f 44bd 7dbb 5f3d
000000b0: 04ea 5ebd 6759 98bd c548 34bb 4f0b 6fbb
000000c0: 69b0 a4bd c26c 9cbd e8df 303e 2889 e43d
000000d0: 8991 6c3d ae7e 053d b2c7 4ebb 3662 9f3d
000000e0: dfdd a4bd 6d9d a2bd f09b ec3c d139 20be
000000f0: 1a51 a93c 5fa1 8bbe be39 253e 5730 23bd
00000100: 7212 113d b50e 18be b929 633e 90d0 31be
00000110: b22e 953c 7ceb 9bbd 8a2c 623c 690d 26bd
00000120: d95a e2bd 848f cf3d 259b d13c 2570 f23c
00000130: 28e9 38be 5f3c 653d db6f 8a3c 52ee a4bd
00000140: 30cd 22be 7767 7b3c 1fe2 093b a4e8 01be
00000150: 7946 973d b2fc 3e3b b131 bd3d c329 183e
00000160: c09a 06be f29c 83bd e385 f6bd 098c 673d
00000170: 7fea 12bc 5637 7fbd bdc1 1dbd 8d63 593d
00000180: 71f1 593d 0125 2f3d 8be5 b53d 2dac b53d
00000190: d9da 94bd 17f4 b6bd 3d7f 44bd 913d 70bd
000001a0: 25b6 443e f896 163d a2fb 453e 7982 723e
000001b0: 7e3f a8bb e0b0 c4bb fef9 20be 2513 f4bc
000001c0: 06d7 5abd 91f9 1a3d 0aa8 8f3d bb45 9d3d
000001d0: 9515 c33a 2f6f 88ba b0c2 b5bd bbe9 733e
000001e0: 1a51 f6bd cfc0 c53c 6d7e 2d3d ec71 aebd
000001f0: 47c4 a5bd a9c1 cc3d 52fb 393d 0095 633d
00000200: 32d1 d93d f412 ed3d dc7a 7c3d 59ab a33c
00000210: 4517 73bc e242 043e 252a 92bd 0b30 693d
00000220: 1fcf 1d3e 2c92 ad3d 33d5 223d c0ab 0d3e
00000230: 5833 3c3d ecf2 e53d 2ff5 0c3d 7e3f 23bd
00000240: 0366 183e 010a f2bd c342 203d 2586 553d
00000250: a946 553d 8723 5f3c 87f5 8dbd 8373 d7bd
00000260: 2fe2 1cbd 8de8 483b 80d1 803d ceca a9bd
00000270: 4380 343e c2e6 fabd 243c 2d3d b892 b8bd
00000280: 6ef1 8dbd 082b edbc ed5f 4dbd eea2 f7bd
00000290: 5192 4b3c 7f5a 713e 1a78 553e 3f12 a3bd
000002a0: 2f1f 1bbe a41d d6bd a4ca 99bb df7f 06bd
000002b0: acc2 433d 918d cdbd c01c 0abe ff61 9ebd
000002c0: 32f1 b9bd 5cc8 28bd 7740 1fbe 4478 b83d
000002d0: 6726 87be 785f d63d c739 423e 60d6 a0bd
000002e0: 9789 563d b915 643d 30bf 1e3d b29a de3d
000002f0: 6a42 ce3c 9336 17bd 0f94 12be 5122 5d3d
00000300: dada a13d 266b 4d3e b6b9 933d c8cd 243e
00000310: 8585 78bd 18f5 c0bd 4d3b 6b3c da8d 80bc
00000320: 8ad4 b13d 2b59 943d 50af 2b3d 5c8f a43d
00000330: 8a10 c7bd a466 30bd a6fd 62ba 05b9 c7bd
00000340: ed61 46bd d61f 863d 2dc2 0c3e bba5 30be
00000350: 1790 a83d 1f09 c4bd c390 ed3d 713d 553c
00000360: 998e 9a3d b4f6 d13c 2190 3e3d a758 d73d
00000370: 8639 2abd 0b37 c5bd 36d8 9b3d 1829 5b3e
00000380: dd7c ae3d 0cd6 0e3e cb9f 5f3d 63fe b5bd
00000390: d2f3 8ebd fd7c 273c bc47 43bc 2364 603d
000003a0: 3bf0 af3d 1ec6 863d d8c1 00be 8016 34be
000003b0: db6b d83d 88b3 823b 408e 4c3d 26ba c63c
000003c0: 6496 70bd 382e 373c a9c7 273d 8825 4e3d
000003d0: 5bca 3c3b fa4c fabd cdb1 afbd 65eb 2dbc
000003e0: 4276 843d 2c4a 533e 2265 34be 9552 033e
000003f0: 8818 323c 0425 afbd a0ef 4d3d 8dae a839

actor.0.bias f4 [64]
-0.0032703648 -0.0061490787 -0.006761021 -0.0069725136 0.015403525 -0.0062530935 -0.004785857 -0.0018077453
-0.0043127732 0.0030504274 -0.006989659 0.0054216124 -0.008809176 -0.003975549 -0.0024881226 -0.00378711
0.0027083408 0.00458364 -0.0076312227 -0.0011885213 -0.003494394 -0.002157432 0.013673928 -0.008037613
0.001996765 -0.00317981 0.0018593082 0.00043588545 -0.0040536486 -0.0056769103 -0.005908261 0.0010076226
0.0034360697 -0.00478456 0.009396928 0.00736854 0.0048005246 0.0014182801 -0.0010127923 0.0024820305
0.008543494 -0.004135927 0.0066977134 -0.001964032 0.009678524 -0.0012688533 -0.008203671 -0.0008796381
0.008019833 0.015858995 0.0001841464 0.0010529398 -0.014112912 -0.003448581 0.002135554 0.0029504225
-0.0027363298 -0.0048929607 -0.020666491 -0.02470229 0.001458983 0.021844465 0.0021017594 0.0086764805
00000000: 9e53 56bb 367e c9bb 8e8b ddbb af79 e4bb
00000010: 115f 7c3c c0e6 ccbb aed2 9cbb def1 ecba
00000020: 2a52 8dbb aee9 473b 8209 e5bb c8a7 b13b
00000030: 5d54 10bc 5245 82bb c50f 23bb 2a31 78bb
00000040: 6b7e 313b 5c32 963b 560f fabb 28c8 9bba
00000050: 3402 65bb b463 0dbb 9c08 603c 31b0 03bc
00000060: 28dc 023b 5c64 50bb 08b4 f33a 8e87 e439
00000070: 78d4 84bb 6005 babb 169a c1bb 3412 843a
00000080: af2f 613b ccc7 9cbb 93f5 193c cb73 f13b
00000090: b84d 9d3b 95e5 b93a acbf 84ba 90a9 223b
000000a0: 03fa 0b3c ac86 87bb 7e78 db3b fdb6 00bb
000000b0: ac92 1e3c a74f a6ba b168 06bc 8397 66ba
000000c0: 9e65 033c b9ea 813c 6c17 4139 cc02 8a3a
000000d0: d839 67bc 9701 62bb a7f4 0b3b e05b 413b
000000e0: ff53 33bb 2155 a0bb c64c a9bc 755c cabc
000000f0: 593b bf3a 2af3 b23c acbd 093b cc27 0e3c

actor.2.weight f4 [64, 64]
0.03168665 0.3835591 -0.30998558 -0.15472417 -0.11209337 -0.17913288 -0.104508564 -0.423633
0.035601787 -0.14660387 0.044974096 0.11364413 -0.08896144 0.3314424 0.28898236 -0.23659503
-0.14405014 -0.05045443 0.07112177 0.040479183 -0.3255677 0.090098865 0.19227134 0.04494623
0.107252344 -0.38542953 -0.12835388 0.13965459 0.099966414 0.22858836 -0.19270977 -0.15258348
-0.036954254 0.13081044 0.1844983 0.18772513 -0.035970643 -0.029647248 -0.09209874 -0.20798804
-0.10626619 -0.13835171 0.41005853 0.0033781028 -0.15119576 -0.110849984 0.054711096 0.10874777
-0.3636471 -0.048949268 0.12588783 -0.026080843 -0.09430926 -0.07782221 -0.10851125 -0.20721272
0.11543652 -0.027731463 0.082019575 0.018897373 -0.15171556 -0.01295165 0.17505565 0.124133326
0.10492388 0.041736618 0.19303316 0.21165921 0.22342603 0.103009224 0.0794807 -0.0883546
0.058195006 -0.08428756 0.017686134 0.17517692 0.13567077 0.081621 0.2778735 -0.006909721
-0.11126038 -0.11391907 0.06216225 0.022832355 -0.3361766 -0.017837793 -0.07931403 0.15753402
0.013717371 0.10466378 0.1982404 -0.1176721 -0.24934405 0.0021522618 0.3749966 -0.05022592
-0.12605947 -0.23961228 0.43764836 0.2019921 0.111222506 -0.17443971 0.21190447 -0.4073258
-0.20576766 -0.079301365 -0.08649478 -0.14483455 0.14315209 0.0029969092 -0.21784844 -0.31012285
0.37108716 -0.22246578 0.20080067 0.2521652 -0.17442669 -0.15634401 0.017722297 -0.08858959
0.07563262 0.03338636 0.010239201 -0.16634503 0.095349155 0.15411328 -0.078784525 0.005765151
0.06317866 0.13839802 -0.066107094 0.21596938 -0.09160099 -0.05899382 -0.24794568 0.15287107
0.2145687 0.15373187 0.2049263 0.076661624 0.23186728 0.12524492 -0.11929173 0.12468626
-0.11144893 -0.3105206 -0.29011533 -0.2200795 0.44965392 0.044860654 -0.11764391 0.10305097
0.019913135 0.14273971 -0.25277767 0.050748058 -0.30407637 0.19400765 -0.21472925 0.11609331
0.061576802 0.10238075 0.43340036 0.15824492 -0.07204416 0.23979965 0.09600639 -0.09730885
-0.21313162 -0.09114708 -0.13804854 0.11037795 -0.35585564 0.010584865 0.08340782 -0.054764725
0.004923304 -0.1346273 -0.22937876 -0.15411675 -0.004163565 -0.035040166 0.08902064 -0.07404707
-0.053885493 0.15449108 -0.09972731 -0.12335513 0.24402876 -0.26319414 0.095536195 0.16736053
-0.071146324 -0.29898947 0.07437412 0.024414606 -0.13844047 -0.21014757 -0.086205915 0.040096242
0.08763244 -0.012657754 0.12717089 -0.34565303 0.40745673 -0.41555235 0.36652336 -0.048038177
0.20283237 0.0007280868 -0.032317415 -0.4020963 -0.40236446 0.28175986 0.06659214 0.23765528
-0.2859562 -0.24836995 -0.10511791 0.062873304 0.022227151 -0.064001136 0.00036600535 0.12666263
0.16019228 0.13980503 0.028236756 -0.23936747 0.15010995 -0.0041806237 0.17198572 0.085025236
-0.1336775 0.121517815 0.031407975 0.022280892 -0.08482728 -0.33330336 0.13044597 0.14648439
0.10326102 -0.26432282 0.0023688842 0.0357199 -0.030138973 0.1677692 -0.030050999 -0.06663409
0.08784376 0.05688526 -0.095379904 0.0117392335 -0.026385752 -0.12225066 0.088849805 -0.09281926
00000000: dcc9 013d dc61 c43e 6eb6 9ebe 0370 1ebe
00000010: 3591 e5bd 9c6e 37be 9608 d6bd 6de6 d8be
00000020: 2ed3 113d 531f 16be c236 383d 41be e83d
00000030: 6a31 b6bd d1b2 a93e 7ff5 933e f845 72be
00000040: e181 13be 4ea9 4ebd 4aa8 913d 80cd 253d
00000050: cfb0 a6be c185 b83d c7e2 443e 8a19 383d
00000060: 1ea7 db3d 0557 c5be 336f 03be 9d01 0f3e
00000070: 31bb cc3d 1113 6a3e b655 45be d83e 1cbe
00000080: 585d 17bd 2cf3 053e 1fed 3c3e 043b 403e
00000090: f455 13bd c9de f2bc 449e bcbd d1fa 54be
000000a0: 17a2 d9bd 12ac 0dbe 31f3 d13e 2963 5d3b
000000b0: 10d3 1abe 5105 e3bd be18 603d 27b7 de3d
000000c0: f42f babe 077f 48bd bde8 003e 7ea7 d5bc
000000d0: 3725 c1bd 4061 9fbd 253b debd 922f 54be
000000e0: fb69 ec3d 182d e3bc e1f9 a73d aace 9a3c
000000f0: 535b 1bbe 2833 54bc ca41 333e 9d39 fe3d
00000100: 55e2 d63d 04f4 2a3d 7caa 453e 31bd 583e
00000110: cbc9 643e 80f6 d23d c7c6 a23d 42f3 b4bd
00000120: e35d 6e3d f59e acbd 83e2 903c 9461 333e
00000130: 47ed 0a3e e928 a73d 6f45 8e3e f16a e2bb
00000140: 7bdc e3bd 674e e9bd d89d 7e3d eb0a bb3c
00000150: 571f acbe 9020 92bc 656f a2bd 9950 213e
00000160: d3be 603c f759 d63d 88ff 4a3e 12fe f0bd
00000170: 0c54 7fbe f60c 0d3b 8eff bf3e b2b9 4dbd
00000180: bc15 01be ec5c 75be 7213 e03e 04d7 4e3e
00000190: a0c8 e33d 53a0 32be 7cfd 583e 028d d0be
000001a0: c2b4 52be c168 a2bd 2d24 b1bd 824f 14be
000001b0: 7696 123e cb67 443b a913 5fbe 6cc8 9ebe
000001c0: 23ff bd3e 12ce 63be b19e 4d3e cc1b 813e
000001d0: e99c 32be a518 20be 5a2e 913c 756e b5bd
000001e0: 46e5 9a3d 23c0 083d 52c2 273c 5a56 2abe
000001f0: 6b46 c33d dfcf 1d3e c859 a1bd 98e9 bc3b
00000200: d063 813d 36b8 0d3e 2863 87bd 1427 5d3e
00000210: 4d99 bbbd 81a3 71bd 79e5 7dbe 3c8a 1c3e
00000220: e6b7 5b3e e36b 1d3e 33d8 513e c500 9d3d
00000230: 9e6e 6d3e 3440 003e 394f f4bd 835b ff3d
00000240: 563f e4bd 8efc 9ebe ff89 94be 855c 61be
00000250: 0a39 e63e cebf 373d 4aef f0bd 630c d33d
00000260: df20 a33c 5c2a 123e 136c 81be 32dd 4f3d
00000270: e6af 9bbe f1a9 463e fce1 5bbe 54c2 ed3d
00000280: f537 7c3d 00ad d13d a7e6 dd3e f50a 223e
00000290: e38b 93bd 0a8e 753e 009f c43d dd49 c7bd
000002a0: 2d3f 5abe 52ab babd 995c 0dbe d60d e23d
000002b0: b632 b6be 246c 2d3c b8d1 aa3d fa50 60bd
000002c0: ab53 a13b bddb 09be 44e2 6abe c8d0 1dbe
000002d0: 846e 88bb 4786 0fbd 7450 b63d fea5 97bd
000002e0: 09b7 5cbd e932 1e3e d53d ccbd 9da1 fcbd
000002f0: ade2 793e 62c1 86be 7ba8 c33d 8f60 2b3e
00000300: 2ab5 91bd 2615 99be 7551 983d 2401 c83c
00000310: 57c3 0dbe ed30 57be ba8c b0bd f53b 243d
00000320: a378 b33d 7862 4fbc 1639 023e 6ff9 b0be
00000330: 2b9e d03e 47c3 d4be f3a8 bb3e aec3 44bd
00000340: 4ab3 4f3e 14dd 3e3a 445f 04bd 91df cdbe
00000350: b702 cebe d442 903e 7661 883d e85b 733e
00000360: da68 92be b154 7ebe 0f48 d7bd b8c3 803d
00000370: b715 b63c 0713 83bd 68e4 bf39 d9b3 013e
00000380: 7209 243e 0d29 0f3e c550 e73c bf1c 75be
00000390: 6cb6 193e 9dfd 88bb 061d 303e b621 ae3d
000003a0: c1e2 08be 55de f83d a6a5 003d 6b86 b63c
000003b0: edb9 adbd bda6 aabe a193 053e 0100 163e
000003c0: 837a d33d 5255 87be 483f 1b3b 084f 123d
000003d0: 02e6 f6bc b0cb 2b3e 832d f6bc 7477 88bd
000003e0: 6ee7 b33d 8500 693d 8a56 c3bd ea55 403c
000003f0: ef26 d8bc 8e5e fabd e3f6 b53d 0618 bebd

actor.2.bias f4 [64]
-0.016526742 0.0066643506 -0.002447125 0.012250857 -0.006762885 0.0065766755 -0.011065651 0.014095915
-0.007767465 -0.0019446192 -0.013151049 0.012319585 0.0029045665 -0.010500285 0.005820379 0.011455839
0.010654365 -0.012895184 -0.018763786 0.0035753644 0.010955441 -0.011871494 -0.006220488 0.015622675
0.010248447 -0.004656493 0.0010794258 0.0012130158 -0.007809219 0.008125058 0.010389166 -0.015066752
-0.0024531381 -0.008720994 -0.0015159296 -0.015335225 -0.009847529 -0.010758122 0.019804034 -0.008474395
-0.0027113026 -0.0049564857 -0.0077080647 0.008213652 0.0023549297 0.015410382 0.0005770221 -0.0062388037
0.004949272 0.0109801395 0.010265343 -0.007875978 -0.0051510804 0.002523762 0.000945798 -0.0008469759
-0.0008284923 0.008272954 0.002497356 -0.015316789 -0.0025764983 -0.01054771 0.006714928 -0.014453489
00000000: 1763 87bc a060 da3b f25f 20bb d2b7 483c
00000010: 319b ddbb 2781 d73b b44c 35bc 8df2 663c
00000020: 3886 febb 98e2 feba 7f77 57bc 16d8 493c
00000030: 8a5a 3e3b 6309 2cbc e1b8 be3b 45b1 3b3c
00000040: a58f 2e3c 5246 53bc 83b6 99bc a950 6a3b
00000050: 737e 333c a880 42bc 3cd5 cbbb 40f6 7f3c
00000060: 1ae9 273c 7f95 98bb 857b 8d3a 0efe 9e3a
00000070: 7ae4 ffbb f71e 053c 5237 2a3c 8ada 76bc
00000080: d4c4 20bb 80e2 0ebc 28b2 c6ba 9840 7bbc
00000090: 8857 21bc d642 30bc 123c a23c 30d8 0abc
000000a0: 1cb0 31bb 046a a2bb ef93 fcbb 8e92 063c
000000b0: 2a55 1a3b d47b 7c3c 4c43 173a e16e ccbb
000000c0: 812d a23b 0be6 333c f82f 283c 3f0a 01bc
000000d0: 65ca a8bb b365 253b 6eef 773a 9707 5eba
000000e0: 2d2f 59ba 498b 073c aeaa 233b 45f3 7abc
000000f0: 78da 28bb 4dd0 2cbc e608 dc3b 54ce 6cbc

actor.4.weight f4 [34, 64]
0.14700733 0.25088444 0.051952425 0.04218782 -0.24562587 -0.19995742 0.3970111 0.3394899
-0.20888293 0.13505581 -0.19346452 0.12372426 -0.17300236 -0.07528937 -0.10505388 0.112687476
-0.23188926 0.025523389 0.059812855 -0.28780085 0.35671183 0.043125086 0.076514766 -0.05250333
0.07571702 -0.11144844 -0.18191177 0.22289732 -0.2550748 0.27867752 -0.021311399 0.0746628
0.14193925 0.10578641 0.06997432 0.2732554 0.17753085 -0.04889324 -0.29527676 -0.19654216
-0.21179923 -0.11477436 -0.12016071 -0.032507848 -0.15252484 0.08342417 -0.08193897 -0.2275462
0.06758657 0.31412366 0.08040928 0.19144705 0.08284778 0.07518683 -0.18647623 -0.14317122
-0.11839916 -0.20433632 -0.0640771 0.19826071 -0.1936584 -0.19155346 -0.22668913 0.07867216
0.11708063 0.27126363 0.10559247 -0.023489619 -0.16752838 0.08809512 -0.05572897 -0.29956
-0.00021847985 0.042168543 -0.12657437 -0.09914658 0.19409327 0.17757767 0.22896834 -0.058999144
-0.18871066 -0.35138363 -0.1684369 -0.15079427 -0.4351915 -0.2576355 0.13638148 -0.21669307
-0.08822277 -0.21653968 -0.0023135608 0.14271948 0.030384043 0.26594025 0.10536705 -0.09009359
0.38960585 -0.03913653 0.051909417 -0.053336807 -0.25277218 0.2255378 -0.097205244 -0.22590797
-0.02944741 -0.27710623 0.13991363 -0.41561037 -0.12871714 -0.23154706 -0.018865982 0.063599885
-0.17386867 0.1060863 -0.04470386 0.10572243 -0.036003083 0.20995753 0.01775507 0.08158785
0.13239723 0.005323761 0.07865738 -0.21902528 -0.34939834 0.030769266 -0.008676973 -0.12774786
0.23612094 0.18888062 0.09876596 -0.072356775 0.39503956 0.23312446 0.22868232 0.07858282
0.02484162 -0.119983375 0.12228079 -0.20715128 0.29738078 0.09481122 0.03911252 0.14481175
-0.026573969 0.22132716 0.1988986 0.24097934 0.04609792 -0.23626696 0.11094812 0.13831824
0.2524808 -0.21204506 -0.24163775 -0.11006691 -0.060547695 0.037627503 0.06422504 -0.15254351
-0.03210245 0.004129089 0.2588254 0.100218944 -0.040872153 0.06863357 0.097967885 -0.10041239
-0.372125 0.0052754744 -0.01504889 -0.046791416 -0.06143509 -0.30525273 0.22884907 0.05645384
0.23183468 -0.31511974 0.11311455 0.11366144 -0.052361757 -0.425724 0.1852101 0.16274475
0.09998806 -0.21785815 -0.17785472 0.19258939 -0.18523057 0.109070726 -0.102747105 0.082626775
0.115076385 -0.1285758 0.00018966619 -0.020371271 -0.060734134 0.07881722 -0.18167353 0.14081512
-0.12451606 -0.23239326 0.15613794 -0.12331494 0.03703039 0.05950406 -0.17536026 0.20920435
-0.076849565 0.011688184 -0.15173133 -0.027983695 -0.13868532 -0.1205006 0.114586204 0.03144226
-0.08588919 0.14507967 -0.06519927 0.33082002 -0.2728344 -0.00486082 -0.4428092 -0.056282494
-0.235984 0.31261 0.03294141 -0.041320194 -0.35836437 -0.009053107 -0.0059794295 0.39616248
-0.3151834 -0.273539 -0.06746742 0.006087188 -0.0067749405 -0.15461645 -0.12655754 0.050546587
0.1669718 -0.08294088 -0.16534287 -0.26846287 0.25547943 0.22238232 0.08575892 -0.092723124
0.01591337 0.10489595 0.22041838 -0.12646557 0.19626425 -0.10608281 -0.35778904 0.2236518
00000000: 1789 163e ed73 803e 11cc 543d 23cd 2c3d
00000010: 5985 7bbe a3c1 4cbe 0a45 cb3e 9fd1 ad3e
00000020: 68e5 55be 124c 0a3e 901b 46be 2563 fd3d
00000030: 8827 31be 5031 9abd 7d26 d7bd b1c8 e63d
00000040: 6174 6dbe 6d16 d13c 53fe 743d a25a 93be
00000050: efa2 b63e eea3 303d c6b3 9c3d bb0d 57bd
00000060: 8611 9b3d 143f e4bd 1447 3abe 323f 643e
00000070: 2a99 82be d2ae 8e3e 3e95 aebc cfe8 983d
00000080: 8658 113e 8ca6 d83d b24e 8f3d 22e8 8b3e
00000090: a6ca 353e 4744 48bd 842e 97be 5942 49be
000000a0: e6e1 58be d20e ebbd d116 f6bd f326 05bd
000000b0: 792f 1cbe 4bda aa3d 9ecf a7bd df01 69be
000000c0: d46a 8a3d d1d4 a03e 9fad a43d b20a 443e
000000d0: 19ac a93d 8dfb 993d a0f3 3ebe 7a9b 12be
000000e0: 427b f2bd 8a3d 51be db3a 83bd db04 4b3e
000000f0: 634e 46be 9726 44be 3221 68be df1e a13d
00000100: f8c7 ef3d 11e3 8a3e dd40 d83d 4d6d c0bc
00000110: 8f8c 2bbe 376b b43d 0f44 64bd ee5f 99be
00000120: bd17 65b9 ecb8 2c3d b69c 01be 5d0d cbbd
00000130: 63c0 463e ecd6 353e ad76 6a3e 16a9 71bd
00000140: 5e3d 41be 8ee8 b3be b97a 2cbe d069 1abe
00000150: 6cd1 debe cde8 83be 96a7 0b3e cae4 5dbe
00000160: 24ae b4bd 94bc 5dbe 1c9f 17bb 0e25 123e
00000170: f5e7 f83c 5229 883e aeca d73d fd82 b8bd
00000180: 6b7a c73e a04d 20bd f89e 543d b277 5abd
00000190: 5b6b 81be 62f3 663e 8b13 c7bd 6b54 67be
000001a0: b23b f1bc dee0 8dbe 8545 0f3e e2ca d4be
000001b0: 6dce 03be ac1a 6dbe d58c 9abc a840 823d
000001c0: a10a 32be c643 d93d 651b 37bd 0085 d83d
000001d0: f877 13bd 1bff 563e 1573 913c 8817 a73d
000001e0: 2493 073e f272 ae3b 1f17 a13d 2a48 60be
000001f0: 57e4 b2be d40f fc3c dd29 0ebc 56d0 02be
00000200: b0c9 713e ec69 413e cf45 ca3d ca2f 94bd
00000210: a042 ca3e 2eb8 6e3e b32b 6a3e 08f0 a03d
00000220: a780 cb3c d8b9 f5bd 5a6e fa3d 771f 54be
00000230: 4b42 983e 632c c23d 7334 203d 8849 143e
00000240: a7b1 d9bc 96a3 623e 13ac 4b3e 4ac3 763e
00000250: 2cd1 3c3d f7ef 71be c538 e33d 4ca3 0d3e
00000260: 2a45 813e 5722 59be e36f 77be c36a e1bd
00000270: dc00 78bd 4c1f 1a3d 6b88 833d 5e34 1cbe
00000280: dc7d 03bd 4f4d 873b c384 843e 973f cd3d
00000290: 8f69 27bd c28f 8c3d 63a3 c83d 03a5 cdbd
000002a0: 2b87 bebe e3dd ac3b 9f8f 76bc 5ba8 3fbd
000002b0: 5ca3 7bbd 164a 9cbe 6957 6a3e 243c 673d
000002c0: 1266 6d3e 6057 a1be 9aa8 e73d 54c7 e83d
000002d0: 4879 56bd 7ff8 d9be b7a7 3d3e 8fa6 263e
000002e0: 8ac6 cc3d 3516 5fbe 8c1f 36be 2736 453e
000002f0: 15ad 3dbe 7960 df3d 136d d2bd 3a38 a93d
00000300: 2bad eb3d 60a9 03be 21e1 4639 a7e1 a6bc
00000310: 5bc4 78bd ec6a a13d a008 3abe d731 103e
00000320: 4702 ffbd 80f8 6dbe a0e2 1f3e 8b8c fcbd
00000330: 2ead 173d 87ba 733d a491 33be aa39 563e
00000340: 4e63 9dbd cc7f 3f3c 755f 1bbe 103e e5bc
00000350: 8603 0ebe 05c9 f6bd 2cac ea3d 99c9 003d
00000360: ace6 afbd c48f 143e 3287 85bd 3e61 a93e
00000370: f3b0 8bbe 8347 9fbb e3b7 e2be 7988 66bd
00000380: caa5 71be 6b0e a03e 92ed 063d 5d3f 29bd
00000390: 897b b7be 7c53 14bc 17ef c3bb cfd5 ca3e
000003a0: b85f a1be 4e0d 8cbe 5c2c 8abd 0977 c73b
000003b0: 5200 debb c653 1ebe 4d98 01be f009 4f3d
000003c0: a8fa 2a3e e8dc a9bd a44f 29be f773 89be
000003d0: 33ce 823e 31b8 633e 5fa2 af3d 9fe5 bdbd
000003e0: c15c 823c b0d3 d63d 5bb5 613e 3180 01be
000003f0: 7ff9 483e f241 d9bd 2030 b7be fa04 653e

actor.4.bias f4 [34]
-0.036522023 -0.035956986 -0.009387148 -0.004441032 -0.03352383 -0.0300171 -0.026596265 -0.032415144
-0.028641375 -0.0029656368 0.004894107 -0.017803958 -0.030133544 -0.009183782 -0.022140652 -0.023197856
-0.020936238 -0.038581945 -0.026183527 -0.024498861 -0.02224128 -0.030679144 -0.018234232 -0.012063004
-0.009103406 0.020172527 -0.018375145 -0.0031106162 -0.025957197 -0.02873805 -0.026633713 -0.028842796
-0.015480523 -0.027321551
00000000: 1e98 15bd a247 13bd 8dcc 19bc 1486 91bb
00000010: 4950 09bd 6ce6 f5bc 69e0 d9bc bec5 04bd
00000020: 51a1 eabc 215b 42bb bf5e a03b 9bd9 91bc
00000030: 9fda f6bc 9377 16bc 5060 b5bc 6e09 bebc
00000040: 7982 abbc 1a08 1ebd d67e d6bc d6b1 c8bc
00000050: 5833 b6bc d452 fbbc f55f 95bc e8a3 45bc
00000060: 7426 15bc db40 a53c 7987 96bc 7bdb 4bbb
00000070: 30a4 d4bc 0f6c ebbc f22e dabc ba47 ecbc
00000080: 05a2 7dbc 72d1 dfbc
