Tetris-PPO/trained/PPO/tetris_2/stage3.pth (torch, 149549 bytes, 11 tensors)

critic.0.weight f4 [64, 200]
000000 2c fd 87 3d 8e a9 d9 3d 7c 27 12 3c bc 7d 49 3e
       0.066400856 0.10628043 0.008920547 0.1967687
000010 ab ce aa 3c f5 6f e2 bd 14 3b 24 3d 3a 01 ce 3a
       0.0208505 -0.1105651 0.040095404 0.0015716918
000020 93 e9 7f 3e dc 50 1d be 9d 64 d2 3d 3b 74 01 bd
       0.24991445 -0.15362877 0.10273097 -0.031604987
000030 69 fd b9 bc f5 34 9f bd 0b e1 d1 bb 96 3b 62 be
       -0.022703843 -0.077737726 -0.006405001 -0.22093043
000040 d4 25 b0 bd c4 fe 40 bd 2d 29 36 3c 52 ea 81 bd
       -0.08600965 -0.047117963 0.0111182155 -0.06343521
000050 71 89 0c 3e 2c c6 8c bd a9 b9 92 be 55 ed ae 3c
       0.13724305 -0.06873736 -0.28657272 0.021353403
000060 30 62 d4 3d 3c 5e e0 3c 5e e9 9a bd bb 49 35 be
       0.1037029 0.027388684 -0.075640425 -0.17703907
000070 c4 52 8c 3c ba b0 09 be 3b e6 8c bd 8a b9 90 bd
       0.01712931 -0.13446322 -0.068798505 -0.07066639
000080 bd 4b 13 be 64 e4 b3 3e 43 14 5a 3e 7e 45 ad 3d
       -0.1438436 0.35135186 0.21296792 0.0846052
000090 7a 90 b8 bc 96 51 4a be 69 e6 a8 3b 0e 71 33 3e
       -0.02252983 -0.19757685 0.00515442 0.17523596
0000a0 b3 a3 b0 bc c8 68 4b be 2f 53 7a 3d 70 1b 16 3d
       -0.021562433 -0.1986419 0.061114486 0.03664726
0000b0 c5 d3 68 3e 9e a3 05 be a7 41 82 3d a0 52 57 3d
       0.22737034 -0.13050696 0.063601784 0.05256903
0000c0 ba 73 f5 bd 99 57 60 3b 46 69 0a bd 15 18 98 3d
       -0.11984964 0.00342319 -0.033791803 0.07426468
0000d0 32 dd 6f 3d cb 7a ff 3d ab 5f 9f 3d 6b bb 69 3a
       0.058560558 0.12474593 0.07781919 0.0008916172
0000e0 cc 8c 6d 3d bf 41 d5 3c a1 d5 87 bc 18 fa 26 bc
       0.057995602 0.026032327 -0.016581358 -0.010191463
0000f0 f2 92 8f bd af 3b 36 bd 3a 73 fe bd 62 86 d1 3d
       -0.070104495 -0.044490512 -0.124243215 0.102307096
000100 30 d3 4f be aa 33 3d 3d 3f bd aa bc e7 ae a0 3c
       -0.20295405 0.04619185 -0.020842193 0.01961465
000110 71 b6 67 bd 2f 22 f0 3c 69 c9 0b bd a7 b5 0b be
       -0.056570474 0.029313175 -0.034127627 -0.13643514
000120 2e f6 69 bc 07 43 22 3e 2c 61 95 3c 09 8a 43 be
       -0.014279885 0.15845881 0.018234812 -0.19095625
000130 8a 60 a7 3d d4 7f 91 bb 98 f5 20 bd 94 d6 24 bd
       0.0817271 -0.004440287 -0.039296716 -0.0402437
000140 32 ce c0 3d cf 3d 16 3e 39 d0 01 3e 3c 64 a6 3d
       0.09414329 0.14672016 0.12677087 0.08124587
000150 c2 f7 af 3d 84 6f d5 3d 63 28 f3 3d b6 bb 80 bd
       0.08592178 0.104216605 0.118729375 -0.06285803
000160 c8 5f 04 3e bb 7d 2a 3e da a2 47 bd 0b 16 0e 3d
       0.12927163 0.16649525 -0.04873929 0.03468899
000170 a0 e5 48 3e d9 d8 8f bd cd 8b 13 bd b1 b8 38 3d
       0.19618845 -0.07023782 -0.036021996 0.04509801
000180 20 69 93 bd 74 76 98 bd 96 c1 86 3c db fc 36 3d
       -0.071977854 -0.07444468 0.01644973 0.044674736
000190 5c 78 3c bc 6c a8 57 bd 10 32 25 bd e5 69 bf bd
       -0.011503305 -0.052650854 -0.040330946 -0.0934637
0001a0 c0 8a 66 3d 19 e4 23 3e 10 01 e8 3c 10 35 34 be
       0.056284666 0.16004981 0.02832082 -0.17598367
0001b0 a8 f2 8f 3d 64 1d 20 3e f9 31 18 3d 74 c1 11 be
       0.07028705 0.15636212 0.037157033 -0.14233953
0001c0 ca a6 83 bd f2 7d d9 3d cd f8 80 bc 81 5f a8 3b
       -0.06428297 0.10619725 -0.015743637 0.005138338
0001d0 dd ab da 3d 75 81 a4 3d a6 e7 ed bc 1f b0 d4 bb
       0.106773116 0.080325045 -0.029041123 -0.006490722
0001e0 9c fd 2d be 96 00 1a 3e d3 01 63 bd 0a 1b 22 3e
       -0.16991276 0.15039286 -0.05542166 0.15830627
0001f0 65 8c 7c bc f1 31 ff 3b 42 ad 51 bc 7d d8 d6 bb
       -0.015414332 0.007787936 -0.012797656 -0.006556569
000200 6e 90 26 bd b2 ef 3e bd 36 fa 76 bd 02 11 2c 3e
       -0.040665083 -0.04661531 -0.060297213 0.16803363
000210 e8 12 d5 3d 62 0d 05 3d 2e 06 d3 3d 78 1e 12 be
       0.10403997 0.032483466 0.10303913 -0.14269435
000220 5b a2 d2 3b 5d 90 a6 3d 5f 87 16 3c 45 d5 0e 3e
       0.0064280457 0.08133004 0.009187548 0.13948543
000230 8b 3b b5 3c e1 89 1c bc ba 85 3e be b8 51 2d 3c
       0.022123119 -0.009554357 -0.186057 0.010578565
000240 a8 fc 48 be b2 b3 96 3d ab 90 6e bd 17 e5 7d bd
       -0.1962763 0.07358493 -0.058243435 -0.061986055
000250 9d c2 89 bd ac 65 f0 3d 1a 52 d8 bd 74 0a 09 3c
       -0.06726573 0.11738142 -0.10562535 0.008364309
000260 22 cf 81 be 4e a1 89 bd c2 c0 61 bd 06 12 33 3e
       -0.25353342 -0.067202196 -0.05511547 0.17487344
000270 33 fd 89 3d c7 3d 97 bc a3 0b 21 be 86 49 d4 bb
       0.06737747 -0.018462075 -0.15727095 -0.0064784912
000280 bc ee 09 be 2c cd ad 3c df 8f 05 bd 57 94 0f 3e
       -0.13469976 0.021215998 -0.03260791 0.14021431
000290 31 c9 a6 3d 2e 3f e9 bd a8 35 63 3e 19 ca 55 bd
       0.08143843 -0.11389004 0.22188437 -0.05219469
0002a0 0c 83 ed 3d 55 3b 54 bd a9 fb e0 bd 65 c9 5d bd
       0.11597261 -0.051814396 -0.109855 -0.054147143
0002b0 1f 60 2c 3e 5c c6 88 bd d6 e0 9f 3d d7 71 a9 bd
       0.16833542 -0.06678459 0.07806556 -0.08273666
0002c0 5d e1 22 3d 67 1e f9 bd 5e e6 c6 bd a2 e7 7a bd
       0.039765704 -0.12164002 -0.09711908 -0.06125606
0002d0 41 e9 62 bd c3 05 d4 3c b5 89 8e 3d 24 41 11 3e
       -0.05539823 0.025881654 0.06959859 0.14185005
0002e0 41 93 20 3d 18 3d 9e 3b cb f6 69 3d db 2d 5b bc
       0.039202932 0.0048290603 0.057120126 -0.013377632
0002f0 41 f7 b5 bd 32 02 1f 3e 30 6e fc bd d9 0f 4e be
       -0.088850506 0.15528181 -0.12325704 -0.20123233
000300 76 e5 49 bd 00 29 06 bd cd a6 63 3d b3 e2 05 3d
       -0.049291097 -0.032753944 0.055578995 0.0326869
000310 87 6f f9 bd 5d 76 a7 3b b7 ed 81 bc 92 fe 3d bd
       -0.12179475 0.0051105455 -0.015860422 -0.046385355
000320 79 db d4 3d 10 9a 51 bd e6 5a 9c bd 93 c5 50 3d
       0.103934236 -0.051172316 -0.07634525 0.05096967
000330 f2 e2 59 bc 82 7d bc bd 92 6a 73 bd 2a d0 0c be
       -0.013298737 -0.09203626 -0.059427805 -0.13751283
000340 44 e0 a1 3d a2 93 65 be d0 e3 fa bd 24 ca 5c 3e
       0.079041034 -0.22419599 -0.12250483 0.21561486
000350 d4 67 4f 3d 0d a6 1c 3e db bf e8 bc 4c f6 f3 bd
       0.050636128 0.15297718 -0.028411796 -0.11912212
000360 f8 1e 38 bd fb bc cb 3d 6f 61 7c bd dd 33 8d bb
       -0.04495141 0.099481545 -0.061616357 -0.004309161
000370 85 12 1d 3e 4a d7 a6 3c e9 1a 96 3c fd 3b 74 3e
       0.15339096 0.02036633 0.018323379 0.23851009
000380 bd d8 3e 3e ef 4b 1c bd d0 ee 09 3e ed 08 ca bd
       0.18637367 -0.038158353 0.13470006 -0.09864984
000390 e8 78 16 3e b9 be f9 3c e9 f3 86 bd 91 0b ab bc
       0.1469456 0.030486451 -0.06589491 -0.020879539
0003a0 0e 8b 0d 3c dd c9 3a 3e 9b 40 14 3e 5b cf 84 bc
       0.00863911 0.18241067 0.1447777 -0.016212156
0003b0 21 3f c7 bd 6b 9a 34 bd e2 61 d3 bd a2 ee 37 3e
       -0.09728838 -0.044092577 -0.10321404 0.17962125
0003c0 2d 6c 3a 3e ef d6 03 bd 68 a4 13 bd ec 39 38 3e
       0.18205328 -0.0321874 -0.036045462 0.17990845
0003d0 af 06 88 3e 84 0f c5 bd 2e 24 ba 3c 76 46 e0 bd
       0.265676 -0.096221 0.02272233 -0.10950939
0003e0 07 26 19 bd e9 28 8f 3b 03 e9 2f 3e 26 f1 4f bc
       -0.03738978 0.0043688905 0.1717873 -0.012691772
0003f0 16 21 b3 bd bc a1 56 3e 7c 77 1f 3e b7 12 cc 3c
       -0.08746545 0.20960134 0.15572923 0.024911268

critic.0.bias f4 [64]
000000 d2 4c 88 bc 97 ba b8 ba 4c 1f 9e bc a8 e1 36 3c
       -0.016638193 -0.0014093694 -0.019302033 0.011162199
000010 fd 1c 2f 3c 3f 2e 4e 3c 7c c8 bd ba 5f fc 38 bc
       0.010688064 0.012584268 -0.0014479305 -0.011290639
000020 e5 45 9b bc 05 0e 82 bc f6 e3 9b 3c 8f 32 20 3c
       -0.018954227 -0.015875826 0.019029599 0.009777679
000030 07 fd 3d bb 4c 7b 23 3c 07 de 43 bb 61 46 11 3c
       -0.0028989927 0.009978127 -0.0029886977 0.008866877
000040 07 01 a3 3b e0 2a 31 bb 14 49 b6 bc 17 6a d9 ba
       0.0049744877 -0.0027033612 -0.022251643 -0.0016587403
000050 12 fd 9b 3b 9f 4e b6 bb be e1 8c bc ea 31 94 3b
       0.004760393 -0.0055635716 -0.017197486 0.004522552
000060 ad 32 2e 3b 0e 4f 4e 3c 08 ba 61 3b 35 ed d5 bb
       0.0026580498 0.01259209 0.0034443159 -0.0065285214
000070 a0 c0 8e 3b c7 5d 29 3c 48 c2 17 bc f1 d9 09 bc
       0.004356459 0.0103373 -0.009262629 -0.008413778
000080 e4 96 92 3c 13 fc 16 bc 2b 30 69 ba e3 cb ad bb
       0.017894216 -0.009215373 -0.0008895422 -0.005303846
000090 d1 68 5e ba 64 be 8d 3b bb 01 9e bb 07 8a 02 3b
       -0.0008484247 0.004325675 -0.0048219836 0.0019918696
0000a0 0a 10 0a 3b 17 91 79 bc 16 2a ae bc 30 43 2c bc
       0.002106669 -0.015232346 -0.021260303 -0.010514066
0000b0 7a f8 fe b9 ef 0d 34 bc 2d 77 f8 39 cc 24 bd 3c
       -0.00048631785 -0.01098965 0.0004739104 0.023088835
0000c0 45 f0 a6 ba 43 46 59 bc ca a2 5d 3c 12 d0 6c 3c
       -0.0012736401 -0.013261381 0.0135275815 0.014453905
0000d0 7b da 4a bc fc 25 03 3c d1 d9 80 bb f8 3b c0 bb
       -0.012381191 0.008004662 -0.0039322157 -0.005866524
0000e0 86 f5 01 3c bf e4 6f 3c cf 0c 9b 3c 41 9b 4f 3c
       0.0079320725 0.01464194 0.018927006 0.012671293
0000f0 7c 22 f5 bb 6c 5c 04 3c a7 be 8c 3c fc 0c 17 3c
       -0.0074809175 0.008078676 0.017180754 0.009219404

critic.2.weight f4 [64, 64]
000000 90 23 86 3d eb 8b 2e 3e 31 a4 12 be 0d 76 c1 3d
       0.06549752 0.17045562 -0.14320447 0.094463445
000010 f1 ac 58 3d 33 a0 bd 3d ef d0 ca bd 00 0e d3 be
       0.052899305 0.09259071 -0.09903132 -0.4122162
000020 20 34 b3 bc 17 70 34 bd c0 1b 8a 3e 47 ae 52 bd
       -0.021875441 -0.04405221 0.26974297 -0.051435735
000030 c8 18 65 3d f3 74 0f be f1 f5 d5 3c 17 65 d9 3d
       0.055931836 -0.14009456 0.02611825 0.106149845
000040 29 a2 2f 3e be c8 c1 bd e9 37 b3 be 28 56 3d 3e
       0.17151703 -0.09462117 -0.35003594 0.18489897
000050 ca 53 e4 bd dd b3 6c bd ca fc 6b 3e cb 3a 38 3d
       -0.11148794 -0.05778872 0.2304565 0.044977944
000060 f5 9f 01 be e2 5d 7e be 2d 82 dd 3e bb c3 11 be
       -0.12658675 -0.24840501 0.4326338 -0.14234821
000070 14 3d 81 bd 8b a9 ab bd cc a7 0f 3c 10 7a c6 3d
       -0.06310478 -0.08381947 0.008768033 0.0969125
000080 f6 c3 a3 bd 3c ed a7 3e 5f 9a 5d 3e 25 ee 06 3e
       -0.07996361 0.32798183 0.21640919 0.13176782
000090 84 dc 18 3e a8 55 5e 3d 50 a7 6c 3e 2e 51 09 bd
       0.1492787 0.054280907 0.231107 -0.033524685
0000a0 5b 7f 3c 3e 83 fd ea bb 21 83 dd be 3c 23 7d 3e
       0.18407957 -0.0071713342 -0.43264106 0.24720472
0000b0 08 3b 59 be 7e 45 e9 3c ef cd fc 3d d4 83 63 be
       -0.21213925 0.02847552 0.12343966 -0.22218257
0000c0 e6 d6 4e 3d c2 8b a5 3e 4e 00 32 3d 24 c6 01 be
       0.050497912 0.3233319 0.04345732 -0.12673241
0000d0 13 a8 fc bc 18 40 6a 3e 88 3b f2 3c 93 e3 38 bd
       -0.030841863 0.22876012 0.029569402 -0.045138907
0000e0 3b 4d 2b bd df 26 60 bd 20 74 d1 3d d1 85 e7 3e
       -0.0418217 -0.05472457 0.10227227 0.4521928
0000f0 d8 87 1b 3d ca f0 83 bd 9b 56 55 3c 64 bc a4 be
       0.037971348 -0.06442411 0.013021137 -0.3217498
000100 a1 1a 40 3e 58 22 12 3e 79 48 65 3e 9c 0e af bd
       0.18760158 0.14270914 0.22390927 -0.085477084
000110 ff 60 6a bd 77 93 05 be b6 1a ed 3e 2a b5 84 3d
       -0.05722141 -0.13044535 0.4630944 0.06479867
000120 40 a8 70 3e 26 a9 59 bd a4 ef ec 3d 35 52 09 3e
       0.23501682 -0.05313983 0.11569145 0.13410266
000130 22 15 d4 bd 5e 60 43 3d 0a 80 bc bd d7 7b 02 3e
       -0.10355593 0.047699325 -0.09204109 0.12742554
000140 e0 17 50 be 14 e1 aa 3d ed ea 70 3c 84 05 0b be
       -0.20321608 0.083437115 0.014704448 -0.13576323
000150 78 83 42 3e e5 4e 1f 3e 68 8c 7c 3d ff ee 8a be
       0.18995464 0.1555744 0.06165734 -0.27135465
000160 0e 8d 87 be 32 25 91 3c c2 a5 31 3e 38 41 bd 3e
       -0.26474804 0.017717931 0.17348388 0.3696382
000170 ab a4 c5 bd f3 15 29 be 14 4e 45 3e 5b ac 7c 3d
       -0.096505485 -0.16512279 0.19268066 0.06168781
000180 fb 92 3a 3e d2 cf 1e bd df 15 40 bd 47 8c 15 3e
       0.18220131 -0.03877241 -0.046895858 0.14604293
000190 df f1 9a 3d 5a ef 41 bc a7 89 8d be e7 31 e5 be
       0.075656645 -0.011836851 -0.27644083 -0.44764635
0001a0 dc ab 39 3e ff 0c 7e be 62 27 1e be 3f f2 2a 3d
       0.18131965 -0.24809645 -0.15444711 0.04173493
0001b0 b7 22 b7 3d e2 91 85 be 4a 00 6a be f2 ef 9b 3e
       0.08942168 -0.26087862 -0.22851673 0.304565
0001c0 cd 89 45 be 43 b9 0b 3e 35 42 52 be f0 7f c0 3d
       -0.19290848 0.1364489 -0.20533068 0.09399402
0001d0 18 5d ca 3c 5e 85 4a 3e 54 45 69 bb 44 2c c1 bd
       0.024702594 0.19777438 -0.0035594301 -0.09432271
0001e0 20 cb 91 3c 4a f2 97 be 45 8a 0c 3e ee 02 33 3b
       0.017797053 -0.2967704 0.1372462 0.0027314979
0001f0 d1 0d 80 3e f3 f7 5e 3e 09 ec bb 3d de 9f e3 3d
       0.2501054 0.21774273 0.091758795 0.111144766
000200 26 41 1b 3e 67 c4 67 3d 45 33 ef 3d 9a 61 5e 3e
       0.15161571 0.05658379 0.11679701 0.2171692
000210 41 13 1f be 78 11 f5 3c a6 87 fe bd e4 4d 14 bd
       -0.15534689 0.029915556 -0.12428217 -0.036207095
000220 9e 70 80 3e 62 02 11 3d bf 25 57 be df 68 6e be
       0.2508592 0.035402663 -0.21010493 -0.23282193
000230 c8 0d c7 be ef df 84 bc 67 cb 0f be de be 53 be
       -0.38877702 -0.016220061 -0.14042436 -0.20678279
000240 a5 61 14 3e 17 cf 57 3e c8 ce 96 3e a3 f7 41 be
       0.14490373 0.21075092 0.29454637 -0.18942122
000250 02 79 90 3d 3c 66 4c 3d 8c 97 ff 3e a3 5c cd bd
       0.070543304 0.049902186 0.4992031 -0.10027435
000260 19 16 68 be 45 62 c7 be d4 d3 3c be d2 f5 28 bc
       -0.2266468 -0.3894216 -0.18440181 -0.010312514
000270 c5 df df 3c 48 39 33 bd be 65 19 be a9 51 7c be
       0.027328381 -0.0437558 -0.14980218 -0.24640526
000280 0a 00 61 be e0 83 0e be ed fa f5 bc df 3a 1d 3e
       -0.21972671 -0.13917494 -0.030026877 0.15354489
000290 dc c1 f5 bd 3a 97 a9 3b 7d e1 bf bb ae aa af 3d
       -0.11999866 0.0051754983 -0.0058557377 0.085774764
0002a0 c8 a3 85 bb 42 97 a8 3e b5 ff 66 bc c2 32 17 3e
       -0.004078362 0.329279 -0.014099051 0.14765456
0002b0 c9 dc 0c 3e 5f 4a 01 bf de 62 b0 3e d7 2e ef bc
       0.13756098 -0.50504106 0.3445043 -0.02919714
0002c0 99 76 37 be fa 56 21 3d 9a 43 84 be d3 0f 99 3d
       -0.17916335 0.039389588 -0.25832826 0.07473721
0002d0 75 c5 28 bd b7 fc 44 3d f5 0c 14 3e c7 4a 70 bb
       -0.041203935 0.04809257 0.14458068 -0.0036665665
0002e0 40 7c b9 3d 67 fd 99 3c 11 92 83 be 86 97 31 bc
       0.09056902 0.01879759 -0.25697377 -0.010839349
0002f0 3c e9 05 3d 0d 21 f1 3c 49 4d 42 3d 03 13 a4 3d
       0.032693133 0.029434705 0.047436986 0.08011439
000300 82 1f a6 be a5 81 e4 3d b6 9c 48 be 2b 1e db bd
       -0.32445914 0.1115754 -0.1959103 -0.106991135
000310 c5 bc 30 3e 67 fc 53 be 2a b9 21 be d3 ff 10 3c
       0.1725951 -0.20701753 -0.1579329 0.008850056
000320 29 78 a0 bd 26 26 d5 3e b7 31 23 be a1 d2 ab 3c
       -0.07835419 0.41630667 -0.15936933 0.02097446
000330 fa 0d 1f 3e 7b 2d 24 3e e9 94 d5 be 47 7c ee bd
       0.15532675 0.16032974 -0.41715172 -0.11644798
000340 76 19 91 3e 73 78 b1 bd 9b 90 2a be 70 fd ee 3c
       0.28339738 -0.08665552 -0.16656725 0.029173583
000350 e3 d3 37 3e b9 f3 04 bd c8 9a 07 3e dc a0 b8 bc
       0.17951922 -0.032458995 0.13242638 -0.022537641
000360 d7 e8 d5 3c 1c a8 bf 3e 24 ca b4 3d d1 aa eb 3a
       0.026112003 0.37432945 0.08827618 0.0017979984
000370 6f ef 8f 3e b3 c1 b4 bd 22 2a 64 3c 9e cc cb bd
       0.2811236 -0.08826008 0.013926061 -0.09951137
000380 a4 bb d5 3b 87 3d fe 3b c0 99 ec 3d ad ca 40 3e
       0.0065226126 0.0077587995 0.11552763 0.18827315
000390 7c f2 59 be 03 3e 6b 3e 7e 6a a0 3b a5 53 42 be
       -0.21283907 0.22972874 0.0048955074 -0.1897722
0003a0 cc 32 38 3e 0a 73 60 be 7a af 9a 3c 4e c2 39 be
       0.17988127 -0.21918884 0.018882502 -0.18140528
0003b0 a3 39 2f 3e 16 a0 83 3e 8f 01 e6 3e b6 2f 08 be
       0.1711183 0.25708073 0.44923064 -0.1329945
0003c0 a0 60 0c be 80 38 a5 3e b1 a2 23 3d 52 22 40 3d
       -0.13708735 0.3226967 0.039950076 0.04690773
0003d0 85 55 8f be d6 92 b8 3d 93 08 4e 3e 1f 7f 0b be
       -0.27994934 0.09012382 0.20120458 -0.13622712
0003e0 df 95 92 bd 6c e6 24 bd 37 2a aa 3d 02 64 5c be
       -0.07157492 -0.04025881 0.08308833 -0.21522525
0003f0 55 02 3d 3b 71 6d 1a 3e ee 4b 16 3e 15 c7 36 3c
       0.0028840501 0.15080811 0.14677402 0.011155863

critic.2.bias f4 [64]
000000 16 2a 1e bd c2 f8 9a 3c a3 cc f9 3c 4b 7a 2c bc
       -0.038614355 0.018917445 0.030493086 -0.010527204
000010 e7 d1 70 bc 93 43 d9 bb c5 f6 92 ba fb d8 c8 bc
       -0.014698482 -0.00663037 -0.0011212459 -0.024517527
000020 0a 13 a0 bb b7 e3 b8 bc f7 bc 67 bd 02 0a ef bc
       -0.004885082 -0.02256952 -0.056576695 -0.029179577
000030 86 a4 a2 3c ba 01 44 bd 6b 9e 37 bc fa 59 8f 3c
       0.019853842 -0.04785321 -0.011207203 0.017498959
000040 1b c1 ec 3c 3e 25 9e 3c 50 f2 0c 3d af e3 1c bd
       0.028900674 0.019304868 0.034410775 -0.038303073
000050 14 0c af bc 59 3e 37 bd 5a 84 52 bc fb 3d c1 bc
       -0.021368064 -0.044737194 -0.012848938 -0.023589125
000060 02 cc 32 bd da 47 02 3d d2 d9 cb 3c e1 70 05 bd
       -0.04365159 0.031806804 0.024884138 -0.032578353
000070 c2 d9 29 3d 4f cd 02 bd d4 1c 3c 3c 3c 30 5b bc
       0.041467436 -0.03193408 0.011481483 -0.013378199
000080 d3 96 e5 3c 9f 27 be 3a 95 bb c1 3c 51 62 4a bc
       0.02802602 0.0014507658 0.023649016 -0.012352542
000090 7c af 8f 3b b8 59 99 bb a6 7d bd 3c bd db 48 bd
       0.004384933 -0.0046798848 0.023131203 -0.049037684
0000a0 e5 08 30 39 7e d8 0a bc 0a 2b 3a 3d d9 9e d3 3c
       0.00016787981 -0.008474467 0.0454512 0.02583258
0000b0 09 03 67 bc ce 57 a9 3c b1 30 c2 bc e5 92 12 bc
       -0.014099845 0.020671751 -0.023704858 -0.008946155
0000c0 35 bb b1 3c 0f c6 b5 3a 23 c4 23 3d b3 79 02 3d
       0.021695713 0.001386823 0.039981972 0.031854343
0000d0 43 d0 af bc 03 93 91 3c e7 02 33 3c a0 ff f8 3c
       -0.021461612 0.017770296 0.010925985 0.030395329
0000e0 35 48 28 bb c8 a1 c8 3c 7a 4e 0c bd 94 f0 36 3c
       -0.0025677804 0.024491206 -0.03425453 0.011165757
0000f0 f0 8c 05 3c a8 69 db bc 20 ef 16 39 17 2b f4 bc
       0.008151278 -0.02678378 0.00014394196 -0.029805703

critic.4.weight f4 [1, 64]
000000 a7 f6 df bd d9 a3 aa 3d de 41 66 3e 06 8a 79 be
       -0.10935717 0.08332033 0.22486064 -0.24369058
000010 c9 b5 8a be 59 ea a8 bd 5b 34 27 3e 72 65 08 be
       -0.27091816 -0.08247823 0.16328566 -0.13319948
000020 0a 17 42 be b2 e2 90 be b1 13 01 be 42 7b 7c be
       -0.18954101 -0.28297955 -0.12605168 -0.24656394
000030 cf 11 36 3e 82 0c f2 bd da 5d 1e be e9 82 05 3e
       0.17780231 -0.11818792 -0.15465489 0.1303822
000040 44 aa df 3d 8d 46 08 3e fd 5d 4c 3e 9c 62 82 be
       0.109211475 0.13308163 0.19957729 -0.25465858
000050 2a 06 da bd 02 75 29 be d1 a4 18 3e 5f a3 6f be
       -0.10645707 -0.16548541 0.14906622 -0.23402165
000060 85 93 74 be 1c 52 0a 3e 64 56 50 3e 97 32 ca bd
       -0.23884399 0.13507885 0.20345455 -0.098729305
000070 bc 70 ff 3d 7e 5a 25 be 52 7d c2 3e 5d f2 1f be
       0.12472674 -0.16147801 0.37986237 -0.15619798
000080 8c 22 af 3e ed 6c 6c be ab e7 f5 3e eb 44 2f 3e
       0.34206045 -0.23088427 0.4802831 0.17116134
000090 48 c1 f8 bb 76 e7 45 3e 61 2d 7e 3e 41 4f 9c be
       -0.0075914003 0.19326577 0.24821998 -0.30529216
0000a0 6b 67 ae be ef 67 0d 3e d4 8a 15 3e 7e 93 0d 3e
       -0.34063277 0.13809179 0.1460374 0.13825795
0000b0 58 27 48 be d2 93 40 be ab 44 a7 be 3b 00 ba be
       -0.19546258 -0.18806389 -0.32669577 -0.363283
0000c0 9f 38 24 3e 1a 07 4d be 7a e0 98 3e 47 d7 16 3e
       0.16037224 -0.2002224 0.29858762 0.1473056
0000d0 66 0a 26 be fb b8 92 3e 70 f0 49 be 9a 10 68 3e
       -0.16214904 0.28656754 -0.19720626 0.22662583
0000e0 c6 55 3c be 31 28 80 3e a1 ee bd bd 1c d7 8e 3e
       -0.18392095 0.25030664 -0.092740305 0.2789849
0000f0 30 c8 fc 3d f3 31 a6 be 25 5b 83 3d 30 9b c5 be
       0.1234287 -0.32459983 0.06413869 -0.3859496

actor.0.weight f4 [64, 200]
000000 d3 08 05 3e f2 33 7d 3d e1 50 55 3d a3 32 30 3d
       0.12991647 0.061817117 0.052079085 0.04301704
000010 97 0f bf 3b 2c 5e a0 bd 6a 5e 91 bc 6f db 03 bc
       0.005830716 -0.07830462 -0.017745215 -0.0080479225
000020 a0 a0 0d 3e 84 eb 13 3e 98 d4 bb 3d 86 c6 30 3d
       0.13830805 0.14445311 0.091714084 0.043158077
000030 d1 fe 04 bd 37 9b 5c 3e 28 c7 5d bd bf c4 a4 3d
       -0.032469574 0.21543585 -0.05414501 0.08045339
000040 9c 94 36 3e 8b b3 40 bd 5f 3a 6a bd 1b ab 89 bd
       0.17830127 -0.047046226 -0.057184573 -0.06722089
000050 d4 ca 4a bd 6a 18 cd bd 09 8d 8a 3e 16 55 05 3d
       -0.04950984 -0.10014422 0.27060726 0.032551847
000060 02 a6 95 3d 91 a4 d3 3d cf 8e e7 3c ae 31 c9 3b
       0.07307054 0.10334123 0.028266339 0.0061399555
000070 34 79 60 be 57 5c d6 3d 6c fb 0f bd 49 de 34 3d
       -0.21921235 0.10466831 -0.035151884 0.0441573
000080 40 ec a5 3d d2 95 b8 bd b5 fc 75 3d ed 95 78 3d
       0.08101702 -0.09012951 0.060055453 0.060689855
000090 34 6f 11 3e 60 31 59 3b dc 5b 4d bd 74 e4 5a bd
       0.14202577 0.0033141002 -0.050136432 -0.053440526
0000a0 05 fd 66 bd 21 48 87 3b 47 8f 45 bd a8 0f 6d 3d
       -0.056393642 0.0041284715 -0.048232343 0.05787626
0000b0 d9 95 51 bd 67 59 98 bd c5 48 34 bb 15 2b ce b9
       -0.051168296 -0.07438927 -0.0027509194 -0.0003932348
0000c0 b5 06 9e bd c2 6c 9c bd 9a 8f 30 3e e6 e9 e3 3d
       -0.07716123 -0.076379314 0.1724228 0.11128597
0000d0 89 91 6c 3d d9 d2 12 3d 10 ce ce 38 1f 5e 9b 3d
       0.05775598 0.03584561 9.8612276e-05 0.075863115
0000e0 f6 e1 a8 bd 84 a1 a6 bd f0 9b ec 3c d1 39 20 be
       -0.08246224 -0.081362754 0.02888295 -0.15647055
0000f0 04 08 a8 3c 44 b7 8b be be 39 25 3e 9d 65 28 bd
       0.020511635 -0.27288258 0.16135308 -0.04111253
000100 2c dd 0b 3d 7d 5d 19 be f1 da 61 3e f6 d4 33 be
       0.034146473 -0.14977069 0.22056176 -0.17561707
000110 b2 2e 95 3c 7c eb 9b bd 8a 2c 62 3c e2 b1 26 bd
       0.018210743 -0.076132745 0.013804564 -0.040696986
000120 3a ac e2 bd 84 8f cf 3d 25 9b d1 3c c3 63 ed 3c
       -0.11068006 0.10134795 0.025586674 0.028978234
000130 28 e9 38 be 5f 3c 65 3d db 6f 8a 3c 52 ee a4 bd
       -0.18057692 0.055965777 0.01689904 -0.080532685
000140 30 cd 22 be 77 67 7b 3c 62 73 11 3b a1 89 02 be
       -0.15898585 0.015344492 0.0022194018 -0.12747814
000150 c2 04 96 3d 8b 98 16 3b b1 31 bd 3d c3 29 18 3e
       0.07325126 0.0022979106 0.092379935 0.14859681
000160 c0 9a 06 be f2 9c 83 bd 79 33 f5 bd 09 32 6a 3d
       -0.1314497 -0.06426419 -0.11972708 0.057176623
000170 1d 06 11 bc a0 be 7e bd bd c1 1d bd 8d 63 59 3d
       -0.008851555 -0.062193513 -0.03851484 0.053073455
000180 71 f1 59 3d 01 25 2f 3d 8b e5 b5 3d 2d ac b5 3d
       0.053208772 0.0427599 0.088816725 0.088707305
000190 6f 88 93 bd ad a1 b5 bd 92 96 3d bd db c4 6f bd
       -0.07203757 -0.08868728 -0.046286173 -0.058537345
0001a0 25 b6 44 3e f8 96 16 3d a2 fb 45 3e 79 82 72 3e
       0.19210108 0.03676507 0.19334272 0.23682584
0001b0 7e 3f a8 bb e0 b0 c4 bb 7d 79 20 be 78 06 f0 bc
       -0.005134522 -0.0060025305 -0.15671344 -0.02929996
0001c0 5b ee 53 bd 3c e2 21 3d 2c 1b 93 3d bb 45 9d 3d
       -0.051740985 0.039522395 0.07182917 0.07679316
0001d0 95 15 c3 3a 2f 6f 88 ba b0 c2 b5 bd a4 21 74 3e
       0.0014883751 -0.0010409112 -0.08875024 0.23840958
0001e0 1a 51 f6 bd 7c cd c9 3c 28 84 2f 3d ec 71 ae bd
       -0.12027188 0.024634115 0.042850643 -0.085178226
0001f0 47 c4 a5 bd a9 c1 cc 3d 52 fb 39 3d dc d4 61 3d
       -0.080940776 0.09997875 0.045405693 0.05513464
000200 39 44 da 3d fb 85 ed 3d 64 55 7c 3d 6d 63 a3 3c
       0.10657544 0.1159782 0.061604872 0.01994487
000210 45 17 73 bc e2 42 04 3e 25 2a 92 bd 0b 30 69 3d
       -0.014837091 0.12916139 -0.07136945 0.056930583
000220 87 5f 1d 3e 6d b3 ac 3d 0f 15 21 3d a9 e3 0d 3e
       0.15368472 0.0843266 0.039326724 0.13856377
000230 e0 0d 3c 3d 69 df e5 3d 47 00 0e 3d 7e 3f 23 bd
       0.04591167 0.11224253 0.034668233 -0.039855473
000240 03 66 18 3e 01 0a f2 bd c3 42 20 3d 09 7f 54 3d
       0.14882664 -0.11818314 0.03912617 0.051878963
000250 8d 3f 54 3d 87 23 5f 3c 87 f5 8d bd 85 d2 d5 bd
       0.05181842 0.01361931 -0.06931596 -0.10440544
000260 17 d7 1b bd d6 a6 59 3b 26 5c 82 3d ce ca a9 bd
       -0.038046923 0.0033211014 0.06365232 -0.08290635
000270 43 80 34 3e c2 e6 fa bd 08 35 2c 3d b8 92 b8 bd
       0.17627053 -0.12251045 0.042042762 -0.090123594
000280 6e f1 8d bd f8 9f e6 bc d5 54 4c bd ee a2 f7 bd
       -0.06930815 -0.02815245 -0.04988559 -0.12091623
000290 42 f7 57 3c 7f 5a 71 3e 11 22 56 3e 3f 12 a3 bd
       0.013181509 0.23569678 0.20911433 -0.079624645
0002a0 9b 60 1b be a4 1d d6 bd a4 ca 99 bb a5 3b 03 bd
       -0.15173571 -0.10454872 -0.004693346 -0.032039303
0002b0 e6 06 47 3d 91 8d cd bd 7d 57 09 be 09 67 9c bd
       0.048590563 -0.10036767 -0.1341228 -0.0763684
0002c0 e1 9d b8 bd 5c c8 28 bd b8 00 1f be 44 78 b8 3d
       -0.09014488 -0.041206703 -0.15527618 0.09007314
0002d0 75 cf 86 be 93 bd d7 3d c7 39 42 3e 60 d6 a0 bd
       -0.26330152 0.10534205 0.18967353 -0.07853389
0002e0 3b a2 59 3d ef 0e 68 3d a5 65 21 3d b2 9a de 3d
       0.05313323 0.056654867 0.039403576 0.108693495
0002f0 5b 4c d0 3c 68 32 16 bd 0f 94 12 be 3e e2 5f 3d
       0.025427034 -0.036669165 -0.14314292 0.05465912
000300 f5 38 a3 3d 26 6b 4d 3e ac b4 95 3d ae ca 25 3e
       0.07969848 0.20060405 0.07309851 0.16190597
000310 10 df 75 bd 18 f5 c0 bd 4d 3b 6b 3c c2 07 7d bc
       -0.060027182 -0.09421748 0.0143574 -0.015443744
000320 04 74 bf 3d 22 81 9b 3d ec fe 39 3d 01 69 a5 3d
       0.093483 0.075929895 0.045409128 0.080766685
000330 98 84 d2 bd 6e f5 44 bd ff d9 90 bb 05 b9 c7 bd
       -0.102791965 -0.048085622 -0.0044205184 -0.097520865
000340 ed 61 46 bd d6 1f 86 3d 59 57 10 3e 8f 10 2d be
       -0.048433233 0.06549041 0.1409582 -0.16900848
000350 17 90 a8 3d a5 69 b6 bd ce ea eb 3d 55 72 1f 3c
       0.08230608 -0.08906869 0.11519395 0.009731849
000360 92 b6 97 3d b4 f6 d1 3c 21 90 3e 3d a7 58 d7 3d
       0.074078694 0.025630333 0.04652417 0.10514956
000370 24 03 29 bd d8 9b c4 bd 36 d8 9b 3d 18 29 5b 3e
       -0.04126276 -0.09600037 0.07609598 0.21402395
000380 57 1c bc 3d 3a a4 15 3e cb 9f 5f 3d 63 fe b5 bd
       0.09185093 0.14613429 0.05459575 -0.08886411
000390 d2 f3 8e bd fd 7c 27 3c ba 6d 3e bc 85 9a 61 3d
       -0.06980099 0.010222671 -0.011622841 0.055079002
0003a0 3b f0 af 3d 98 65 94 3d 2d e4 f3 bd 80 16 34 be
       0.08590742 0.0724594 -0.119087555 -0.17586708
0003b0 db 6b d8 3d 88 b3 82 3b 40 8e 4c 3d 26 ba c6 3c
       0.10567447 0.003988687 0.049940348 0.024258684
0003c0 64 96 70 bd af 1c 1d 3c 72 43 21 3d e8 65 69 3d
       -0.058737174 0.009589358 0.03937096 0.05698195
0003d0 4d 34 1c 3c fa 4c fa bd cd b1 af bd f5 d3 81 bb
       0.009533954 -0.12221713 -0.08578835 -0.003962035
0003e0 bc 15 92 3d 2c 4a 53 3e 08 06 36 be af b1 01 3e
       0.07133052 0.20633763 -0.17775738 0.12665437
0003f0 88 18 32 3c 8a 85 a1 bd 00 30 69 3d e5 5d 2f 3b
       0.0108701065 -0.07886799 0.056930542 0.0026758846

actor.0.bias f4 [64]
000000 70 5a 4b bb 65 e1 f8 bb 1f 08 1f bc 0c 28 27 bc
       -0.0031029247 -0.0075952285 -0.009706526 -0.010202419
000010 4a d6 88 3c 37 3c 13 bc 67 87 93 bb 49 93 33 bb
       0.016703743 -0.008986524 -0.004502225 -0.0027401021
000020 b2 f5 b9 bb ca d2 0d 3b da 26 18 bc c3 a9 39 3c
       -0.005675041 0.0021640533 -0.009286607 0.011331978
000030 d5 65 c4 bb b7 ee be bb 7d 3e 86 bb bc 91 90 bb
       -0.0059935846 -0.005826797 -0.0040968047 -0.004411904
000040 7b 45 94 3b 5a ae dc 3b f1 6c 2c bc 3d 1b d6 b9
       0.0045248843 0.0067346515 -0.0105240205 -0.00040837555
000050 26 9b 9a bb 91 3e 86 ba ff ad 70 3c 99 cf b5 bb
       -0.004718202 -0.0010242035 0.014689921 -0.005548429
000060 ff ab 69 3b e2 b3 b6 ba 79 ae 6e ba d3 7e 45 3b
       0.0035655496 -0.0013939107 -0.0009104978 0.0030135408
000070 05 4f 42 bb dd 55 ce bb 76 22 ac bb 37 9a 47 3a
       -0.002964915 -0.006296857 -0.0052531315 0.00076142274
000080 38 5f d3 3b 0e 62 2b bb bf b2 52 3c a4 96 08 3c
       0.00645056 -0.0026150974 0.012859999 0.008336697
000090 ea 8b 8c 3b 16 87 1c 3b 1b 18 f8 38 75 95 34 3b
       0.00428914 0.0023884228 0.000118300515 0.0027554904
0000a0 dc 40 17 3c f4 1a f0 ba df 0c bb 3b d9 52 3a bb
       0.009231772 -0.001831858 0.0057083215 -0.0028430729
0000b0 4e 25 57 3c fc f4 07 ba 70 c1 0a bc 72 97 2d bb
       0.013131453 -0.0005186347 -0.008468971 -0.0026487974
0000c0 7d c4 0d 3c 55 41 98 3c e1 41 db 3a c7 ee 42 3a
       0.0086528035 0.01858584 0.0016728007 0.00074360933
0000d0 33 25 a3 bc 44 1b 98 bb 86 e1 14 3b 45 85 25 3b
       -0.019915199 -0.004641922 0.002271743 0.0025256437
0000e0 6b 2a 76 bb b0 ae 63 bb 40 42 ce bc ad 59 d9 bc
       -0.0037561904 -0.0034741573 -0.025178075 -0.026532019
0000f0 11 c1 32 3a 5a aa d3 3c f1 e2 fa 39 79 98 d1 3b
       0.000681893 0.025838066 0.000478528 0.00639635

actor.2.weight f4 [64, 64]
000000 05 5d ec 3c a5 a7 c1 3e a3 ee a0 be 09 7c 1b be
       0.028852949 0.37823215 -0.31432065 -0.15184034
000010 b4 eb de bd 52 ef 3b be 5f f4 e8 bd d0 ec de be
       -0.108848006 -0.18353012 -0.11374735 -0.4354005
000020 c9 9d ec 3c be 10 20 be 83 93 48 3d c5 ac e1 3d
       0.028883832 -0.15631387 0.048968803 0.11019281
000030 2d 32 bd bd ec 89 a7 3e 64 fe 90 3e 3c f8 75 be
       -0.09238086 0.32722414 0.28319085 -0.24020475
000040 d9 0c 18 be 69 ff 3a bd ac 3a 8a 3d 0c 48 33 3d
       -0.14848651 -0.045653734 0.06749472 0.04376988
000050 16 14 a9 be be 20 cd 3d 63 04 54 3e 8d a3 2c 3d
       -0.33023137 0.10016011 0.20704798 0.04214816
000060 4f 78 e3 3d 88 97 c7 be 6d 49 09 be b8 0f 12 3e
       0.111069314 -0.38982797 -0.13406916 0.14263809
000070 e1 67 cf 3d 1b 0f 65 3e 70 93 49 be 42 5f 19 be
       0.10127235 0.22369044 -0.19685149 -0.14977744
000080 0c 05 07 bd 26 f4 0b 3e bb ce 41 3e c0 52 3d 3e
       -0.032963797 0.13667354 0.18926518 0.18488598
000090 fa 35 49 bd c2 2f 92 bc c6 76 b6 bd 70 aa 51 be
       -0.04912374 -0.017845038 -0.08909373 -0.20475173
0000a0 02 b2 d3 bd 5e ac 12 be c1 fe d3 3e d5 47 fb bb
       -0.10336687 -0.14323565 0.414053 -0.007668475
0000b0 f0 4f 17 be 26 5d dc bd be 25 54 3d 94 95 d6 3d
       -0.14776587 -0.10759954 0.051793806 0.104777485
0000c0 f6 77 b7 be b3 17 3c bd 8c 34 04 3e 2b 98 89 bc
       -0.3583371 -0.04592104 0.1291067 -0.016796192
0000d0 f2 40 bb bd bf 59 a9 bd 6f 42 f4 bd a2 65 54 be
       -0.09143247 -0.08269071 -0.11926734 -0.20741895
0000e0 b9 e4 e3 3d c5 63 fa bc af 33 a2 3d 16 69 83 3c
       0.1112761 -0.030565152 0.07920014 0.01604132
0000f0 14 d0 11 be 50 9e 25 bc c0 aa 37 3e 1a 42 02 3e
       -0.14239532 -0.010108545 0.1793623 0.12720528
000100 bb 48 d9 3d 9c 2c 34 3d 1e 5c 49 3e 69 32 57 3e
       0.10609575 0.043987855 0.19664046 0.21015324
000110 b8 48 63 3e a1 50 db 3d 16 cc ae 3d 7f 6c a8 bd
       0.22195709 0.10708738 0.0853502 -0.08223819
000120 d1 5f 80 3d 97 bd a1 bd d7 3f 74 3c 25 a7 35 3e
       0.062682755 -0.078974895 0.014907799 0.17739542
000130 8d 72 0d 3e 03 b2 ac 3d a5 1a 90 3e 1b 64 96 bb
       0.13813229 0.084323905 0.28145328 -0.00458957
000140 d9 7a de bd c0 ec f1 bd fa bf 83 3d 9e 41 b9 3c
       -0.10863275 -0.118127346 0.06433101 0.022614297
000150 09 83 aa be 6d 03 cb bc 9a 64 b2 bd 5c e5 22 3e
       -0.33303097 -0.024781907 -0.087105945 0.15907806
000160 3f 34 26 3c 41 5a db 3d 8c d5 4d 3e f1 43 f4 bd
       0.010144292 0.10710574 0.20100993 -0.11927021
000170 f1 c9 7f be bd 34 ab 3b e1 ac c1 3e fb c6 55 bd
       -0.24979378 0.0052247928 0.3782721 -0.052191716
000180 9c 8d 04 be a3 d1 77 be 39 3a de 3e 3a 75 51 3e
       -0.12944645 -0.24201064 0.43403795 0.20454875
000190 71 b8 ef 3d f0 01 39 be 4a 7d 57 3e 6d 1a d2 be
       0.11705101 -0.18067145 0.21043888 -0.41035786
0001a0 62 47 54 be 2a 3c 9b bd c9 04 b6 bd 8a 46 10 be
       -0.20730355 -0.07579835 -0.088876314 -0.14089409
0001b0 fe b4 11 3e e5 e6 3f 3a e0 a1 5d be 63 c8 9d be
       0.142292 0.0007320478 -0.21643782 -0.30816945
0001c0 1a 3a bc 3e 9a 09 66 be 27 42 4c 3e 77 ca 7c 3e
       0.36763078 -0.224646 0.1994711 0.24686609
0001d0 35 39 34 be ad 79 1c be 92 a5 b9 3c de 8f b5 bd
       -0.17599948 -0.1528079 0.022661958 -0.08865331
0001e0 b1 b8 9f 3d 52 53 0f 3d 4f 67 40 3c f0 bb 28 be
       0.07798899 0.03499157 0.011743381 -0.16477942
0001f0 28 cf ba 3d f4 37 1c 3e f5 7c a7 bd 25 cd 92 3b
       0.09121543 0.1525572 -0.081781305 0.0044800215
000200 88 a8 81 3d cd c8 0e 3e 66 20 89 bd 71 4f 5c 3e
       0.06330973 0.13943787 -0.06695633 0.2151468
000210 39 c7 bd bd 4a df 73 bd b0 ff 7d be f9 66 1b 3e
       -0.09266514 -0.059539117 -0.24804568 0.15176
000220 91 0f 5b 3e 7d f1 1c 3e d5 65 52 3e 04 8a 9e 3d
       0.21392657 0.15326495 0.20546658 0.07741168
000230 ec 18 6c 3e ac e7 ff 3d 1b 6d f5 bd 29 9c fc 3d
       0.23056382 0.1249536 -0.11983701 0.12334473
000240 ac e3 e7 bd 25 11 9e be 44 2e 94 be 6b 04 62 be
       -0.11322722 -0.30872455 -0.28941548 -0.22071998
000250 97 73 e5 3e cc c3 42 3d 8f 38 ed bd 6a 91 d4 3d
       0.4481475 0.047550008 -0.11583053 0.10379298
000260 b0 1f a7 3c 62 83 12 3e 42 03 81 be 36 f1 4c 3d
       0.020400852 0.14307931 -0.25197798 0.050034724
000270 73 6d 9b be 9b ac 44 3e e2 62 5e be 46 67 ec 3d
       -0.3035694 0.19206469 -0.21717408 0.11543135
000280 cd 09 7f 3d 20 b5 d2 3d 15 3b de 3e 32 ef 21 3e
       0.062265206 0.10288453 0.4340445 0.15813902
000290 f4 f7 95 bd 4f 67 77 3e d2 4f c3 3d 9a ec c6 bd
       -0.07322684 0.24160503 0.09536709 -0.09713097
0002a0 8d 09 5b be 9c 77 bc bd 20 77 0c be 57 ee df 3d
       -0.21390362 -0.09202501 -0.13717318 0.109341316
0002b0 a3 d1 b6 be 32 02 20 3c 69 3c ad 3d dd 04 66 bd
       -0.35706815 0.009766148 0.08458788 -0.05615698
0002c0 2c e8 a3 3b 84 49 0a be 02 9d 6c be 44 b9 1c be
       0.0050020423 -0.13504606 -0.23106769 -0.15305048
0002d0 71 57 a0 bb 2e f5 11 bd 4d 2f b2 3d 61 28 97 bd
       -0.0048932363 -0.035634212 0.08700428 -0.073807485
0002e0 72 cd 61 bd 1e f6 1e 3e f6 54 ca bd 09 12 fb bd
       -0.05512757 0.15523574 -0.09879486 -0.12259299
0002f0 0d 65 7a 3e ec 24 87 be 47 f8 c0 3d b8 87 2a 3e
       0.2445261 -0.26395357 0.09422355 0.16653335
000300 d1 57 93 bd d3 a9 96 be 42 6d a2 3d da 95 b0 3c
       -0.07194484 -0.2942644 0.079309955 0.02155583
000310 ed 24 10 be 04 57 51 be 09 2b a5 bd c3 55 45 3d
       -0.14076586 -0.2044335 -0.08064849 0.048177492
000320 4b c3 be 3d 11 59 2f bc 2a ea fc 3d 7e 32 af be
       0.09314593 -0.010702387 0.12349351 -0.3421821
000330 b1 47 d3 3e da af d3 be f7 05 be 3e fa 74 3a bd
       0.41265634 -0.41345102 0.37113926 -0.045521714
000340 86 0b 52 3e ea 1e 93 bb bc 39 ee bc ce df cf be
       0.20512208 -0.004489769 -0.029080264 -0.40600437
000350 27 2b cc be 57 5a 8e 3e e4 01 7f 3d be 52 76 3e
       -0.39876673 0.278033 0.062257662 0.24055001
000360 c2 db 93 be 76 6d 7b be 7d b3 d0 bd 4a fe 75 3d
       -0.288786 -0.24553475 -0.10190485 0.060056962
000370 5b 22 c0 3c 58 6f 7a bd 75 8a 66 3b 8f 07 fc 3d
       0.023453882 -0.061141342 0.0035177742 0.12306129
000380 3c 73 1f 3e 04 41 0d 3e c7 83 bf 3c de e3 70 be
       0.15571302 0.13794333 0.023378266 -0.23524424
000390 e0 f4 1d 3e dd 7f f5 bb ec df 2c 3e 5f 7e a5 3d
       0.15425444 -0.007492049 0.16882294 0.08080744
0003a0 ab dc 0b be 59 39 fc 3d 9c 0a e8 3c 4d 8f b7 3c
       -0.13658397 0.12315626 0.028325371 0.022407198
0003b0 ee 56 b5 bd 60 5f ac be 16 65 08 3e fb 08 17 3e
       -0.08854471 -0.33666515 0.13319811 0.1474952
0003c0 57 02 cd 3d f5 8e 89 be 15 a5 54 ba 4e 2e f8 3c
       0.10010212 -0.2686688 -0.00081117573 0.030295517
0003d0 9f 72 07 bd 8f 21 30 3e c7 6e e1 bc 3b d0 89 bd
       -0.033068296 0.17200302 -0.027518643 -0.0672917
0003e0 5b 2a ba 3d 76 1d 75 3d 98 72 bd bd 5d 9e 6f 3c
       0.0909011 0.05984255 -0.09250373 0.014625159
0003f0 c3 85 df bc ae 1d 00 be b3 51 ac 3d 31 18 c4 bd
       -0.027285462 -0.12511322 0.084140204 -0.09574927

actor.2.bias f4 [64]
000000 f3 31 9e bc ab 5f fc 3b 9c 46 06 bb 99 c5 7a 3c
       -0.019310927 0.007701834 -0.0020488864 0.0153059
000010 6d d4 13 bc 12 2b 16 3c 8b ea 38 bc 1e 24 7f 3c
       -0.009022814 0.009165542 -0.011286388 0.015572576
000020 7a 6c 18 bc 3d e3 16 bb fb d1 80 bc 34 a4 3e 3c
       -0.009303207 -0.0023023628 -0.015725126 0.011635829
000030 4b 3f 9c 3b 95 84 3c bc 81 8b f3 3b 7f 56 82 3c
       0.0047682873 -0.011506219 0.0074324016 0.015910385
000040 10 fe 1d 3c e4 93 71 bc af 7e b6 bc 03 ad cd 3b
       0.009643093 -0.0147447325 -0.022277204 0.006276728
000050 cf b0 41 3c 4e b5 67 bc a9 c4 fd bb c4 75 97 3c
       0.01182194 -0.0141423475 -0.007744391 0.018488772
000060 83 9e 45 3c 17 f1 26 bb 10 8d 96 b9 a3 c7 84 39
       0.012061718 -0.002547329 -0.0002871533 0.00025325743
000070 31 0d 30 bc aa 57 15 3c 1d 04 4d 3c 5c b7 85 bc
       -0.010745333 0.009115139 0.012513188 -0.016322784
000080 78 fa 26 bb b6 80 16 bc 84 b2 9c bb 29 a7 9b bc
       -0.002547888 -0.0091859605 -0.004782023 -0.019000607
000090 ac ad 16 bc 43 98 56 bc 62 4b b2 3c 21 3d c9 bb
       -0.00919668 -0.013097825 0.021764461 -0.0061413203
0000a0 92 b4 3b bb 1d 00 08 bc e9 e9 06 bc d5 f3 2e 3c
       -0.0028641564 -0.008300808 -0.008234479 0.010678251
0000b0 db 14 b8 3b 24 c4 90 3c 48 cd 59 ba 8c 6b 77 bb
       0.0056177205 0.017671652 -0.00083084824 -0.0037753312
0000c0 24 83 e9 3b 25 fe 48 3c f7 cb 2c 3c bf 55 fd bb
       0.007126229 0.012267624 0.010546676 -0.007731169
0000d0 50 33 de bb 48 c8 2b 3b fc 09 c8 39 eb 5d 27 3a
       -0.0067810193 0.0026211906 0.00038154412 0.00063845393
0000e0 bb 2b e9 39 3f 53 c5 3b 39 c4 0d bb bd 0c 80 bc
       0.00044473805 0.0060218866 -0.002163185 -0.015631074
0000f0 eb 94 4f bb cb e9 3c bc f3 36 40 3c 3b bd 92 bc
       -0.0031674455 -0.01153035 0.011731851 -0.017912498

actor.4.weight f4 [34, 64]
000000 f2 b9 18 3e 0b c6 7e 3e 24 93 48 3d 09 4b 2c 3d
       0.14914683 0.24880235 0.04896845 0.042063747
000010 61 f6 76 be 7e 25 4e be 51 eb cc 3e 0f df ab 3e
       -0.24117424 -0.2013149 0.40023282 0.33568618
000020 5f 2d 57 be ce 5b 0e 3e cd d0 40 be 86 91 f3 3d
       -0.21013401 0.13902208 -0.18829651 0.11892991
000030 5a a5 32 be 8a fa 90 bd 8e 58 de bd 26 01 e2 3d
       -0.17445889 -0.070790365 -0.10856734 0.11035375
000040 39 1c 71 be 7b cd e1 3c 41 83 7a 3d 77 04 95 be
       -0.23545922 0.027563801 0.06116033 -0.2910497
000050 41 71 b3 3e 23 a2 37 3d e0 ce a1 3d 47 30 63 bd
       0.35047343 0.04483236 0.079007864 -0.055465963
000060 06 46 97 3d 8a 60 df bd 27 fd 38 be f4 70 68 3e
       0.07386403 -0.10907085 -0.1806532 0.22699338
000070 b1 fc 80 be 6b e3 8c 3e 3d a3 bb bc ed 50 a2 3d
       -0.25192788 0.27517256 -0.022904987 0.079255916
000080 d6 0a 14 3e c9 ea df 3d f1 73 97 3d bb ac 8c 3e
       0.14457259 0.109334536 0.07395161 0.27475533
000090 16 2b 38 3e 22 80 35 bd 02 2c 98 be 4b 51 4d be
       0.17985186 -0.04431165 -0.29721075 -0.20050542
0000a0 5a 55 57 be 1c 05 f4 bd 4c 41 fa bd 25 d7 06 bd
       -0.21028653 -0.11915037 -0.12219486 -0.03292002
0000b0 48 b4 1f be 2e 67 a8 3d 86 5e b0 bd 88 1a 68 be
       -0.15596116 0.08222805 -0.08611779 -0.22666371
0000c0 71 c8 87 3d 56 1b 9f 3e 12 05 9d 3d 48 64 47 3e
       0.06630028 0.31075543 0.07666983 0.19471848
0000d0 71 12 a5 3d 8e 17 a2 3d 3c 3f 43 be 74 5a 0f be
       0.08060158 0.07914649 -0.19067091 -0.13999349
0000e0 af d3 ed bd 47 d8 53 be 3f 6b 88 bd 5b 14 4f 3e
       -0.11612641 -0.20687972 -0.066610806 0.20222609
0000f0 c4 47 49 be cc 49 42 be 5d 99 69 be 63 9c a5 3d
       -0.19656283 -0.18973464 -0.2281241 0.08086469
000100 70 60 f5 3d 6e ed 89 3e f7 12 d3 3d e7 1c c7 bc
       0.119812846 0.26938957 0.10306352 -0.024305774
000110 41 d7 26 be f2 8b b2 3d 9d 02 59 bd e0 bd 9a be
       -0.1629305 0.08718099 -0.052981008 -0.30222988
000120 12 7b c4 ba 25 a0 38 3d 1e aa fa bd a4 6e d2 bd
       -0.0014990291 0.0450746 -0.122394785 -0.10275009
000130 66 0b 45 3e 2e 18 3a 3e c1 87 67 3e e4 23 79 bd
       0.1924263 0.18173286 0.2261038 -0.060825244
000140 1a d3 43 be 1e 2f b3 be 3f be 2a be b5 28 1d be
       -0.19123498 -0.34996885 -0.16674136 -0.1534756
000150 02 85 e1 be 0c 0e 83 be 25 5b 0d 3e 48 b5 60 be
       -0.4404679 -0.25596654 0.138043 -0.21944153
000160 e8 cd b8 bd 24 d6 5b be 51 07 b6 ba cf 35 15 3e
       -0.090236485 -0.21468407 -0.0013887679 0.14571308
000170 36 7b 05 3d 39 bc 86 3e 10 4e d5 3d 0e 57 b1 bd
       0.032588206 0.26315477 0.1041528 -0.086591825
000180 c9 29 c8 3e 24 a7 0f bd fc b3 5f 3d 8d 00 54 bd
       0.3909438 -0.035071507 0.054615006 -0.051758338
000190 5c 6a 80 be 21 7a 6a 3e 02 15 cb bd 96 4a 6a be
       -0.25081146 0.22898151 -0.09916116 -0.22880015
0001a0 d7 4e e4 bc 61 4d 90 be 67 8e 0c 3e b8 0e d5 be
       -0.027869625 -0.28184035 0.13726197 -0.41612792
0001b0 bc 98 06 be 55 6b 6d be b4 83 b7 bc 17 47 83 3d
       -0.13144201 -0.23185475 -0.022401668 0.06410044
0001c0 26 18 33 be 1d 2e d3 3d b2 21 43 bd 05 bc dd 3d
       -0.1748968 0.1031153 -0.047639556 0.108268775
0001d0 29 ee 19 bd 0b c2 59 3e 72 d7 6f 3c 95 c3 ab 3d
       -0.037580643 0.21265428 0.0146387685 0.08386914
0001e0 ea 6f 09 3e df 5b 2d 3b 03 9c 9d 3d 2a 47 5d be
       0.13421598 0.0026452465 0.076957725 -0.21609178
0001f0 77 fc b3 be 7b 96 05 3d be 99 17 bc 34 43 01 be
       -0.35153553 0.032614212 -0.009252964 -0.12623292
000200 f1 0c 75 3e c9 98 3b 3e 45 e6 bc 3d f1 bb 90 bd
       0.23930718 0.18320002 0.09223608 -0.07067097
000210 76 b5 cd 3e 21 e0 69 3e b7 86 70 3e 3d aa 92 3d
       0.40177506 0.22839405 0.2348889 0.071613766
000220 24 d5 a3 3c 50 30 e5 bd cd 34 06 3e 31 50 5b be
       0.019999094 -0.111908555 0.1310608 -0.2141731
000230 e3 b1 96 3e 55 57 cf 3d 89 0a 06 3d 64 e7 0d 3e
       0.29432592 0.10124079 0.03272489 0.138578
000240 04 f6 0c bd 20 0c 66 3e 94 c1 4a 3e aa 8c 70 3e
       -0.034414306 0.22465563 0.19800407 0.23491159
000250 48 d8 19 3d c8 80 70 be fd 0b ec 3d 66 3d 0c 3e
       0.037559777 -0.23486626 0.11525724 0.13695297
000260 34 1c 80 3e 5e 79 53 be 6f 21 73 be ad bd cf bd
       0.25021517 -0.20651767 -0.23743223 -0.101436
000270 29 bc 5c bd 8c be f4 3c 94 70 81 3d e9 5d 14 be
       -0.05389038 0.029876016 0.06320301 -0.14488949
000280 f5 32 d1 bc 2b 30 0d 3c ef 27 88 3e 4a 32 ce 3d
       -0.025536994 0.008617441 0.26592967 0.100681856
000290 60 80 1b bd 17 0e 9c 3d 00 fe c3 3d db 66 de bd
       -0.037964225 0.07619875 0.09569931 -0.10859462
0002a0 e9 58 be be 7e d2 d3 ba 04 52 82 bc c4 d8 3c bd
       -0.37177208 -0.0016160754 -0.015908249 -0.04610516
0002b0 5c 01 8b bd b4 71 9d be f9 27 62 3e 69 8f 67 3d
       -0.06787369 -0.3075081 0.22085561 0.05653325
0002c0 0d 51 6a 3e ff 93 a4 be fc 08 d7 3d 4c 1f f7 3d
       0.22882481 -0.32144162 0.104997605 0.12066516
0002d0 ff bf 62 bd cc bf d5 be c5 2d 35 3e 5d af 2d 3e
       -0.055358883 -0.41747892 0.17693241 0.16961427
0002e0 54 4a d0 3d 26 b7 63 be 59 3d 3b be 58 5e 4d 3e
       0.10170427 -0.22237834 -0.18285121 0.2005552
0002f0 85 ba 40 be 33 24 e8 3d 3a 24 dc bd 5e 92 ac 3d
       -0.18821152 0.113350295 -0.10749097 0.08426355
000300 22 83 ef 3d 4a e0 0b be 9c 39 e5 bb f3 a7 a6 bc
       0.116949335 -0.13659778 -0.006995393 -0.020343756
000310 f2 4a 63 bd d0 43 94 3d 1f ee 31 be 96 ea 07 3e
       -0.055491395 0.07239497 -0.17375992 0.13273081
000320 40 ae 01 be b7 03 65 be f9 fa 26 3e 0a 50 06 be
       -0.12664127 -0.22364698 0.16306676 -0.1311647
000330 9b 1f 16 3d fa b7 7e 3d ce a4 3b be af 0b 4e 3e
       0.036651235 0.062187172 -0.18324587 0.20121644
000340 32 d3 af bd 60 47 99 3c ac b0 1c be 22 3f 1b bd
       -0.08585204 0.018710792 -0.1530177 -0.037902005
000350 ca e5 10 be 06 e1 f2 bd 6f a3 fb 3d 41 cd ed 3c
       -0.14150158 -0.11859326 0.12287032 0.029028537
000360 e0 8c b5 bd ef ae 1a 3e f5 41 7b bd 76 24 ae 3e
       -0.088647604 0.15105794 -0.0613422 0.34012192
000370 7a dc 87 be 63 cc 5b bc 18 e9 e4 be d9 06 49 bd
       -0.26535398 -0.013415429 -0.44709086 -0.049078796
000380 7a 9d 68 be 1b 01 a1 3e 47 99 26 3d a6 ba 25 bd
       -0.22716323 0.31446156 0.04067352 -0.040461205
000390 8c dd b3 be b6 14 99 ba da 71 e1 bb dd 4b c6 3e
       -0.35129964 -0.0011679146 -0.0068800272 0.38729754
0003a0 0f e8 9e be 3e 79 8d be d2 1d 8b bd 73 41 7a 3b
       -0.31036422 -0.27631563 -0.06792797 0.0038185983
0003b0 69 12 62 bc 94 4e 25 be 5b b9 0c be bf c2 61 3d
       -0.013798335 -0.16143256 -0.13742582 0.055117365
0003c0 69 01 29 3e cb 6a b8 bd f3 da 31 be d5 34 86 be
       0.16504444 -0.09004744 -0.17368679 -0.26212183
0003d0 44 e6 7f 3e d3 af 6c 3e 18 7c 9d 3d 08 18 af bd
       0.24990183 0.23113947 0.07689685 -0.085495055
0003e0 0f 05 9c 3c 6e 5f cb 3d 13 d7 59 3e dc d8 f0 bd
       0.01904538 0.09930311 0.2127345 -0.11760113
0003f0 c9 ff 43 3e e2 c4 d5 bd 9a 7a ba be 6d ff 68 3e
       0.19140543 -0.10437943 -0.36421663 0.22753687

actor.4.bias f4 [34]
000000 78 64 21 bd f6 a6 1c bd 47 8c 89 bc d1 39 4e bc
       -0.039402455 -0.038245164 -0.016790522 -0.012587027
000010 44 e0 20 bd 55 c9 19 bd a0 aa 02 bd aa e2 0b bd
       -0.039276376 -0.03754552 -0.031901002 -0.03415171
000020 96 c5 e2 bc bb f0 08 bc c4 8c 32 3b 9d 45 ce bc
       -0.027682107 -0.008358176 0.0027244547 -0.025179679
000030 e1 b2 0c bd 2e e9 45 bc e6 de c0 bc 40 64 db bc
       -0.03435028 -0.01207952 -0.023543786 -0.026781201
000040 88 d3 d7 bc 30 be 24 bd 0a e3 d0 bc 40 7f e0 bc
       -0.026345983 -0.04022044 -0.025498886 -0.027404428
000050 e3 bf 01 bd 4b c5 09 bd dd 6e ee bc e4 30 89 bc
       -0.031677138 -0.03363542 -0.029105598 -0.016746946
000060 21 85 8d bc 64 8f 03 3d c5 5b 9e bc 80 bd 47 bc
       -0.017275395 0.03211917 -0.019330868 -0.012191176
000070 85 3e dc bc 5f 5e 03 bd 1a 3c 09 bd 1b 0f 08 bd
       -0.02688528 -0.03207242 -0.033504583 -0.03321753
000080 2f 95 94 bc e3 4a 0a bd
       -0.018137543 -0.033762824
