Tetris-PPO/trained/PPO/tetris_2/stage2.pth (torch, 149549 bytes, 11 tensors)

critic.0.weight f4 [64, 200]
00000000: 54f6 833d c490 d93d ff56 113c f97a 473e
00000010: 3fdf aa3c c86a e2bd 143b 243d 3a01 ce3a
00000020: 93e9 7f3e dc50 1dbe d34b d23d 3aa7 01bd
00000030: 69fd b9bc cd3b a3bd 20a2 d1bb 1e7e 61be
00000040: d425 b0bd c4fe 40bd 2d29 363c 52ea 81bd
00000050: ef8c 0c3e ffc0 8cbd a9b9 92be 55ed ae3c
00000060: 585b d03d d53e d03c 5ee9 9abd bb49 35be
00000070: c452 8c3c bab0 09be 0ee1 8cbd 5db4 90bd
00000080: bd4b 13be c8e3 b23e 8011 583e 7e45 ad3d
00000090: 7a90 b8bc 9651 4abe 69e6 a83b 0e71 333e
000000a0: b3a3 b0bc 3a74 4bbe 3020 7a3d 150c 0e3d
000000b0: 02d1 663e 9ea3 05be a741 823d 4543 4f3d
000000c0: 927a f9bd 9957 603b 459c 0abd 4bff 973d
000000d0: 32dd 6f3d f373 fb3d d358 9b3d 609d 543a
000000e0: 3c3a 6d3d 2a9b d43c a1d5 87bc 18fa 26bc
000000f0: e9b1 8fbd 377b 36bd 3a73 febd 3063 d13d
00000100: cee3 4fbe a6eb 3c3d 774e abbc 5208 a03c
00000110: 71b6 67bd 2f22 f03c 69c9 0bbd 3ac4 0bbe
00000120: a8f8 6abc 0743 223e 2c61 953c 4c9c 43be
00000130: 8a60 a73d d47f 91bb 98f5 20bd 94d6 24bd
00000140: 32ce c03d cf3d 163e c7c4 013e 1b3e a63d
00000150: a1d1 af3d 6349 d53d 6328 f33d b6bb 80bd
00000160: c85f 043e bb7d 2a3e d799 47bd 0e1f 0e3d
00000170: 2eda 483e a3f1 8fbd cd8b 13bd b1b8 383d
00000180: 2069 93bd 7476 98bd 96c1 863c dbfc 363d
00000190: 4c58 3cbc 699f 57bd a084 25bd af82 bfbd
000001a0: c08a 663d 19e4 233e 1001 e83c 1035 34be
000001b0: a8f2 8f3d 641d 203e 71f2 173d 07d0 11be
000001c0: 62cf 83bd 5a55 d93d 629f 81bc 815f a83b
000001d0: ddab da3d 7581 a43d a6e7 edbc 25ae d5bb
000001e0: 9cfd 2dbe 03f2 193e 5b41 63bd 0a1b 223e
000001f0: 658c 7cbc f131 ff3b 42ad 51bc 83d6 d7bb
00000200: 13af 26bd 570e 3fbd 33f1 76bd 8014 2c3e
00000210: e812 d53d 620d 053d 2e06 d33d 781e 12be
00000220: 55a4 d13b f381 a63d 1b09 163c ecce 0e3e
00000230: 1f4c b53c d169 1cbc 138c 3ebe b851 2d3c
00000240: a8fc 48be b2b3 963d ab90 6ebd 3d33 7ebd
00000250: bee8 89bd ac65 f03d 1a52 d8bd 94cd 073c
00000260: 12d1 81be b8af 89bd c608 62bd 0612 333e
00000270: 33fd 893d c73d 97bc e61d 21be 8649 d4bb
00000280: bcee 09be ca2f ad3c 84ae 05bd 5794 0f3e
00000290: ffa5 a63d 2e3f e9bd 0a25 633e 19ca 55bd
000002a0: eb5c ed3d 553b 54bd a9fb e0bd 8b17 5ebd
000002b0: dc4d 2c3e 5cc6 88bd a4bd 9f3d 6f9a a9bd
000002c0: 5999 223d 671e f9bd 28ff c6bd a2e7 7abd
000002d0: c928 63bd 2f85 d33c b589 8e3d 2441 113e
000002e0: 3d4b 203d 5b9b 9b3b c7ae 693d db2d 5bbc
000002f0: 0b10 b6bd c0f6 1e3e 306e fcbd 6c1e 4ebe
00000300: fe24 4abd 0029 06bd 3d54 633d 2390 053d
00000310: b992 f9bd 5d76 a73b b7ed 81bc 9131 3ebd
00000320: 003f d13d 69d3 51bd c776 9cbd 238b 493d
00000330: 4cca 59bc 2379 bcbd 926a 73bd 2ad0 0cbe
00000340: 44e0 a13d a293 65be b1ff fabd 05bd 5c3e
00000350: d467 4f3d 7fd8 1a3e feb2 e8bc 2c88 f2bd
00000360: f81e 38bd fbbc cb3d 6f61 7cbd dd33 8dbb
00000370: a815 1d3e 27e4 a63c e91a 963c fd3b 743e
00000380: 2f0b 3d3e 5f86 23bd d0ee 093e ed08 cabd
00000390: e878 163e b9be f93c 8aef 86bd b4fe aabc
000003a0: 0e8b 0d3c 4ffc 383e 0d73 123e 5bcf 84bc
000003b0: 213f c7bd 6b9a 34bd e261 d3bd a2ee 373e
000003c0: 2d6c 3a3e 4810 04bd c1dd 13bd 5e6c 363e
000003d0: c420 873e 840f c5bd 2e24 ba3c efe2 e3bd
000003e0: 7760 20bd e928 8f3b e4db 2f3e 5bdb 50bc
000003f0: 1621 b3bd 2ed4 543e eea9 1d3e 8e56 cb3c
0.06443468 0.10623315 0.008870839 0.19480504 0.020858405 -0.11055523 0.040095404 0.0015716918
0.24991445 -0.15362877 0.102683686 -0.03165362 -0.022703843 -0.079703905 -0.0063975006 -0.22020766
-0.08600965 -0.047117963 0.0111182155 -0.06343521 0.13725637 -0.068727486 -0.28657272 0.021353403
0.101736724 0.025420586 -0.075640425 -0.17703907 0.01712931 -0.13446322 -0.06878863 -0.070656516
-0.1438436 0.34939408 0.21100426 0.0846052 -0.02252983 -0.19757685 0.00515442 0.17523596
-0.021562433 -0.19868556 0.061065853 0.03467949 0.22540668 -0.13050696 0.063601784 0.050601263
-0.121815816 0.00342319 -0.033840436 0.0742174 0.058560558 0.12277975 0.07585301 0.0008110609
0.057916865 0.025952894 -0.016581358 -0.010191463 -0.070163555 -0.0445511 -0.124243215 0.10223997
-0.20301744 0.04612317 -0.020911438 0.019535217 -0.056570474 0.029313175 -0.034127627 -0.13649073
-0.014341511 0.15845881 0.018234812 -0.19102591 0.0817271 -0.004440287 -0.039296716 -0.0402437
0.09414329 0.14672016 0.12672721 0.081173144 0.085849054 0.10414388 0.118729375 -0.06285803
0.12927163 0.16649525 -0.048730697 0.034697585 0.19614479 -0.070285104 -0.036021996 0.04509801
-0.071977854 -0.07444468 0.01644973 0.044674736 -0.011495661 -0.05264226 -0.040409684 -0.09351098
0.056284666 0.16004981 0.02832082 -0.17598367 0.07028705 0.15636212 0.037096445 -0.14239512
-0.064360395 0.10611983 -0.01582307 0.005138338 0.106773116 0.080325045 -0.029041123 -0.006521004
-0.16991276 0.15033726 -0.05548225 0.15830627 -0.015414332 0.007787936 -0.012797656 -0.006586851
-0.040694308 -0.046644535 -0.06028862 0.16804695 0.10403997 0.032483466 0.10303913 -0.14269435
0.0063977637 0.081302546 0.009157444 0.13946122 0.022131024 -0.009546713 -0.18608122 0.010578565
-0.1962763 0.07358493 -0.058243435 -0.062060583 -0.06733845 0.11738142 -0.10562535 0.00828876
-0.2535482 -0.06722969 -0.05518415 0.17487344 0.06737747 -0.018462075 -0.15734062 -0.0064784912
-0.13469976 0.021140952 -0.032637134 0.14021431 0.0813713 -0.11389004 0.22182098 -0.05219469
0.11589988 -0.051814396 -0.109855 -0.05422167 0.16826576 -0.06678459 0.07799843 -0.08281409
0.039697025 -0.12164002 -0.09716636 -0.06125606 -0.055458818 0.025820343 0.06959859 0.14185005
0.039134253 0.0047487444 0.057051446 -0.013377632 -0.08889779 0.15523815 -0.12325704 -0.20128793
-0.049351685 -0.032753944 0.055500258 0.032608163 -0.12186188 0.0051105455 -0.015860422 -0.04643399
0.102170944 -0.051227007 -0.076398425 0.049204957 -0.01329286 -0.092027925 -0.059427805 -0.13751283
0.079041034 -0.22419599 -0.122558005 0.2155648 0.050636128 0.15121649 -0.028405663 -0.11842379
-0.04495141 0.099481545 -0.061616357 -0.004309161 0.15340292 0.020372463 0.018323379 0.23851009
0.18461297 -0.039923068 0.13470006 -0.09864984 0.1469456 0.030486451 -0.06588657 -0.020873405
0.00863911 0.18064998 0.14301701 -0.016212156 -0.09728838 -0.044092577 -0.10321404 0.17962125
0.18205328 -0.03224209 -0.036100153 0.17814776 0.26392186 -0.096221 0.02272233 -0.111272685
-0.039154496 0.0043688905 0.17173725 -0.012747611 -0.08746545 0.20784065 0.15396854 0.024821546

critic.0.bias f4 [64]
00000000: 3870 86bc 1938 9cba fde7 9cbc 2651 333c
00000010: 20fd 2c3c 210e 4b3c 4dd3 b4ba 3c84 37bc
00000020: 1215 9abc 2866 81bc efe3 9a3c 172c 1e3c
00000030: 591e 42bb b99e 1f3c 5c8c 36bb e363 113c
00000040: 4c2b 9b3b 3aeb 2bbb 3e5c b5bc 3098 d6ba
00000050: 6eb7 9a3b ddff b2bb 30bd 8bbc 3f42 903b
00000060: 273c 2b3b 42c2 4c3c e011 5e3b 13c5 d3bb
00000070: 4229 883b c7b3 273c 1abd 17bc d650 0cbc
00000080: cd9d 913c 8b58 17bc bead 84ba 15c1 a7bb
00000090: a53c 74ba 7ebc 873b c561 9cbb 3e07 ff3a
000000a0: d144 f93a 51bb 77bc 34ea acbc b97e 2abc
000000b0: 2f15 99b9 bece 31bc df65 b039 63d0 bc3c
000000c0: 9dd0 c3ba 4da4 59bc cd32 5d3c 02de 693c
000000d0: 6582 48bc f94b 043c 3809 82bb 5ed3 bbbb
000000e0: b6a9 ff3b 60ff 6d3c 3ceb 993c 07f7 4c3c
000000f0: 3f0e f3bb 9691 003c 6b9c 8a3c 9f1d 153c
-0.016410932 -0.0011918574 -0.01915359 0.01094464 0.010558397 0.012393505 -0.0013795883 -0.011200961
-0.018808875 -0.015795782 0.018907515 0.0096540665 -0.002962014 0.009742432 -0.0027854657 0.0088739125
0.004735386 -0.0026232735 -0.022138711 -0.001637226 0.0047215736 -0.00546263 -0.017057985 0.0044024284
0.0026128383 0.012497487 0.0033885166 -0.006462702 0.004155309 0.010235733 -0.009261394 -0.008564195
0.01777544 -0.009237419 -0.001012258 -0.0051194527 -0.0009316898 0.004142343 -0.004772397 0.0019457114
0.0019017701 -0.015120343 -0.02110777 -0.01040619 -0.00029198217 -0.010852514 0.00033645236 0.023048585
-0.0014939491 -0.013283801 0.013500881 0.014274122 -0.01223812 0.008074754 -0.003968384 -0.005731984
0.0078022135 0.014526218 0.018788926 0.012510068 -0.0074174698 0.00784721 0.016920289 0.0091013005

critic.2.weight f4 [64, 64]
00000000: 67ab 863d 68d0 2e3e 7253 12be 3ae6 c03d
00000010: 9663 573d 0620 bd3d 812d cabd 1fe7 d2be
00000020: 919f b0bc 9626 33bd d1f4 893e 8af7 53bd
00000030: cecf 633d 8cba 0fbe ca19 d83c 8972 d93d
00000040: f562 2f3e 3525 c1bd f710 b3be d6a6 3d3e
00000050: 32f7 e4bd e86a 6bbd 814d 6c3e b1f1 363d
00000060: 9ef0 01be 91ae 7ebe 395b dd3e 1e73 11be
00000070: 15c9 81bd ef4c acbd bc89 0a3c c9ef c53d
00000080: c367 a4bd 59c6 a73e 135f 5d3e e931 073e
00000090: f48b 183e a649 5d3d 6689 6c3e 449a 0abd
000000a0: d03c 3c3e e6a8 e0bb 325c ddbe e573 7d3e
000000b0: 67f8 58be b7f8 ea3c 222b fc3d 6a33 63be
000000c0: fdac 4d3d e464 a53e e848 333d 2804 02be
000000d0: 8ec9 fabc b290 6a3e 35a8 ef3c cb38 38bd
000000e0: 022e 2cbd 4e70 61bd 50d0 d03d e75e e73e
000000f0: e0d0 1c3d b183 84bd dc80 503c 49e3 a4be
00000100: b0c1 3f3e dcc6 113e acdd 643e dd4f aebd
00000110: 99af 68bd 943f 05be a2e6 ec3e 3edd 833d
00000120: 723d 703e af5a 5bbd d4c7 ed3d e4bc 093e
00000130: 3d3d d3bd f7d9 443d f833 bdbd bb73 023e
00000140: 88c3 4fbe 2409 aa3d 6a1f 6a3c 3570 0bbe
00000150: 0cee 423e 4be4 1e3e e3da 7a3d e3ba 8abe
00000160: ee58 87be ce89 943c 7010 323e 1b0d bd3e
00000170: 05eb c4bd 6eab 28be 01b8 453e 7b1d 7e3d
00000180: d3fd 3a3e b61e 1dbd 10d1 3ebd b431 153e
00000190: a7c9 9b3d ce5e 3cbc cb76 8dbe cbfd e4be
000001a0: dc04 3a3e ba77 7ebe 3a92 1ebe e940 293d
000001b0: 506e b63d 8ab3 85be f295 69be f7bb 9b3e
000001c0: fd28 45be e623 0c3e bdac 52be 2228 c13d
000001d0: 2be3 c73c b41a 4a3e 761d 4ebb cc9c c1bd
000001e0: c120 943c 2bbe 97be 13f5 0c3e 8630 4e3b
000001f0: 2ab3 7f3e 1758 5f3e c5b6 bc3d b877 e43d
00000200: 9510 1b3e 3ff6 663d c5b2 ee3d d294 5e3e
00000210: 76d4 1ebe af90 f63c 8807 ffbd 2150 15bd
00000220: 9c52 803e cbff 0f3d cbe6 56be 212a 6ebe
00000230: daef c6be 163c 83bc 66fb 0fbe 73c1 53be
00000240: e98f 143e 6e90 573e c0b0 963e 4a36 42be
00000250: e7f8 903d 6864 4b3d 8f79 ff3e a6dc ccbd
00000260: 6ed7 67be 4544 c7be 2595 3cbe 1403 2dbc
00000270: a37d e13c 7537 32bd c427 19be 0621 7cbe
00000280: 1bc1 60be 7a45 0ebe 8f95 f4bc b609 1d3e
00000290: 1742 f5bd 79c2 af3b 659e bcbb 982a b03d
000002a0: 89aa 7ebb 4f79 a83e d90f 6bbc f7f3 163e
000002b0: aaac 0c3e b751 01bf b680 b03e cf30 f1bc
000002c0: 5142 37be 0558 223d 6a61 84be 836c 993d
000002d0: 8275 29bd 59fb 433d 7d4b 143e 415c 78bb
000002e0: a5cf b93d 4b04 9c3c 0f74 83be 4789 2dbc
000002f0: 48e7 043d 00d3 f23c bc2e 433d f792 a43d
00000300: d4c9 a5be 94e7 e53d 1878 48be f190 dcbd
00000310: 6398 303e 169d 54be 0195 21be bb64 133c
00000320: 282d a0bd 1237 d53e 5756 23be afa2 aa3c
00000330: d9e9 1e3e b677 233e a83e d5be bcfa edbd
00000340: 0cce 903e e92d b1bd ef6b 2abe 632c f03c
00000350: b7af 373e fa5c 04bd 5abf 073e f7cf b9bc
00000360: ccb9 d43c 3797 bf3e ab7f b43d 13b5 fe3a
00000370: 4f96 8f3e 430c b5bd 8cd4 613c d438 cdbd
00000380: 62f3 d03b 0885 f93b da4e eb3d d07d 413e
00000390: 9616 5abe 2691 6a3e 9c26 a33b d777 42be
000003a0: bf84 373e 8b4e 60be 1fe1 9b3c ee9d 39be
000003b0: 51e9 2f3e dae1 833e d7f0 e53e 080c 08be
000003c0: e01f 0dbe d127 a53e 4338 243d 7d99 3d3d
000003d0: 570c 8fbe 19dd b83d 78e4 4d3e 6b24 0bbe
000003e0: ed5d 93bd 087e 25bd 39df a93d 7088 5cbe
000003f0: 9485 463b 99af 193e cc87 153e 9366 343c
0.06575661 0.17071688 -0.14289644 0.09418912 0.052585207 0.092346236 -0.098719604 -0.41191956
-0.021560462 -0.04373797 0.26944593 -0.051749744 0.0556181 -0.14036006 0.026379485 0.10617549
0.17127593 -0.09430925 -0.3497388 0.18520674 -0.11179961 -0.057475 0.2307644 0.04466409
-0.12689444 -0.2487128 0.4323366 -0.1420407 -0.063371815 -0.084131114 0.00845569 0.09664876
-0.080276035 0.32768515 0.21618299 0.13202633 0.14897138 0.054025315 0.23099288 -0.033838525
0.18382573 -0.0068560718 -0.43234402 0.24751242 -0.21188508 0.02868305 0.123129144 -0.22187582
0.050213803 0.32303536 0.0437707 -0.12696898 -0.030613687 0.2290676 0.029255012 -0.044976037
-0.042036064 -0.055038743 0.101959825 0.45189592 0.038285136 -0.06470431 0.012726035 -0.32204655
0.1872623 0.14236015 0.22350186 -0.085113265 -0.056808088 -0.13012534 0.4626971 0.06438683
0.2346094 -0.05355328 0.1161038 0.13450962 -0.10314415 0.04805943 -0.09238428 0.1273946
-0.20289433 0.08302525 0.014289716 -0.13617022 0.1903612 0.15516774 0.061243903 -0.27095708
-0.26435035 0.018132117 0.17389083 0.3692406 -0.09615139 -0.16471645 0.19308473 0.062039834
0.18260889 -0.038359366 -0.046586096 0.14569741 0.076068215 -0.011497213 -0.27629694 -0.4472488
0.18165916 -0.2485036 -0.15485469 0.04132167 0.08907759 -0.2611354 -0.22811106 0.30416843
-0.19253917 0.13685569 -0.20573707 0.09431483 0.024400314 0.19736749 -0.0031450666 -0.09453735
0.018082025 -0.29637274 0.13765363 0.0031462028 0.2497069 0.21810947 0.09214548 0.11155647
0.15143044 0.056387182 0.11655191 0.21736458 -0.15510735 0.030098287 -0.12452608 -0.03645337
0.25063026 0.035156053 -0.20986478 -0.23258258 -0.38854867 -0.016019862 -0.14060745 -0.20679264
0.14508022 0.2105119 0.29431725 -0.18966022 0.07078724 0.0496563 0.4989743 -0.10003023
-0.22640774 -0.38919273 -0.18416269 -0.010559816 0.027525729 -0.04350992 -0.14956576 -0.24621972
-0.21948664 -0.1389369 -0.029856471 0.15335736 -0.11975496 0.005363759 -0.005756187 0.08601874
-0.003885897 0.3290505 -0.01434704 0.14741503 0.13737741 -0.5051531 0.344732 -0.029442219
-0.17896391 0.039634723 -0.2585557 0.074914 -0.04137183 0.047847126 0.14481921 -0.0037896784
0.09072808 0.019045016 -0.25674483 -0.0105918115 0.03244713 0.029641628 0.04765199 0.08035844
-0.32380545 0.11225811 -0.19577062 -0.10769833 0.17245631 -0.20763049 -0.15779497 0.008996184
-0.07821113 0.41643578 -0.15950905 0.020829527 0.15518893 0.15963635 -0.41649365 -0.116200894
0.282822 -0.08651335 -0.16642736 0.02931804 0.17938124 -0.03231523 0.13256589 -0.022682173
0.025967501 0.37420055 0.08813413 0.0019432626 0.28044364 -0.08840229 0.013783585 -0.10020605
0.0063766697 0.0076147355 0.11489649 0.1889565 -0.21297678 0.22906932 0.004978968 -0.18991028
0.17921732 -0.21904962 0.019028245 -0.18126652 0.17178847 0.2575825 0.4491031 -0.1328584
-0.1378169 0.3225694 0.040092718 0.046288956 -0.27939102 0.09026546 0.20106685 -0.13588111
-0.07195649 -0.040403396 0.082945295 -0.21536422 0.003029202 0.15008391 0.14602584 0.011010784

critic.2.bias f4 [64]
00000000: 6514 1dbd fee3 973c 6f94 f83c 0d5b 2bbc
00000010: 3ca5 6ebc 8731 d4bb e3c8 a5ba fd9d c6bc
00000020: 6209 9dbb 4577 b7bc 862e 65bd 6394 edbc
00000030: 79de a13c 14c1 42bd 067d 34bc 0197 8d3c
00000040: 7410 eb3c 565d 9c3c 6d2b 0c3d d6d3 1bbd
00000050: 5e78 acbc 08e5 35bd f934 54bc acbc bfbc
00000060: ba84 31bd 5e77 013d e308 ca3c 0932 04bd
00000070: abb8 283d 0eb3 01bd 6665 3c3c 6b87 58bc
00000080: e915 e43c b953 c83a ffd9 c03c ffb7 4cbc
00000090: b829 913b 23d6 9ebb 57d4 bc3c 4344 47bd
000000a0: e39f 9e39 1452 0dbc 0d25 393d d31d d23c
000000b0: 8abb 64bc 7a95 a93c 8730 c1bc 6d36 11bc
000000c0: d4e3 af3c 17c9 c23a 87b6 223d 2cd1 013d
000000d0: ad87 aebc aeed 903c e302 353c dcdf f63c
000000e0: fd21 23bb 06cc c63c f4ec 0abd fd03 353c
000000f0: b735 053c 2e25 dabc 9412 07b8 1dfb f3bc
-0.038349528 0.018541332 0.030344216 -0.01045872 -0.014565762 -0.0064756307 -0.001264837 -0.024245257
-0.0047923783 -0.02239574 -0.05595257 -0.02900142 0.019759404 -0.047547415 -0.011016136 0.017283918
0.028694369 0.019087475 0.0342211 -0.03804382 -0.02105349 -0.044407874 -0.012952083 -0.023405395
-0.04333947 0.031607978 0.02466244 -0.03227428 0.041191738 -0.0316649 0.011498785 -0.01321588
0.027842479 0.001528374 0.023541449 -0.01249504 0.004430022 -0.0048473044 0.02305047 -0.048649084
0.00030255233 -0.008625526 0.04520135 0.025648987 -0.013960728 0.020701159 -0.02358271 -0.008863074
0.021470942 0.0014860955 0.039724853 0.031693622 -0.02130493 0.01769146 0.0110480515 0.030136041
-0.0024892085 0.024267208 -0.033917382 0.011048314 0.008130482 -0.026629057 -3.220381e-05 -0.029782826

critic.4.weight f4 [1, 64]
00000000: 84ce cebd 837a 993d c2af 5d3e 11cd 70be
00000010: 4920 86be 18be 97bd d009 1e3e b36c ffbd
00000020: 7043 39be 639a 8cbe 78d8 f0bd cb56 73be
00000030: 545f 2d3e 56e9 dfbd ce3b 15be f7b3 f83d
00000040: 2e6b ce3d 3636 fe3d 36cc 433e cd2d 7cbe
00000050: 71de c8bd 93c7 20be b479 0f3e d076 66be
00000060: dbe7 6bbe cebb 013e f933 473e f311 b9bd
00000070: 282e ed3d 1d32 1cbe 7ef1 bd3e ebca 16be
00000080: c696 aa3e aad7 63be f059 f13e b91c 263e
00000090: af13 4d3a 3fc1 3c3e 0713 753e 4506 98be
000000a0: b41c aabe 883b 043e be62 0c3e b3e8 043e
000000b0: 4b8d 3fbe 6a6b 37be 03b4 a2be 3ab6 b5be
000000c0: f610 1b3e 61da 43be d44e 943e 9aab 0d3e
000000d0: 5bec 1cbe 8747 8e3e 48cc 40be 757b 5f3e
000000e0: dfc1 33be 2227 773e 58cc acbd 9241 8a3e
000000f0: a738 eb3d 4d9f a1be 8a32 643d 4f05 c1be
-0.100979835 0.074940704 0.21649078 -0.23515727 -0.26196507 -0.074093044 0.1543343 -0.124719046
-0.18092132 -0.27461538 -0.11760038 -0.23763578 0.16930896 -0.10933177 -0.14573595 0.121437006
0.10079037 0.12412684 0.19120869 -0.24626847 -0.09808052 -0.15701132 0.1401127 -0.22506261
-0.23037665 0.12669298 0.1945342 -0.09036627 0.11581069 -0.15253492 0.37098306 -0.14725845
0.33318156 -0.22250238 0.4713893 0.16221894 0.00078230625 0.18433093 0.2393304 -0.29692283
-0.33225024 0.12913334 0.13709542 0.12979393 -0.18706243 -0.17912069 -0.31777963 -0.3549059
0.15143189 -0.19126274 0.2896639 0.13834992 -0.15324537 0.27788946 -0.18827927 0.21824439
-0.17554425 0.24136022 -0.08437413 0.2700315 0.11485415 -0.3156685 0.05571226 -0.37699363

actor.0.weight f4 [64, 200]
00000000: bd06 053e aa93 7e3d 99b0 563d 8107 2c3d
00000010: 236d a23b 82db a1bd b1b9 9cbc 6fdb 03bc
00000020: a0a0 0d3e 84eb 133e ae85 bc3d 3e26 323d
00000030: d1fe 04bd 2199 5c3e f55a 5fbd e14a a43d
00000040: f77a 363e 8bb3 40bd 5f3a 6abd 1bab 89bd
00000050: 660a 4abd 83b5 ccbd 098d 8a3e 1655 053d
00000060: 79a2 953d 08a1 d33d cf8e e73c ae31 c93b
00000070: 3479 60be 575c d63d fe3a 0fbd b79e 353d
00000080: 40ec a53d 5b99 b8bd 9bf5 753d ed95 783d
00000090: 346f 113e 6031 593b dc5b 4dbd 74e4 5abd
000000a0: 05fd 66bd d3c7 903b 6a5f 44bd 8e08 6d3d
000000b0: f39c 51bd 6759 98bd c548 34bb 557c d1b9
000000c0: 3e0a 9ebd c26c 9cbd 8bdb 303e 0581 e43d
000000d0: 8991 6c3d bfcb 123d f388 c138 2440 9c3d
000000e0: f1ff a7bd 7fbf a5bd f09b ec3c d139 20be
000000f0: a9d6 aa3c 188a 8bbe be39 253e 2ef3 27bd
00000100: 9b4f 0c3d 3f3f 19be 2ff9 613e e261 33be
00000110: b22e 953c 7ceb 9bbd 8a2c 623c 9f4a 25bd
00000120: 7af9 e1bd 848f cf3d 259b d13c 8e0a f23c
00000130: 28e9 38be 5f3c 653d db6f 8a3c 52ee a4bd
00000140: 30cd 22be 7767 7b3c 56ce 1d3b 76f5 01be
00000150: 112d 973d e4cf 3b3b b131 bd3d c329 183e
00000160: c09a 06be f29c 83bd e680 f5bd 7b95 693d
00000170: 76ef 0dbc bbf8 7dbd bdc1 1dbd 8d63 593d
00000180: 71f1 593d 0125 2f3d 8be5 b53d 2dac b53d
00000190: dcd5 93bd 1aef b5bd c3eb 3fbd f6fe 6ebd
000001a0: 25b6 443e f896 163d a2fb 453e 7982 723e
000001b0: 7e3f a8bb e0b0 c4bb 7bf5 20be 7cef f3bc
000001c0: 8c43 56bd 0b8d 1f3d fef1 913d bb45 9d3d
000001d0: 9515 c33a 2f6f 88ba b0c2 b5bd c020 743e
000001e0: 1a51 f6bd 78e4 c53c 6690 2d3d ec71 aebd
000001f0: 47c4 a5bd a9c1 cc3d 52fb 393d 3c71 633d
00000200: 7f40 da3d 4182 ed3d c0d9 7b3d b969 a23c
00000210: 4517 73bc e242 043e 252a 92bd 0b30 693d
00000220: f7c5 1d3e 7380 ad3d 6fb1 223d c5e2 0d3e
00000230: 3c92 3b3d aca2 e53d b3d5 0c3d 7e3f 23bd
00000240: 0366 183e 010a f2bd c342 203d c12d 563d
00000250: 45ee 553d 8723 5f3c 87f5 8dbd da11 d7bd
00000260: ab01 1dbd 54f2 463b 2930 813d ceca a9bd
00000270: 4380 343e c2e6 fabd c0e3 2d3d b892 b8bd
00000280: 6ef1 8dbd d0a3 ebbc 697f 4dbd eea2 f7bd
00000290: fd87 4e3c 7f5a 713e 4d1b 563e 3f12 a3bd
000002a0: 67f5 1abe a41d d6bd a4ca 99bb 92bc 05bd
000002b0: f985 443d 918d cdbd 10ed 09be 29ef 9dbd
000002c0: 06ab b8bd 5cc8 28bd a35e 1fbe 4478 b83d
000002d0: 6512 87be 10b0 d63d c739 423e 60d6 a0bd
000002e0: e146 573d c7fb 643d 454b 213d b29a de3d
000002f0: 5152 cd3c b3ae 17bd 0f94 12be 39c4 5d3d
00000300: 722b a23d 266b 4d3e 8c2c 943d 2607 253e
00000310: 70f9 75bd 18f5 c0bd 4d3b 6b3c f67d 81bc
00000320: ab2a bd3d ccb8 993d 456f 363d 294b a43d
00000330: 4b95 cdbd ce2d 3fbd 237e 86bb 05b9 c7bd
00000340: ed61 46bd d61f 863d e671 0f3e 02f6 2dbe
00000350: 1790 a83d feb2 b8bd e0cd ec3d 9c8e 353c
00000360: 3a75 993d b4f6 d13c 2190 3e3d a758 d73d
00000370: 106e 29bd 82d1 c4bd 36d8 9b3d 1829 5b3e
00000380: fed2 b93d 9a80 143e cb9f 5f3d 63fe b5bd
00000390: d2f3 8ebd fd7c 273c 9719 40bc 992f 613d
000003a0: 3bf0 af3d 3f1c 923d 862d f6bd 8016 34be
000003b0: db6b d83d 88b3 823b 408e 4c3d 26ba c63c
000003c0: 6496 70bd 55a3 1d3c f064 213d 6dd2 643d
000003d0: b3e6 093c fa4c fabd cdb1 afbd dc6e a6bb
000003e0: 63cc 8f3d 2c4a 533e effd 35be c8b9 013e
000003f0: 8818 323c e3ce a3bd 859c 643d 3a75 f23a
0.12990852 0.062152542 0.05241451 0.041999344 0.0049568578 -0.07903196 -0.019131513 -0.0080479225
0.13830805 0.14445311 0.09205185 0.0434935 -0.032469574 0.21542789 -0.054530103 0.080220945
0.17820345 -0.047046226 -0.057184573 -0.06722089 -0.049326323 -0.09995558 0.27060726 0.032551847
0.0730638 0.10333449 0.028266339 0.0061399555 -0.21921235 0.10466831 -0.03496837 0.044340815
0.08101702 -0.09013625 0.06004868 0.060689855 0.14202577 0.0033141002 -0.050136432 -0.053440526
-0.056393642 0.004418352 -0.047942556 0.057869487 -0.05117507 -0.07438927 -0.0027509194 -0.0003995622
-0.07716797 -0.076379314 0.17271249 0.11157421 0.05775598 0.03583884 9.228466e-05 0.07629421
-0.08203114 -0.080931656 0.02888295 -0.15647055 0.020854311 -0.27253795 0.16135308 -0.0410034
0.034255605 -0.14965533 0.22067712 -0.17517808 0.018210743 -0.076132745 0.013804564 -0.040354367
-0.11033912 0.10134795 0.025586674 0.029546048 -0.18057692 0.055965777 0.01689904 -0.080532685
-0.15898585 0.015344492 0.0024079285 -0.12691292 0.073816426 0.0028657848 0.092379935 0.14859681
-0.1314497 -0.06426419 -0.11987476 0.05702732 -0.008663049 -0.062004786 -0.03851484 0.053073455
0.053208772 0.0427599 0.088816725 0.088707305 -0.07218525 -0.08883496 -0.0468557 -0.05834862
0.19210108 0.03676507 0.19334272 0.23682584 -0.005134522 -0.0060025305 -0.15718643 -0.029777281
-0.05231051 0.03895287 0.071262345 0.07679316 0.0014883751 -0.0010409112 -0.08875024 0.23840618
-0.12027188 0.024156794 0.042374037 -0.085178226 -0.080940776 0.09997875 0.045405693 0.05552791
0.10656833 0.115971096 0.06148696 0.019825803 -0.014837091 0.12916139 -0.07136945 0.056930583
0.15407549 0.08471765 0.039719995 0.13856037 0.045793757 0.11212668 0.034383487 -0.039855473
0.14882664 -0.11818314 0.03912617 0.052289728 0.052229185 0.01361931 -0.06931596 -0.10501452
-0.03833167 0.003035684 0.06308014 -0.08290635 0.17627053 -0.12251045 0.042453527 -0.090123594
-0.06930815 -0.028764635 -0.050170336 -0.12091623 0.012605664 0.23569678 0.20908852 -0.079624645
-0.15132676 -0.10454872 -0.004693346 -0.032650538 0.04797933 -0.10036767 -0.13469338 -0.07711632
-0.09016995 -0.041206703 -0.15563445 0.09007314 -0.2638122 0.104828 0.18967353 -0.07853389
0.05255783 0.055904176 0.039378423 0.108693495 0.025063666 -0.03703184 -0.14314292 0.05414221
0.07918443 0.20060405 0.07235059 0.16116008 -0.060052335 -0.09421748 0.0143574 -0.015807133
0.09236654 0.0750595 0.04453971 0.08022148 -0.10038241 -0.046674542 -0.004104392 -0.097520865
-0.048433233 0.06549041 0.14008293 -0.16988376 0.08230608 -0.09018515 0.11562705 0.011081364
0.07493062 0.025630333 0.04652417 0.10514956 -0.04136473 -0.09610273 0.07609598 0.21402395
0.09073447 0.14502183 0.05459575 -0.08886411 -0.06980099 0.010222671 -0.011724851 0.054977033
0.08590742 0.07134294 -0.12020402 -0.17586708 0.10567447 0.003988687 0.049940348 0.024258684
-0.058737174 0.009621461 0.039402902 0.05586474 0.008416819 -0.12221713 -0.08578835 -0.0050791334
0.070214055 0.20633763 -0.17772649 0.12668526 0.0108701065 -0.07998445 0.05581333 0.0018498071

actor.0.bias f4 [64]
00000000: adc7 66bb b0a0 f6bb ab2b 10bc 2b63 1bbc
00000010: 3272 883c 43a0 0ebc 4c2b 90bb e7e6 31bb
00000020: 512b babb 11bc 043b 514a 16bc 50cb 2c3c
00000030: 106c d9bb c0c5 adbb 30be 69bb 57b2 92bb
00000040: f120 913b d499 d03b a73e 27bc f73e 26ba
00000050: 4fa0 88bb bca3 73ba 50c5 6f3c 4751 cfbb
00000060: 6d12 683b c6be d0ba 05d9 85b9 d552 3f3b
00000070: bba2 4fbb 57ec d3bb 65fd abbb 311b 2f3a
00000080: 9176 bc3b 3f21 36bb e2a8 493c 192f fc3b
00000090: 9062 8f3b b8d2 143b 8ca3 e938 0119 1f3b
000000a0: 8944 1b3c a0e6 0ebb 3cf5 ba3b ce18 42bb
000000b0: 4f85 503c 73f2 3dba 6d30 0cbc fa02 3cbb
000000c0: 30c0 113c bb55 953c ff15 de3a 688c 493a
000000d0: e6a2 9cbc 8ae3 8dbb 3c4c 1c3b cb1e 2b3b
000000e0: 2a30 73bb 3377 87bb 34a0 cdbc 91db dabc
000000f0: 69fb 233a 8132 d23c a089 d939 c77f f43b
-0.003521423 -0.0075264797 -0.008799474 -0.009484093 0.016656015 -0.008705202 -0.0043996926 -0.0027145685
-0.0056814332 0.0020253698 -0.009172992 0.01054652 -0.0066351965 -0.0053031147 -0.003566634 -0.004476826
0.0044289757 0.006365994 -0.010207809 -0.000634178 -0.004169501 -0.00092941127 0.014634445 -0.0063268277
0.0035411373 -0.0015925996 -0.0002552943 0.002919366 -0.0031682688 -0.006467383 -0.005248713 0.0006679772
0.005751439 -0.0027790812 0.012308331 0.007696044 0.0043757632 0.0022708606 0.00011140769 0.0024276378
0.009476789 -0.0021804944 0.0057055037 -0.0029616836 0.012727096 -0.00072459056 -0.0085564675 -0.0028688298
0.008895919 0.018229356 0.0016943811 0.00076884637 -0.019120645 -0.0043301033 0.002384915 0.0026110883
-0.0037107565 -0.0041340827 -0.025100805 -0.026716026 0.00062554196 0.025658848 0.00041492004 0.0074615213

actor.2.weight f4 [64, 64]
00000000: 9a9b f03c d03b c23e 897b a0be 8111 1cbe
00000010: 013d e0bd 1fd4 3abe a268 e5bd 6ba8 ddbe
00000020: 6a53 f83c 5432 1ebe d5f9 443d f6da e23d
00000030: dff9 bbbd 11fc a73e a1a2 913e 9c1b 75be
00000040: 880f 17be 3da3 3fbd 2b7a 8b3d 431d 313d
00000050: 6595 a8be 8eb1 c93d a00d 513e fee6 2e3d
00000060: 23a0 e13d 7920 c7be 6927 08be c071 113e
00000070: 87c5 cd3d 0af4 653e c6ad 48be e9ee 19be
00000080: 9640 0abd 5de7 0a3e 7faf 403e a2e7 3d3e
00000090: 3705 3cbd 6c45 a7bc 7ea9 b7bd 1669 52be
000000a0: a4dc d4bd 2da5 11be 4d8a d33e d320 a5bb
000000b0: f20b 18be d61a ddbd 3884 563d a489 d83d
000000c0: 3702 b8be ec55 3ebd c998 033e c2d1 97bc
000000d0: 6169 bcbd 8086 a7bd e68c efbd 7322 54be
000000e0: a99d e53d 3dd1 f5bc 9c56 a33d 8003 883c
000000f0: a309 14be 54d4 2ebc 78ca 363e 7fa7 013e
00000100: 8a7c d93d 50b2 333d a35e 483e 7283 573e
00000110: b79c 633e 77c0 d93d 9946 ad3d 9467 aabd
00000120: 6195 7d3d 2adf a2bd 3db2 7e3c a350 353e
00000130: 468e 0c3e e298 ab3d 15c0 8f3e 4a7a b1bb
00000140: ca71 e0bd e308 f0bd ecfe 823d 6afc ba3c
00000150: eef2 aabe 3797 c0bc ff2a b0bd 7691 223e
00000160: faa9 343c ceb2 da3d ed7d 4d3e 589f f3bd
00000170: 6a7d 7fbe 05d5 893b 2821 c13e ce14 54bd
00000180: 24ba 03be ec6e 77be 3c9b de3e 00ae 503e
00000190: 74d5 ed3d 7711 38be 33d1 573e 95bb d1be
000001a0: dcf3 53be f297 9cbd 9817 b4bd 37de 10be
000001b0: ffef 113e a368 403a 05ea 5dbe 8b04 9ebe
000001c0: b476 bc3e 7b76 65be 4977 4c3e 688a 7d3e
000001d0: e0e4 33be 6e59 1dbe 201d b23c 8b96 b5bd
000001e0: 6efd 9d3d d1f2 0d3d c84c 3b3c 7510 29be
000001f0: be9f bb3d 088d 1c3e fff3 a6bd b70c 9d3b
00000200: b48b 813d 3c78 0e3e 7a16 88bd 4308 5c3e
00000210: dbd2 bdbd 8223 74bd 719f 7dbe b0d4 1b3e
00000220: 10dc 5a3e 603a 1d3e 0446 523e ae2a 9f3d
00000230: c3e6 6c3e cb02 003e 3ddd f5bd b8ec fc3d
00000240: 306c e7bd c929 9ebe 3112 94be c3ea 61be
00000250: 798c e53e 8148 3f3d 90d1 ecbd 0738 d53d
00000260: 4fcf a43c 50d2 123e 3eee 80be 0aad 4b3d
00000270: 0fa8 9bbe 1a11 453e 67f3 5dbe c8bc eb3d
00000280: 43ca 7d3d 8fd3 d23d 1f4e de3e 4490 223e
00000290: 1972 96bd 927e 773e cac7 c23d 2a59 c7bd
000002a0: a854 5bbe 7b55 bbbd 9766 0cbe 3642 df3d
000002b0: c8b8 b6be c1b2 1c3c f899 ad3d dd47 66bd
000002c0: 44cc b03b abb1 0abe bd8b 6cbe ab25 1dbe
000002d0: b078 aabb da4f 0fbd 372d b23d bb8c 96bd
000002e0: 3570 61bd 4845 1f3e 33c9 c9bd fc6c fabd
000002f0: 39e8 7a3e 054b 87be 7cb8 c03d 053e 2a3e
00000300: d81a 93bd 73ed 96be cdb0 a13d 4ee9 b13c
00000310: e007 10be 7072 52be 934f a7bd 3d9f 3f3d
00000320: ec61 bc3d f363 31bc 6f51 fd3d 2150 afbe
00000330: 6de9 d23e c3a4 d3be 1582 bd3e 4526 3cbd
00000340: 87d1 513e 965d 54bb d1cc efbc 167a cfbe
00000350: 0a8a ccbe c9d6 8e3e f7c3 813d 6923 763e
00000360: a8c4 93be f193 7bbe d471 d1bd b5b7 763d
00000370: fa22 be3c 508d 7cbd 71e0 463b 789c fc3d
00000380: 6c12 203e ab4a 0d3e 1e09 c83c fe84 71be
00000390: 62ea 1c3e b690 d4bb d814 2d3e ce44 a63d
000003a0: 7cb0 0bbe 953b fb3d 571d ee3c 9c10 b83c
000003b0: 585e b5bd 6247 acbe 1a46 083e 8d24 173e
000003c0: 44e6 cd3d b54f 89be cc5a 16ba 9257 013d
000003d0: 1dc3 06bd 7862 2f3e c662 e8bc 601d 89bd
000003e0: 8cde b83d f25f 743d 97cc bdbd 76d0 6c3c
000003f0: 959c ddbc 7cdf ffbd 610b ad3d 06cc c3bd
0.029371072 0.37936258 -0.3134425 -0.15241052 -0.109491356 -0.1824498 -0.11201598 -0.43292555
0.030313212 -0.15448886 0.04808982 0.1107692 -0.091785185 0.328095 0.28444389 -0.23936313
-0.14752018 -0.046786536 0.06810411 0.043240797 -0.3292648 0.09848319 0.20415354 0.04270076
0.11016872 -0.38891962 -0.13296284 0.14203548 0.10047441 0.22456375 -0.1959754 -0.15032543
-0.033753 0.1356482 0.18816946 0.18545392 -0.04590341 -0.020418845 -0.08967875 -0.205479
-0.10393646 -0.14223166 0.41316453 -0.0050393133 -0.14848307 -0.10796134 0.052372187 0.10573128
-0.3593919 -0.04646866 0.12851252 -0.018532638 -0.09199787 -0.08179951 -0.11696796 -0.20716266
0.11211712 -0.030007 0.07975504 0.016603231 -0.14456801 -0.01067074 0.17850673 0.12661551
0.10619457 0.043871224 0.19567351 0.21046236 0.2222775 0.10632413 0.08460731 -0.08320537
0.061910037 -0.079527214 0.015545425 0.17706542 0.13726148 0.083787695 0.28076234 -0.0054161893
-0.109592035 -0.11720445 0.06396279 0.022825439 -0.33388466 -0.023509605 -0.08601951 0.15875801
0.011026854 0.106786355 0.20067568 -0.11895627 -0.24950185 0.004206302 0.3772061 -0.051777653
-0.12863976 -0.24163407 0.4347781 0.20378876 0.116129786 -0.17975412 0.21075897 -0.40963426
-0.20698494 -0.07646169 -0.08793563 -0.14147268 0.14251707 0.0007339811 -0.21671303 -0.3086284
0.36809313 -0.22408478 0.19967379 0.24759829 -0.17567778 -0.15366146 0.021742404 -0.088666044
0.077143535 0.034655396 0.01143188 -0.16510184 0.09161328 0.15288174 -0.08152007 0.0047927755
0.063254744 0.13913053 -0.06644912 0.21487527 -0.09268733 -0.059604175 -0.24767853 0.15217853
0.2137301 0.153543 0.20534521 0.077718124 0.23134904 0.12501065 -0.120050885 0.12349838
-0.11299932 -0.30891255 -0.2892013 -0.2206221 0.44833735 0.046700004 -0.115634084 0.10411077
0.020118384 0.1433804 -0.25181764 0.04972557 -0.30401656 0.19244805 -0.21674882 0.115106165
0.06196047 0.10294258 0.43418977 0.15875345 -0.07345981 0.24169376 0.09510763 -0.097338036
-0.21419013 -0.091471635 -0.1371101 0.109013006 -0.35687852 0.009564103 0.08476633 -0.056220878
0.005395444 -0.13544337 -0.23100181 -0.153464 -0.0052023754 -0.03498826 0.0870003 -0.07351061
-0.05503865 0.15553772 -0.09852829 -0.12227818 0.24502648 -0.26424423 0.094101876 0.16625221
-0.071828544 -0.29478034 0.0789505 0.021717694 -0.14065504 -0.20551467 -0.081694745 0.04678272
0.091983646 -0.010827052 0.12369048 -0.3424082 0.41193715 -0.4133664 0.37013307 -0.045934934
0.20490085 -0.0032404414 -0.029272469 -0.40522832 -0.39949065 0.27898243 0.063362055 0.24036945
-0.28860974 -0.24568154 -0.10226789 0.06023379 0.023210037 -0.061658204 0.003034618 0.123345315
0.15632027 0.13798015 0.02441841 -0.23585889 0.15323785 -0.0064869775 0.16902483 0.08118592
-0.13641542 0.12267224 0.029066725 0.022468857 -0.08855885 -0.3364821 0.13307992 0.14760037
0.10053685 -0.26818624 -0.00057355757 0.031577654 -0.03290092 0.17127407 -0.028367411 -0.06695056
0.090268224 0.059661813 -0.09267538 0.014453998 -0.027052203 -0.12493798 0.08449436 -0.09560399

actor.2.bias f4 [64]
00000000: 87eb 99bc 1daf f73b 5db6 eeba 0358 783c
00000010: 6c79 0dbc 279b 163c 9a7e 3ebc 1f3b 803c
00000020: f544 0ebc 8ff1 efba 754b 7abc 7acb 363c
00000030: 6205 833b a186 34bc f264 f43b b048 7d3c
00000040: 975c 1b3c 232a 6abc deff b2bc 9db7 b73b
00000050: e084 413c 5917 5abc d3bc efbb c530 973c
00000060: 449b 453c 4b93 50bb 476d 9939 29d3 ef39
00000070: e9da 2fbc b35b 113c dfc3 473c 6b6a 81bc
00000080: 90cc 3bbb b135 15bc 875a 8cbb ca9e 98bc
00000090: 583b 22bc 1ec5 57bc 9362 ae3c e809 d9bb
000000a0: ac64 4cbb 482d 02bc e2aa 0bbc 31f6 213c
000000b0: 10d1 a03b fb53 8d3c 7b6d 91b9 c1f1 8ebb
000000c0: 7f23 d93b 59e1 413c 5664 323c 18b6 02bc
000000d0: 2bde d9bb 40e5 163b 27d2 f339 1994 5f3a
000000e0: 0625 fd39 60bd d23b 6d59 afba 1229 81bc
000000f0: 0c9b 3ebb 05d1 3dbc c5db 383c c2c0 8abc
-0.018789066 0.007558717 -0.0018212307 0.015157702 -0.008634906 0.009192265 -0.011626864 0.015653191
-0.008683433 -0.0018306243 -0.015276779 0.011156911 0.0039984444 -0.011018426 0.0074583227 0.015459225
0.009482524 -0.014292273 -0.021850523 0.005606605 0.011811465 -0.013311231 -0.007316211 0.018455872
0.012060944 -0.0031826075 0.00029263852 0.0004574296 -0.010733345 0.00887196 0.012192695 -0.015797814
-0.0028655864 -0.009107039 -0.0042832526 -0.018630404 -0.009901844 -0.013169555 0.021287238 -0.0066234954
-0.0031187935 -0.007945366 -0.008524628 0.009885357 0.0049077347 0.01725196 -0.00027738124 -0.0043623154
0.006626546 0.011833512 0.01088818 -0.007977985 -0.006648799 0.0023024827 0.00046505147 0.0008528843
0.00048283505 0.0064312667 -0.0013378091 -0.015766654 -0.0029084114 -0.011585479 0.011282866 -0.016937617

actor.4.weight f4 [34, 64]
00000000: 8ba1 183e 22b6 7e3e cf88 483d 3abd 2b3d
00000010: 9883 77be 2c0a 4ebe 93df cc3e f208 ac3e
00000020: dc2f 57be 391b 0e3e 0899 41be a825 f53d
00000030: bf4f 32be 69db 92bd dcef ddbd f894 e13d
00000040: ee28 71be 87ea e03c ee3a 783d 7ccb 94be
00000050: ca03 b43e 17bf 363d b163 a13d 849d 60bd
00000060: a8a7 973d f1db dfbd 8f1a 39be 1935 683e
00000070: a918 81be 81e1 8c3e 10b2 b8bc 7f33 a13d
00000080: 9d00 143e fef7 de3d c7ac 963d f783 8c3e
00000090: c314 383e 2d1f 37bd b6ed 97be 6e14 4dbe
000000a0: 1b90 57be eb3b f3bd ee8e f9bd 403f 06bd
000000b0: 1f90 1fbe fb6a a83d 6eff afbd cf0d 68be
000000c0: 1596 883d 3f24 9f3e 6408 9d3d fc49 473e
000000d0: b06a a53d 39ae a13d 9df1 42be a990 0fbe
000000e0: c7d3 eebd 33e8 53be 42ae 88bd 57cd 4e3e
000000f0: fb0e 49be 6d39 42be 4dc8 69be 4f67 a43d
00000100: 55d3 f43d 98e1 893e 7fec d23d b4dc c6bc
00000110: 2883 27be bc45 b23d f633 59bd b4b2 9abe
00000120: 516e c7ba 4ac8 383d 20ab fbbd 6952 d1bd
00000130: ce85 453e a23d 393e 0b9e 673e d616 7abd
00000140: ab0e 44be ee37 b3be 6683 2bbe 3ce8 1cbe
00000150: 0617 e1be 9c37 83be ec58 0d3e d8ed 5fbe
00000160: 7510 b8bd 2be5 5bbe 6283 b1ba 2847 153e
00000170: c8bd 053d e2a3 863e 9eef d53d abe0 b1bd
00000180: ac42 c83e b3a5 12bd 6f11 5f3d eddf 55bd
00000190: 417b 80be c95a 6a3e 29c7 c9bd bd57 6abe
000001a0: 1ab9 e7bc 0608 90be ce20 0d3e 38e3 d4be
000001b0: d495 06be a585 6dbe 518a b6bc 4040 833d
000001c0: 64d4 32be 6143 d33d c2cc 43bd 15ce dd3d
000001d0: 1e50 19bd a7c1 593e 7017 703c 90db ab3d
000001e0: dddb 083e 7c78 323b b840 9d3d 7149 5dbe
000001f0: 66e6 b3be 1e6a 053d 3526 1dbc 2bd0 01be
00000200: 10b1 743e b4e7 3c3e 11ad be3d d304 92bd
00000210: 7b3f cd3e c371 6b3e 3eef 6f3e 0c4c 943d
00000220: ab78 ae3c a416 e9bd 6b06 043e 0c92 59be
00000230: bee7 963e aac5 cd3d c79b 093d 69d7 0e3e
00000240: d7d3 07bd 15e7 653e 4a4f 4b3e 0e33 723e
00000250: f6bb 213d c431 70be ba80 ea3d 56cd 0b3e
00000260: 660b 803e 1efa 54be bcc4 74be 492f d4bd
00000270: 466c 62bd 61b7 003d cae9 803d 2821 16be
00000280: a6cb dbbc c8bf 0b3c ddb1 873e 0b61 cf3d
00000290: 6732 1abd cba3 983d 9724 c43d 586e dabd
000002a0: d504 bebe 0dea 6aba 2769 86bc a372 3fbd
000002b0: c0ea 88bd 2969 9dbe d476 633e add9 6a3d
000002c0: e79f 6b3e a027 a4be a766 da3d f277 f53d
000002d0: be6b 61bd 4597 d6be b62f 373e 18f8 2b3e
000002e0: 5ff3 d03d 24cc 63be 5793 3abe b568 4b3e
000002f0: 4afa 40be 02fe e63d 09d1 d9bd a7f1 ac3d
00000300: 5df6 ed3d eeb2 09be bceb 6dbb 2518 a2bc
00000310: 5068 62bd ffe2 973d 32af 35be 3269 0b3e
00000320: c8d3 01be fe71 68be fde1 253e 6aa8 04be
00000330: 4704 133d 0ba6 7d3d 5338 38be b16e 513e
00000340: ed59 a7bd 439f 803c ebc5 1bbe a7b4 11bd
00000350: 8447 11be f6ba f2bd 78bb f63d 9a54 eb3c
00000360: ddab b4bd 91cd 193e f2f7 81bd 332a ac3e
00000370: b16f 89be 44b2 28bc 8075 e4be 1b46 54bd
00000380: 3a76 6cbe 8937 a13e f45f 193d 8b62 23bd
00000390: 33d4 b4be 344f 8ebb 8cdb f3bb e807 c83e
000003a0: 380e 9fbe f822 8dbe e04b 8cbd 6d5f 843b
000003b0: 1515 4cbc d667 22be fcec 0abe f84c 5b3d
000003c0: 415d 293e c5a8 b2bd 4158 2ebe 9a40 87be
000003d0: 0204 813e 60ac 6a3e f45c a43d b11f b5bd
000003e0: 08f0 993c 9953 cf3d b828 5d3e 1a86 f7bd
000003f0: 9463 463e f026 d6bd d918 b9be ef98 683e
0.14905374 0.24874166 0.048958596 0.041928507 -0.24171293 -0.20121068 0.40014324 0.33600575
-0.2101435 0.13877572 -0.18906033 0.11970073 -0.17413233 -0.071707554 -0.10836765 0.11014742
-0.2355077 0.027455581 0.060603075 -0.29061496 0.3515914 0.04461583 0.07880343 -0.05483772
0.07405025 -0.10930622 -0.18076538 0.22676505 -0.25214127 0.27515796 -0.022545844 0.0787115
0.14453359 0.108871445 0.073571734 0.2744443 0.1797667 -0.044707466 -0.29673547 -0.20027325
-0.21051066 -0.11876663 -0.12185465 -0.032775164 -0.15582322 0.0822353 -0.08593641 -0.22661518
0.06669251 0.3108234 0.07667616 0.19461817 0.0807699 0.078945585 -0.1903748 -0.14020027
-0.11661487 -0.20694046 -0.06673862 0.20195518 -0.19634621 -0.18967219 -0.22830315 0.08027517
0.11954371 0.26929927 0.10299014 -0.024275161 -0.16358626 0.08704707 -0.05302807 -0.30214465
-0.0015215372 0.045112886 -0.12288499 -0.102207966 0.19289324 0.18089917 0.22618882 -0.061056934
-0.1914622 -0.35003608 -0.16749343 -0.15322965 -0.43962878 -0.25628364 0.13803452 -0.21868074
-0.08987514 -0.2147414 -0.0013543183 0.14577925 0.032651693 0.26296908 0.10446094 -0.0868543
0.39113367 -0.035802554 0.054459985 -0.052215505 -0.25094035 0.22886194 -0.0985244 -0.22885032
-0.028286505 -0.2813112 0.13782045 -0.41579604 -0.13143092 -0.23195513 -0.022282751 0.06408739
-0.17463833 0.10315586 -0.047802694 0.10830323 -0.03742992 0.21265279 0.014654025 0.083914876
0.13365121 0.0027232459 0.0767836 -0.21610047 -0.35136718 0.032571904 -0.009591629 -0.12677066
0.23895669 0.18447763 0.093103535 -0.071298264 0.40087494 0.22992615 0.23431107 0.07241067
0.021297773 -0.113812715 0.12893073 -0.21247119 0.2947368 0.10047467 0.033595826 0.1394936
-0.03316101 0.22451432 0.19854465 0.23652288 0.039485894 -0.23456484 0.11450334 0.13652548
0.25008696 -0.20798537 -0.23903173 -0.103605814 -0.05527904 0.031424884 0.06294592 -0.14661086
-0.026830506 0.008529611 0.26502886 0.10125931 -0.037645724 0.07453116 0.095772915 -0.10665578
-0.37113062 -0.0008961268 -0.016407562 -0.046740185 -0.066854 -0.30744293 0.22213298 0.057336498
0.23010217 -0.3206148 0.10664111 0.119857684 -0.05503439 -0.41912284 0.17889294 0.16793859
0.10202669 -0.22245842 -0.18220268 0.19864161 -0.18845478 0.11278917 -0.106355734 0.08444529
0.11619256 -0.13447163 -0.0036303839 -0.019786904 -0.05527526 0.07416343 -0.17742613 0.13614348
-0.12678444 -0.22699735 0.16199489 -0.1295487 0.03589275 0.06192593 -0.17990236 0.20452382
-0.08171449 0.015700942 -0.15212218 -0.035572674 -0.14187437 -0.11852066 0.120474756 0.028726865
-0.08821843 0.15019824 -0.0634612 0.33625945 -0.26843026 -0.010296408 -0.44620895 -0.05182467
-0.23091975 0.31487682 0.037445024 -0.0398889 -0.35318145 -0.004342938 -0.0074419435 0.39068532
-0.31065536 -0.27565742 -0.068504095 0.004039696 -0.012456198 -0.15859923 -0.13566965 0.0535402
0.1653948 -0.087235965 -0.17025854 -0.26416475 0.2519837 0.22917318 0.08025542 -0.08843935
0.018791214 0.10123367 0.21597564 -0.12086125 0.19373924 -0.104566455 -0.3615177 0.2271459

actor.4.bias f4 [34]
00000000: a5f8 20bd f49c 1cbd 5b2a 76bc e746 1fbc
00000010: 9f13 20bd 0921 12bd 1a8b 00bd bd2a 0cbd
00000020: 7d83 e6bc d633 f9bb f151 823b 451f c4bc
00000030: 1ade 0bbd b1fc 38bc 2e2e c2bc c19f dabc
00000040: 89b6 d6bc a7a9 25bd 36e0 d2bc 6c13 e1bc
00000050: 3bfa f6bc 141d 0abd 3864 e1bc ab0c 87bc
00000060: 1e00 83bc f155 ef3c 022a 9dbc a3e9 2ebc
00000070: 4bf1 debc 0a6d 02bd c739 06bd 0820 07bd
00000080: fb14 94bc b921 05bd
-0.039299626 -0.03823562 -0.015024747 -0.009721494 -0.039081212 -0.035676036 -0.031382658 -0.034220446
-0.02813887 -0.0076050563 0.0039770533 -0.023940692 -0.03414736 -0.011290715 -0.02370366 -0.026687505
-0.026210086 -0.040444996 -0.025741678 -0.027475081 -0.030148616 -0.033719137 -0.027513608 -0.016485533
-0.015991267 0.029215785 -0.01918507 -0.0106758205 -0.027214667 -0.03184227 -0.032769945 -0.03298953
-0.01807641 -0.032502864
