Tetris-PPO/trained/PPO/tetris_6/stage2.pth (torch, 183709 bytes, 15 tensors)

critic.0.weight f4 [64, 200]
0	0xbd65898a	-0.05603937
1	0x3dbbcda2	0.09170081
2	0xbb58f7be	-0.003310665
3	0x3d877604	0.066143066
4	0xbbb7fa91	-0.0056145866
5	0xbe0129c0	-0.12613583
6	0x3d0b2f99	0.03398094
7	0x39a2eab8	0.00031073927
8	0x3e7db12d	0.24774618
9	0xbe1f2f4a	-0.15545383
10	0x3db2aa26	0.087238595
11	0xbd458e1f	-0.04823124
12	0xbd03ec29	-0.03220764
13	0xbe3b5fb4	-0.18298227
14	0xbcbbd334	-0.022927858
15	0xbe1f3550	-0.15547681
16	0xbdeda7b7	-0.11604255
17	0xbd48de1b	-0.04903994
18	0x3c115f18	0.00887277
19	0xbd8734fd	-0.066019036
20	0x3e06730a	0.13129821
21	0xbd9a0a70	-0.07521522
22	0xbe981c41	-0.29709056
23	0x3c53639e	0.012902169
24	0xbba36880	-0.0049868226
25	0xbda2a8df	-0.07942366
26	0xbd9fab81	-0.07796384
27	0xbe38ea48	-0.18058121
28	0x3c56ffab	0.013122479
29	0xbe0d238b	-0.1378309
30	0xbd990f47	-0.07473617
31	0xbd9f454f	-0.077768914
32	0xbe20fa73	-0.15720539
33	0x3e6a77f6	0.22897324
34	0x3dbf366a	0.093365505
35	0x3d9be839	0.07612652
36	0xbcf56ace	-0.029958155
37	0xbe5062d4	-0.203502
38	0xbaa1c5c9	-0.001234227
39	0x3e2d6575	0.16933234
40	0xbd14326a	-0.03618089
41	0xbe52d1af	-0.205878
42	0x3d60ce43	0.054884207
43	0xbdb7be73	-0.08971872
44	0x3dd35a13	0.10319915
45	0xbe106b2c	-0.14103383
46	0x3d56097a	0.05225513
47	0xbd116fe0	-0.035507083
48	0xbe52e1cf	-0.20593952
49	0xbb4f6091	-0.0031643251
50	0xbd2aab80	-0.04166746
51	0x3d83913e	0.06424187
52	0x3d245b51	0.04012615
53	0xbba77623	-0.0051105185
54	0xbd40f83d	-0.04711174
55	0xbb849d22	-0.004047052
56	0x3d538cc4	0.051647916
57	0x3ca947ef	0.020664183
58	0xbccbff5f	-0.024902044
59	0xbc92343b	-0.017847171
60	0xbd9dc13c	-0.07702872
61	0xbd5b0606	-0.05347254
62	0xbe1084a9	-0.14113106
63	0x3dbfa181	0.09356976
64	0xbe52cddb	-0.2058634
65	0x3d26620a	0.04062084
66	0xbce83445	-0.028345237
67	0x3c651d15	0.0139839845
68	0xbd87c51c	-0.066293925
69	0x3ca1681d	0.019702965
70	0xbd51014e	-0.051026635
71	0xbe15c870	-0.14627242
72	0xbcc102e2	-0.023560945
73	0x3e0e2d4c	0.13884467
74	0x3b601835	0.0034194116
75	0xbe49a2e8	-0.1969105
76	0x3d82a039	0.06378216
77	0xbc98470b	-0.018588563
78	0xbd4dd99a	-0.05025635
79	0xbd537519	-0.051625345
80	0x3d93d9c6	0.07219271
81	0x3dfe05cc	0.124034494
82	0x3de8d973	0.113696
83	0x3d8b26d7	0.067945175
84	0x3d9bffa0	0.07617116
85	0x3dbe0093	0.09277453
86	0x3dc8cec7	0.09805065
87	0xbda276e4	-0.07932833
88	0x3de96c8f	0.11397659
89	0x3e1b3f8f	0.15160964
90	0xbd7880e7	-0.060669806
91	0x3ca5b1f7	0.020226462
92	0x3e3bafff	0.18328856
93	0xbda44ca7	-0.08022433
94	0xbd5aae4f	-0.05338889
95	0x3cd2b24b	0.025719782
96	0xbdbb5461	-0.091469534
97	0xbdb6e851	-0.089310296
98	0x3aa0757f	0.0012242048
99	0x3cf795cc	0.030222796
100	0xbcc39058	-0.02387254
101	0xbd87ecb0	-0.066369414
102	0xbd48848f	-0.048954543
103	0xbdd341cd	-0.10315285
104	0x3d1cfe1e	0.038328283
105	0x3e0c87fc	0.13723749
106	0x3bcb7675	0.0062091895
107	0xbe445090	-0.19171357
108	0x3d56ecfd	0.052472103
109	0x3e0fc74e	0.14040872
110	0x3cd42686	0.025897276
111	0xbe1ed075	-0.15509208
112	0xbd9727d6	-0.07380645
113	0x3dc3309f	0.09530758
114	0xbcc4f210	-0.024041206
115	0xbc862a15	-0.016377488
116	0x3daab87d	0.083359696
117	0x3d7285b3	0.059209537
118	0xbd3ff7ae	-0.046867065
119	0xbc6746fd	-0.014116046
120	0xbe42cb80	-0.19022942
121	0x3e0b394b	0.13596074
122	0xbd8af08c	-0.06784162
123	0x3e0bcf51	0.13653304
124	0xbd0def34	-0.03465195
125	0xbc4e40e7	-0.012588716
126	0xbd109982	-0.035302646
127	0xbc9e6ee1	-0.01933998
128	0xbd491912	-0.049096175
129	0xbd635017	-0.0554963
130	0xbd987b76	-0.07445423
131	0x3e1ac87a	0.15115538
132	0x3da7c811	0.081924565
133	0x3c3764fc	0.01119351
134	0x3dad74e4	0.08469561
135	0xbe25a7ac	-0.16177243
136	0xbc088c69	-0.008334258
137	0x3d8b257b	0.06794258
138	0xb9f5cad9	-0.00046881175
139	0x3e041311	0.12897898
140	0x3bfecfee	0.007776252
141	0xbccc0712	-0.024905715
142	0xbe49084f	-0.19632076
143	0xbbff384e	-0.0077886945
144	0xbe5a8249	-0.21338762
145	0x3d54de36	0.05196973
146	0xbda7b9df	-0.08189749
147	0xbd970699	-0.07374305
148	0xbd9b1007	-0.07571416
149	0x3dcb58d0	0.09929049
150	0xbe011953	-0.12607317
151	0xbbd69ad6	-0.0065492196
152	0xbe86d50c	-0.26334417
153	0xbd9fe241	-0.078068264
154	0xbd873904	-0.06602672
155	0x3e1b8f5c	0.15191406
156	0x3d29d52b	0.04146306
157	0xbd244d6f	-0.04011291
158	0xbe294f7e	-0.1653423
159	0xbcc1ee2d	-0.023673141
160	0xbe2082ff	-0.15674971
161	0x3b93403b	0.004493741
162	0xbd40ad53	-0.047040295
163	0x3ded92af	0.11600243
164	0x3d876e02	0.06612779
165	0xbe0a4317	-0.13502155
166	0x3e513ae5	0.20432623
167	0xbd990466	-0.07471542
168	0x3dd8976d	0.10575757
169	0xbd8f5bbe	-0.0699992
170	0xbe04c310	-0.12965035
171	0xbd8f3f8c	-0.069945425
172	0x3e1b2e70	0.15154433
173	0xbdbb1105	-0.091341056
174	0x3d7b453b	0.06134532
175	0xbdc64914	-0.09681907
176	0x3cbd70ad	0.023125017
177	0xbe0fd096	-0.14044413
178	0xbdda5762	-0.10661198
179	0xbda63854	-0.081162125
180	0xbd9144a5	-0.07093171
181	0x3c1412a7	0.00903765
182	0x3d33202d	0.043731857
183	0x3de9fa79	0.11424727
184	0x3c9ff6c6	0.01952685
185	0xbc63f5f4	-0.01391362
186	0x3d248d21	0.040173654
187	0xbd1696df	-0.036764976
188	0xbdd05840	-0.10173082
189	0x3e10c766	0.14138564
190	0xbe145b1a	-0.14487877
191	0xbe5d7390	-0.21626115
192	0xbd813d47	-0.06310516
193	0xbd63fe50	-0.055662453
194	0x3d187d97	0.037229147
195	0x3c564a82	0.0130792875
196	0xbe0badbf	-0.13640498
197	0xbc9101f7	-0.017701132
198	0xbd0f84cd	-0.035038758
199	0xbd708e91	-0.058729712
200	0xbc9378e1	-0.018001975
201	0xbd87d159	-0.06631727
202	0xbdb64602	-0.08900072
203	0xbd93c8d3	-0.072160386
204	0xbd3559d4	-0.04427512
205	0xbdd5717d	-0.10422037
206	0xbd78c78a	-0.06073717
207	0xbe0e031b	-0.13868372
208	0x3da15c4a	0.07878931
209	0xbe65416f	-0.22388242
210	0xbe0cb437	-0.13740622
211	0x3e49bd51	0.19701125
212	0x3d25a309	0.040438686
213	0x3d3c5709	0.04598144
214	0xbd4a7e79	-0.04943702
215	0xbd668863	-0.056282412
216	0xbda7b11a	-0.08188076
217	0x3dc54bff	0.09633636
218	0xbd83b8d3	-0.06431737
219	0xbbe80dfc	-0.007081745
220	0x3e10b1df	0.14130352
221	0x3bb08d67	0.00538795
222	0x3babaaa8	0.0052388497
223	0x3e688c5c	0.22709793
224	0x3da2b13a	0.079439595
225	0xbe1268b1	-0.14297749
226	0x3e08411e	0.1330609
227	0xbdd0dd93	-0.10198512
228	0x3e1293de	0.1431422
229	0x3cd553f4	0.026041009
230	0xbd9c2206	-0.07623677
231	0xbd0e3d03	-0.034726154
232	0xbb46159c	-0.0030225283
233	0x3d8721e5	0.06598262
234	0x3cf2e9d6	0.029652517
235	0xbcbac5dd	-0.022799427
236	0xbdd29795	-0.10282818
237	0xbd49e5d0	-0.049291432
238	0xbddde31e	-0.10834335
239	0x3e331995	0.17490228
240	0x3e2bd00d	0.16778584
241	0xbd4140fc	-0.047181115
242	0xbd479cdf	-0.04873359
243	0x3d516a63	0.05112685
244	0x3e0ce89d	0.1376061
245	0xbdd65edb	-0.10467311
246	0x3c722cdb	0.014781202
247	0xbe45b28a	-0.19306388
248	0xbdf927cd	-0.121657945
249	0xb94c005d	-0.00019455091
250	0x3e1f3a61	0.15549614
251	0xbcf4eacd	-0.029897118
252	0xbdd02842	-0.101639286
253	0x3da0ceab	0.07851919
254	0x3cd3c4cf	0.025850682
255	0x3c819c95	0.015821734

critic.0.bias f4 [64]
0	0xbd2bb161	-0.04191721
1	0xbd4fa34e	-0.05069285
2	0xbd699c11	-0.057033602
3	0x3d3ebedb	0.046568733
4	0xbd33405d	-0.043762553
5	0x3d23c6b1	0.03998441
6	0xbd37fe16	-0.04492005
7	0xbd27d917	-0.040978517
8	0x3cbda723	0.023150986
9	0x3d4e01f5	0.050294835
10	0x3d3ef3f4	0.04661937
11	0x3d43baa3	0.047785413
12	0x3d39b14b	0.045335095
13	0xbd4dcb54	-0.050242737
14	0x3d2aec03	0.041728985
15	0xbcb15bbc	-0.021650188
16	0xbd3ad511	-0.045613352
17	0xbd3b2d37	-0.045697417
18	0x3d2e1793	0.04250295
19	0x3d1c4984	0.038156047
20	0xbd517556	-0.05113729
21	0xbd355580	-0.044270992
22	0x3cbe4667	0.02322693
23	0xbd24eeb3	-0.040266704
24	0x3d441dff	0.04788017
25	0x3d40cfe2	0.047073252
26	0x3cb98938	0.022648439
27	0x3d304675	0.043035943
28	0x3d5fc238	0.05462858
29	0xbd2b7a6e	-0.041864805
30	0xbd3ec3d3	-0.04657347
31	0x3d4b7a97	0.049677458
32	0xbcff1422	-0.03113753
33	0xbd28acd7	-0.041180458
34	0xbd352f82	-0.04423476
35	0xbd1fcf93	-0.039016318
36	0xbd51410c	-0.051087424
37	0x3a638e8d	0.00086806045
38	0xbd49e4b6	-0.04929038
39	0x3d269e93	0.040678572
40	0x3c1b6083	0.009483459
41	0x3d327df2	0.043577142
42	0x3d539a38	0.051660746
43	0xbd32901b	-0.04359446
44	0xbd504a16	-0.050851904
45	0xbd287497	-0.041126814
46	0x3d4d1919	0.050072763
47	0x3ceae355	0.028672853
48	0x3d472cd7	0.048626747
49	0xbd3ca62c	-0.04605691
50	0x3d4471f2	0.04796023
51	0x3d521ef2	0.051299043
52	0x3d31df7a	0.043426014
53	0x3d542897	0.051796522
54	0xbd567e1c	-0.05236636
55	0xbd0ced92	-0.034406252
56	0x3d516cd3	0.051129173
57	0xbd2a7830	-0.041618526
58	0x3d4c0574	0.049809888
59	0x3d4c4be3	0.04987706
60	0x3d4c343c	0.049854502
61	0x3d2cc6c2	0.042181738
62	0x3d262660	0.04056394
63	0xbd5ad71c	-0.0534278

critic.2.weight f4 [64, 64]
0	0x3e19f0a2	0.150332
1	0x3e8360e6	0.25659865
2	0xbd809869	-0.0627907
3	0x3ba3d73b	0.0050000227
4	0x3d549d10	0.0519076
5	0x3cda9075	0.02668021
6	0xbc8cf564	-0.017206855
7	0xbeaa1b10	-0.33223772
8	0xbc9c25b9	-0.019060956
9	0xbd177d54	-0.036984757
10	0x3e477076	0.19476494
11	0xbe07c51e	-0.13258788
12	0x3c282ab7	0.01026409
13	0xbe10c272	-0.14136675
14	0x3d6b9ce0	0.057522655
15	0x3dbf218d	0.09332571
16	0x3e36609f	0.17810296
17	0xbc1b9000	-0.0094947815
18	0xbeb4ed6a	-0.35337383
19	0x3e3c6ff1	0.18402077
20	0xbddde921	-0.108354814
21	0x3ce072af	0.027398435
22	0x3e6d3b73	0.2316721
23	0x3d4bdc23	0.049770486
24	0xbe31d961	-0.1736808
25	0xbeab50f3	-0.33460197
26	0x3eb2d7fb	0.34930405
27	0xbe1148af	-0.14187883
28	0xbe0ca68f	-0.13735412
29	0xbdb1e624	-0.08686474
30	0x3c3deaf8	0.011591665
31	0x3d566efd	0.05235194
32	0xbdc9d6f3	-0.098554514
33	0x3ea91c1b	0.33029255
34	0x3e8623b7	0.26199123
35	0x3e5ecac6	0.2175704
36	0x3e1b7881	0.15182687
37	0xbc151cda	-0.009101117
38	0x3e7b8182	0.24561122
39	0xbd760d94	-0.060071543
40	0x3dcda6e8	0.100416005
41	0xbc193e37	-0.009353212
42	0xbedbfaac	-0.42964685
43	0x3eaa7993	0.3329588
44	0xbe08007f	-0.13281439
45	0x3d91ff38	0.07128757
46	0x3d2714e8	0.040791422
47	0xbe63889d	-0.22220083
48	0xbd0bae6d	-0.034101892
49	0x3ea57eae	0.3232321
50	0x3d3b8dfa	0.045789696
51	0xbe54e2ce	-0.20789644
52	0xbd06cd9f	-0.03291094
53	0x3e6aa692	0.22915104
54	0x3d042fe9	0.032272253
55	0x3d061622	0.03273595
56	0xbdfd2dfe	-0.12362288
57	0xbd3b6e5b	-0.04575954
58	0x3cc94d40	0.024572968
59	0x3ebb4ed4	0.3658358
60	0x3d24fb95	0.04027899
61	0xbe1c5947	-0.15268432
62	0xbd9c2616	-0.07624452
63	0xbea4ff8b	-0.32226214
64	0x3e5e0b53	0.21684007
65	0x3e28cbdb	0.16484015
66	0x3e7bcb3b	0.24589245
67	0xbde4c0a8	-0.11169559
68	0x3b9f6c54	0.0048652086
69	0xbdf8897d	-0.12135599
70	0x3ef7de32	0.4841171
71	0x3dbc1866	0.09184341
72	0x3e3781b8	0.17920578
73	0xbdce48ac	-0.10072455
74	0x3dd008db	0.10157939
75	0x3de124e4	0.109933645
76	0xbda3e47f	-0.080025665
77	0x3de4635f	0.11151766
78	0xbde5ab0c	-0.11214265
79	0x3ddf1c93	0.10894122
80	0xbe0e6d1a	-0.13908806
81	0x3de04a55	0.10951678
82	0xbd56e2ff	-0.052462574
83	0xbe434dc2	-0.19072631
84	0x3e7ccc95	0.24687417
85	0x3e339cdb	0.17540304
86	0x3a9a5f44	0.0011777659
87	0xbe50439c	-0.20338291
88	0xbe83f29b	-0.2577103
89	0xbc278fd2	-0.0102271605
90	0x3e20b05a	0.15692273
91	0x3e9c9d68	0.3058884
92	0xbde241b8	-0.11047691
93	0xbdf4f00a	-0.11959846
94	0x3e81095b	0.2520245
95	0x3d4726e1	0.048621062
96	0x3e4fb3a8	0.20283377
97	0x3ce0336e	0.027368274
98	0x3c3c03d0	0.011475518
99	0x3e2adfef	0.16686986
100	0x3e0f3a3f	0.13987063
101	0xbca017a7	-0.019542528
102	0xbe6e9748	-0.23299897
103	0xbecbdc93	-0.39816722
104	0x3e21349c	0.15742725
105	0xbe9e63dc	-0.30935562
106	0xbe4df561	-0.20113136
107	0x3d8bfcee	0.06835352
108	0x3dd5ffcd	0.10449181
109	0xbe87df23	-0.26537427
110	0xbe7ec95b	-0.24881499
111	0x3e77aac1	0.24186231
112	0xbe4b2b05	-0.1984063
113	0x3e416432	0.18885878
114	0xbe7e4c74	-0.24833852
115	0x3d90c12f	0.07068097
116	0xbd0fdc88	-0.035122424
117	0x3e0d101f	0.13775681
118	0x3d729de5	0.05923261
119	0xbd86a748	-0.06574875
120	0xbc5a3a79	-0.013319605
121	0xbe6ca393	-0.23109274
122	0x3e01c89d	0.12674184
123	0xbcb7f4bd	-0.022455567
124	0x3e45d92f	0.1932113
125	0x3e494236	0.19654164
126	0x3d992f4a	0.07479723
127	0x3e2a8fa3	0.16656356
128	0x3e18a2e4	0.14905888
129	0x3d460269	0.048342142
130	0x3de6f214	0.112766415
131	0x3e626dae	0.22112152
132	0xbd975bfe	-0.07390593
133	0x3d263348	0.04057625
134	0xbdf51a61	-0.11967922
135	0xbce4333d	-0.027856464
136	0x3e2f56cd	0.17122956
137	0xbd259d50	-0.040433228
138	0xbe4dbff5	-0.20092757
139	0xbe74d06d	-0.23907633
140	0xbeb2a064	-0.34887993
141	0x3d958fdb	0.07302829
142	0xbe332176	-0.17493233
143	0xbe2bb713	-0.16769056
144	0x3e670fb8	0.2256459
145	0x3e610562	0.2197471
146	0x3e5570d8	0.20843828
147	0xbe87cef5	-0.26525083
148	0x3e1a111f	0.15045594
149	0x3d677644	0.05650927
150	0x3ed63fbe	0.41845506
151	0xbc8e6de5	-0.017386386
152	0xbe43ab6b	-0.1910836
153	0xbeca52e7	-0.39516374
154	0xbe27d089	-0.16388144
155	0xbdc0d1ac	-0.09414992
156	0x3c6fc7d6	0.014635047
157	0x3c3597a8	0.011083521
158	0xbd8c2e23	-0.068447374
159	0xbe8dd790	-0.27703524
160	0xbe218745	-0.15774257
161	0xbd64d854	-0.05587037
162	0xbadfe347	-0.0017081284
163	0x3e0fb00f	0.14032005
164	0xbd204114	-0.039124563
165	0x3bd6b194	0.0065519307
166	0x3d7a45f4	0.06110187
167	0x3df3f1a0	0.11911321
168	0x3bdc7aa6	0.006728488
169	0x3e7bd063	0.24591212
170	0xbdbb6ab9	-0.09151215
171	0x3e206bc4	0.1566611
172	0x3e1d0613	0.15334348
173	0xbf035d26	-0.5131401
174	0x3eb0353e	0.3441562
175	0xbde01b5d	-0.10942719
176	0xbe2ffe55	-0.17186864
177	0x3deb8063	0.11499097
178	0xbea5384a	-0.32269508
179	0x3d8ef518	0.06980342
180	0xbdf67f7d	-0.12036035
181	0xbd016637	-0.03159162
182	0x3e69f3e1	0.22846939
183	0x3bb247c4	0.005440684
184	0x3da1845c	0.07886574
185	0x3dce6876	0.10078518
186	0xbe7f9946	-0.24960813
187	0xbc97ca54	-0.018529095
188	0xbd396668	-0.045263678
189	0x3d23da69	0.040003214
190	0x3d5a6c30	0.053325832
191	0x3e246f45	0.16058071
192	0xbe67ad83	-0.22624783
193	0x3e5c743c	0.21528715
194	0xbe15445e	-0.14576861
195	0xbe58845f	-0.21144246
196	0x3e4ad73a	0.19808665
197	0xbe86c90e	-0.26325268
198	0xbddd7baf	-0.108146064
199	0x3d687745	0.05675437
200	0xbdcc9d6b	-0.099909626
201	0x3ec88ade	0.39168447
202	0xbe5035b4	-0.20332986
203	0xbce0b004	-0.02742768
204	0x3df95f7b	0.121764146
205	0x3e0f4845	0.13992412
206	0xbeb783d6	-0.3584277
207	0xbdbe293b	-0.09285208
208	0x3e94c565	0.2905685
209	0xbd026914	-0.03183849
210	0xbe46f0a6	-0.19427738
211	0x3a4f4594	0.0007906791
212	0x3e518eba	0.20464602
213	0x3cd32e1b	0.02577882
214	0x3de1d10e	0.11026202
215	0x3bf5b464	0.007498311
216	0xbb1af270	-0.002364304
217	0x3ea24cf8	0.31699347
218	0x3d61ba99	0.055109594
219	0xbcd3e5f0	-0.025866479
220	0x3e4951ba	0.19660082
221	0xbd85412f	-0.065065734
222	0x3d356017	0.04428109
223	0xbe33ead2	-0.17570046
224	0x3c79e8aa	0.015253225
225	0x3d05b61c	0.032644376
226	0x3e07d057	0.13263069
227	0x3e916aa7	0.28401682
228	0xbe3c35c6	-0.18379888
229	0x3e153c8c	0.14573878
230	0x3d38b36c	0.045092985
231	0xbe4751ab	-0.19464748
232	0x3db73ead	0.08947501
233	0xbe7a9174	-0.24469548
234	0xbc6e12ff	-0.014530896
235	0xbe03de2f	-0.12877725
236	0x3e842d37	0.25815746
237	0x3e9055b0	0.28190374
238	0x3ecbdc94	0.39816725
239	0xbe1fb614	-0.15596801
240	0xbe7a755f	-0.24458836
241	0x3eb520d6	0.35376614
242	0x3c92456e	0.017855372
243	0xbce2831e	-0.027650412
244	0xbe950d1e	-0.2911157
245	0x3d89ac07	0.06722265
246	0x3e690961	0.22757484
247	0xbd9ebe6b	-0.07751163
248	0xbe0be602	-0.1366196
249	0xbbf0423f	-0.007332116
250	0x3d076292	0.03305299
251	0xbe8ab542	-0.27091414
252	0xbcaa5b9d	-0.020795638
253	0x3d359792	0.044334
254	0x3d1b09cc	0.03785114
255	0x3d0cc001	0.034362797

critic.2.bias f4 [64]
0	0xbd25ae95	-0.040449698
1	0xbd2f007b	-0.042725068
2	0xbd3093ff	-0.04310989
3	0xbd1e1d58	-0.038602203
4	0xbd0b751e	-0.03404724
5	0x3d1d295e	0.03836953
6	0xbd2fbf3e	-0.042906992
7	0x3d201d3a	0.039090373
8	0x3cea80d7	0.028625889
9	0x3d2dd43b	0.042438727
10	0xbd125445	-0.035724897
11	0xbd285593	-0.041097235
12	0x3d1c9142	0.038224466
13	0x3d153798	0.03642997
14	0xbd072f29	-0.03300396
15	0x3d288f26	0.041152142
16	0x3d29998c	0.0414062
17	0x3d266972	0.040627904
18	0x3cdf45ad	0.027254904
19	0x3d0cf45b	0.034412723
20	0xbcd18667	-0.025576783
21	0x3d275cd9	0.04086003
22	0x3d1a4083	0.03765918
23	0x3d14acf7	0.036297765
24	0x3cc084d3	0.023500836
25	0xbd1d8f50	-0.03846675
26	0x3d0e3ae4	0.03472413
27	0xbd01dda7	-0.031705525
28	0x3d34c802	0.044136055
29	0x3d00a00e	0.03140264
30	0xbd233f66	-0.039855383
31	0x3cf151a5	0.029457876
32	0xbd16e2fd	-0.036837567
33	0x3ce8575f	0.028361974
34	0xbd12b813	-0.035820078
35	0x3d3261fb	0.043550473
36	0xbd23286d	-0.039833475
37	0xbd24de8f	-0.04025131
38	0xbd44a463	-0.048008334
39	0xbced1f4c	-0.028945588
40	0x3d14d311	0.0363341
41	0xbd1f2209	-0.038850818
42	0xbd08a134	-0.03335686
43	0x3c210e69	0.009830096
44	0x3d21128d	0.039324332
45	0x3d21fee9	0.039549742
46	0x3d28076b	0.0410227
47	0xbcda4053	-0.026642
48	0xbd0ce2c6	-0.034395956
49	0x3d0aff6f	0.033935007
50	0xbcf01740	-0.029307961
51	0xbd032d7d	-0.032025803
52	0x3d291152	0.041276284
53	0xbcffffb9	-0.031249868
54	0x3d3f4c8e	0.046703868
55	0x3d396594	0.045262888
56	0x3d0404c8	0.032231122
57	0xbd0176bd	-0.03160738
58	0xbccbbc05	-0.024869928
59	0xbcd1d3f6	-0.025613766
60	0x3d106ad7	0.03525814
61	0x3d125b91	0.035731856
62	0xbd1d320d	-0.03837781
63	0x3d32f00d	0.04368596

critic.4.weight f4 [64, 64]
0	0xbe57f321	-0.2108884
1	0x3de0c1f0	0.10974491
2	0xbdacf3c1	-0.0844493
3	0xbe89c537	-0.26908275
4	0xbe706610	-0.23476434
5	0x3d1fc8f3	0.03901
6	0x3ba66d0d	0.005078918
7	0x3dd383e4	0.103278905
8	0x3e2b86c6	0.1675063
9	0x3ea29635	0.31755224
10	0x3d703ffd	0.058654774
11	0xbe1b81ad	-0.15186186
12	0x3e0e0ff8	0.13873279
13	0x3ebe47f5	0.37164274
14	0x3e4726d8	0.19448411
15	0x3de4eb49	0.111776896
16	0x3c81034a	0.015748639
17	0x3e45bff5	0.19311507
18	0xbe054d7f	-0.13017844
19	0x3e15849f	0.14601372
20	0xbebf60c8	-0.37378526
21	0x3e1b34cf	0.15156864
22	0xbd2d3a73	-0.04229207
23	0x3e03e021	0.12878467
24	0x3e35aa14	0.17740661
25	0x3ca15c50	0.019697338
26	0x3e57dd99	0.21080627
27	0x3de4192a	0.11137612
28	0x3d6f1879	0.05837295
29	0x3e792709	0.24331297
30	0x3e2c8830	0.16848826
31	0xbdfc36ce	-0.12315141
32	0xbda11ca9	-0.078667946
33	0x3e89df31	0.26928094
34	0x3db8135f	0.0898807
35	0x3db9d627	0.090740494
36	0x3ce6325a	0.028100181
37	0xbc62c581	-0.013841034
38	0xbd8eef92	-0.06979288
39	0x3d2faf3e	0.042891733
40	0xbe003589	-0.12520422
41	0x3e39f129	0.18158402
42	0xbd48cdb8	-0.049024314
43	0x3cda99c3	0.026684647
44	0xbc81610f	-0.015793351
45	0x3e1134d2	0.14180306
46	0x3e277455	0.16352971
47	0x3e112917	0.14175831
48	0xbdebf2a9	-0.11520893
49	0xbe236a40	-0.159585
50	0xbd9153b8	-0.07096046
51	0xbec0453e	-0.37552828
52	0xb9e18336	-0.00043013104
53	0x3e8094ea	0.25113612
54	0x3ebaf603	0.36515817
55	0x3e19db55	0.15025075
56	0xbdd01848	-0.10160881
57	0x3df851e6	0.12124996
58	0xbeaf3c35	-0.34225622
59	0xbe48d3fa	-0.19612113
60	0x3d3b23ae	0.045688324
61	0x3e320b9f	0.17387246
62	0x3d047002	0.03233338
63	0x3f11b658	0.5691886
64	0xbe4cec0e	-0.20011923
65	0xbe60785a	-0.2192091
66	0xbe2c7b23	-0.16843848
67	0xbd3fc43b	-0.046818
68	0xbe80f348	-0.2518561
69	0x3e00a785	0.12563904
70	0xbd13c0ab	-0.036072414
71	0xbe26029f	-0.16211937
72	0xbad4077e	-0.0016176549
73	0xbd1f49b4	-0.03888865
74	0xbe645523	-0.22298102
75	0xbd74fead	-0.05981319
76	0x3d517c53	0.051143955
77	0xbd386d12	-0.045025893
78	0xbee307a8	-0.4434178
79	0x3e1be13f	0.15222643
80	0xbe3d884f	-0.18509029
81	0x3e2c6568	0.16835558
82	0x3e14b247	0.14521132
83	0xbe331d75	-0.17491706
84	0xbe2b423b	-0.16724484
85	0x3de48995	0.11159054
86	0x3e82b3a2	0.25527674
87	0x3d0685e5	0.032842536
88	0x3ecfeb32	0.40609127
89	0x3d81f91f	0.06346344
90	0x3d4e5d41	0.050381903
91	0xbdffc21f	-0.124881975
92	0x3eb36d4a	0.35044318
93	0xbbb367fd	-0.005475043
94	0x3ca6f92b	0.020382484
95	0x3e441ee1	0.19152404
96	0xbe305cb4	-0.17222863
97	0x3ee31969	0.44355324
98	0x3c0c924c	0.008579802
99	0x3de623de	0.1123731
100	0xbe8b6f88	-0.2723353
101	0x3da8a8ec	0.08235344
102	0x3db445f9	0.08802409
103	0x3e127c10	0.14305139
104	0x3e43366b	0.19063728
105	0xbda21839	-0.07914776
106	0x3e7a5670	0.24447036
107	0xbe0cc684	-0.13747603
108	0x3d2b727c	0.041857228
109	0xbe92a47c	-0.28641117
110	0x3d89f6ef	0.06736552
111	0xbe8fe4e2	-0.2810431
112	0xbea3b145	-0.31971183
113	0xbe68b1a1	-0.2272401
114	0xbdc525dd	-0.096263625
115	0xbd82c2ca	-0.06384809
116	0xbe7b5f7b	-0.24548142
117	0xbb2a53f6	-0.0025989986
118	0xbe30e32c	-0.17274159
119	0x3dbda19d	0.09259341
120	0x3de1503a	0.1100163
121	0xbe136781	-0.14394952
122	0xbd46cff1	-0.048538152
123	0x3db4ee99	0.088345714
124	0x3e4c8686	0.19973192
125	0xbe931a9c	-0.2873124
126	0xbd212f73	-0.03935189
127	0x3dfae78b	0.122511946
128	0x3e0d08cc	0.13772887
129	0xbc1933b9	-0.009350711
130	0x3ddad05c	0.10684273
131	0x3dc2dfd4	0.09515348
132	0x3cdaacc1	0.026693704
133	0xbdc7f3be	-0.09763287
134	0xbce2c12c	-0.027680002
135	0xbdd7e6d8	-0.10542077
136	0xbe3c62d3	-0.18397073
137	0xbe047e35	-0.12938769
138	0xbe737af1	-0.23777367
139	0xbd4999e1	-0.049219016
140	0xbf0335df	-0.51254076
141	0x3d87a655	0.06623522
142	0xbda457f4	-0.08024588
143	0xbde5d558	-0.11222333
144	0xbdca2d3c	-0.09871909
145	0xbd8d18b8	-0.0688948
146	0xbd7c1ee0	-0.061552882
147	0xbe2db6a4	-0.16964203
148	0x3d399fe9	0.045318518
149	0x3e11de8c	0.14245051
150	0xbd94cd81	-0.07265759
151	0xbe52839f	-0.20558022
152	0xbc59c675	-0.013291945
153	0x3df85e66	0.1212738
154	0xbec57377	-0.38564655
155	0x3ec956ae	0.39323944
156	0xbdd6b4e0	-0.10483718
157	0x3e5791bd	0.21051688
158	0xbcbc5dce	-0.022993948
159	0xbd72aa75	-0.05924459
160	0xbdec8e61	-0.11550594
161	0x3cafea33	0.02147398
162	0x3de5b846	0.11216788
163	0x3e4ff99f	0.20310067
164	0x3eb0fa47	0.34565946
165	0x3cde85d9	0.027163433
166	0x3ed28d40	0.4112339
167	0xbe50a498	-0.20375288
168	0xbdaad754	-0.08341852
169	0x3ed8919f	0.422986
170	0x3b308b0f	0.0026938354
171	0x3e4537c2	0.19259551
172	0xbe06db4b	-0.13169591
173	0x3c36cb15	0.011156817
174	0xbe678ed8	-0.22613084
175	0xbe16b9b6	-0.1471928
176	0x3ec9dce5	0.39426342
177	0xbe45596e	-0.19272396
178	0x3e1bd83a	0.15219203
179	0x3dc57474	0.09641352
180	0x3c4692af	0.012119933
181	0xbc082c0a	-0.008311281
182	0xbe1df46e	-0.15425274
183	0x3d0ffb89	0.035151992
184	0x3e028569	0.12746204
185	0x3e3c7b28	0.18406355
186	0x3d68be30	0.056822002
187	0x3e5b9b08	0.21445858
188	0x3de14cbd	0.11000965
189	0xbc22eb04	-0.009943727
190	0xbe80548c	-0.25064504
191	0x3e994179	0.29932764
192	0x3cd09839	0.02546321
193	0xbe8ac07c	-0.2709998
194	0xbe4eaa38	-0.20182121
195	0x3d20a0a8	0.039215714
196	0xbe19ceca	-0.1502029
197	0x3d10a0cd	0.0353096
198	0x3e232a33	0.15934066
199	0xbde7f4cd	-0.11325989
200	0x3d9a4cd0	0.07534182
201	0x3d6653fb	0.056232434
202	0x3e011b41	0.12608053
203	0xbda0dd1c	-0.07854673
204	0x3db1fc91	0.08690751
205	0x3d42d93f	0.047570463
206	0x3e6eb3a2	0.23310712
207	0x3e64e8b7	0.22354399
208	0xbdb93a23	-0.09044292
209	0x3cc7ba18	0.024380729
210	0xbcdf4705	-0.027255544
211	0x3db1165a	0.08646841
212	0x3d155d7a	0.0364661
213	0x3df2d250	0.1185652
214	0x3db3242a	0.08747132
215	0x3d9a529d	0.075352885
216	0xbdd90551	-0.10596717
217	0xbe4020bb	-0.18762486
218	0x391f9589	0.00015219128
219	0x3e19d099	0.1502098
220	0x3e980bfd	0.29696646
221	0xbdbbd4b5	-0.0917143
222	0xbe001087	-0.12506305
223	0x3ea67071	0.3250766
224	0x3dffbaf7	0.124868326
225	0x3da88310	0.08228123
226	0xbea645c4	-0.32475102
227	0xbd1ab586	-0.03777077
228	0xbe2b4bf8	-0.16728199
229	0x3d903a0f	0.07042324
230	0x3d0ae4d1	0.033909623
231	0xbeb7127e	-0.35756296
232	0xbdaa695a	-0.083208755
233	0x3b3a2a8e	0.0028406712
234	0x3e251350	0.16120648
235	0x3e85b978	0.26118064
236	0xbe8b7a0e	-0.27241558
237	0x3ce07af6	0.027402382
238	0xbe753623	-0.23946433
239	0xbe83ec69	-0.25766304
240	0xbd844b2d	-0.06459651
241	0x3ea0b034	0.31384432
242	0xbe8de98f	-0.27717254
243	0xbe64c24a	-0.2233974
244	0xbe32dbf1	-0.17466713
245	0x3db3e609	0.0878411
246	0x3c64287e	0.01392567
247	0x3e5de74b	0.21670263
248	0x3f0421c5	0.5161403
249	0xbd9de6fb	-0.07710072
250	0xbe2741f0	-0.16333747
251	0xbeb76880	-0.35821915
252	0xbebc59ff	-0.36787412
253	0x3e3a6a71	0.18204667
254	0xbe090ea7	-0.13384496
255	0x3d8af597	0.06785124

critic.4.bias f4 [64]
0	0x3ca88671	0.02057192
1	0x3cfc11f1	0.030770274
2	0xbd2852ca	-0.04109458
3	0x3d36e554	0.044652298
4	0x3d850b07	0.06496244
5	0x3d581ee1	0.052763823
6	0x3d192063	0.037384402
7	0x3d2f09fc	0.04273413
8	0x3d35089d	0.044197667
9	0xbd230344	-0.039798036
10	0xbd1332c0	-0.03593707
11	0x3d3ac51b	0.04559813
12	0x3d7176d3	0.05895121
13	0xbd88600c	-0.066589445
14	0x3d313456	0.043262802
15	0x3d2c530d	0.04207139
16	0xbd18055e	-0.037114494
17	0xbcdafab8	-0.02673088
18	0x3d18e063	0.037323367
19	0x3cf23803	0.029567724
20	0x3d3922bd	0.045199145
21	0x3d3de462	0.04636038
22	0x3d20974e	0.039206795
23	0x3d5f8372	0.054568715
24	0x3d5b9e7e	0.053617947
25	0xbd0b15c8	-0.03395632
26	0xbd0c28a7	-0.034218457
27	0x3d184044	0.037170663
28	0xbd2629c0	-0.04056716
29	0x3d2a9f40	0.04165578
30	0xbd914c86	-0.07094674
31	0xbd493b42	-0.04912878
32	0x3d1f4ae8	0.038889796
33	0x3d4686ea	0.048468508
34	0x3d5ea6d4	0.05435832
35	0xbd51f4c1	-0.051258806
36	0xbd13320c	-0.0359364
37	0x3d21b956	0.03948339
38	0x3d2bddd1	0.041959587
39	0xbcef2667	-0.029193116
40	0xbd49cca8	-0.04926744
41	0x3d3acdf0	0.045606554
42	0xbd0eca33	-0.0348608
43	0x3d084e55	0.03327783
44	0x3ccd82e4	0.025086828
45	0xbd260e90	-0.04054123
46	0xbd55c97e	-0.05219411
47	0xbd121f0a	-0.035674132
48	0x3d3d8503	0.046269428
49	0x3ca96b7c	0.020681135
50	0x3d6f6e51	0.058454815
51	0xbcf06f9c	-0.029350094
52	0xbd4500e4	-0.048096552
53	0xbd4d50b6	-0.0501258
54	0xbd2891ab	-0.041154545
55	0x3cdfe8a4	0.027332611
56	0xbd1b9ceb	-0.037991446
57	0x3d222f2b	0.039595764
58	0x3d171757	0.036887493
59	0x3d42bdf8	0.04754445
60	0xbd100081	-0.03515673
61	0x3d28e23f	0.04123139
62	0xbd1cd6fc	-0.038290963
63	0x3d3a5775	0.04549356

critic.6.weight f4 [1, 64]
0	0x3eafa302	0.34304053
1	0x3ec6e26b	0.38844618
2	0xbe73a404	-0.23793036
3	0x3e40830a	0.18799987
4	0x3da161bf	0.07879972
5	0x3e356a3f	0.17716311
6	0x3e9cd8f1	0.30634263
7	0x3de74f21	0.112943895
8	0x3e23ab95	0.15983422
9	0xbe8c4dcb	-0.274031
10	0xbe4fadbd	-0.2028112
11	0x3e54431b	0.20728724
12	0x3de3e0ce	0.111268625
13	0xbdebc11c	-0.11511442
14	0x3e8a79f8	0.2704618
15	0x3e07dbdd	0.13267465
16	0xbe72a82b	-0.23696963
17	0xbe023f6d	-0.12719508
18	0x3e205d5e	0.15660617
19	0x3de47a27	0.11156111
20	0x3df72136	0.12066881
21	0x3e1dfce1	0.15428497
22	0x3de91098	0.11380118
23	0x3d9f5b1f	0.07781052
24	0x3df4b4aa	0.119485214
25	0xbeb2ddc7	-0.34934828
26	0xbea90336	-0.33010262
27	0x3e2e1ee9	0.17003979
28	0xbe3c1fcd	-0.18371506
29	0x3e365204	0.17804724
30	0xbdb9af99	-0.09066696
31	0xbddfddc0	-0.10930967
32	0x3e3508ee	0.17679188
33	0x3dcd8ad3	0.10036244
34	0x3e18ccf9	0.14921941
35	0xbe0293a6	-0.12751636
36	0xbe7e6ba3	-0.24845748
37	0x3e69f825	0.22848566
38	0x3e4695b3	0.19393043
39	0xbe195530	-0.14973903
40	0xbdd36182	-0.103213325
41	0x3e378ae1	0.17924072
42	0xbe0c41e1	-0.13697006
43	0x3e5d3f0b	0.2160608
44	0x3e89b265	0.26893917
45	0xbe2035a0	-0.15645456
46	0xbe25965e	-0.16170642
47	0xbe83d830	-0.25750875
48	0x3e3fdda5	0.18736894
49	0x3dfc52ae	0.123204574
50	0x3dcc96b0	0.09989679
51	0xbd9146f5	-0.07093612
52	0xbe456974	-0.19278508
53	0xbe0d808e	-0.13818571
54	0xbe197312	-0.14985302
55	0x3eb16157	0.34644577
56	0xbe07a6f6	-0.13247284
57	0x3e308da3	0.1724153
58	0x3e7bff0f	0.24609016
59	0x3e304e6c	0.17217416
60	0xbe95a467	-0.29226992
61	0x3e805ebd	0.2507228
62	0xbe7e6b78	-0.24845684
63	0x3e51ff65	0.20507582

actor.0.weight f4 [64, 200]
0	0x3de0f190	0.109835744
1	0x3cd26568	0.02568312
2	0xbd7e2349	-0.06204537
3	0x3d2e50c0	0.042557478
4	0xbe247c24	-0.16062981
5	0x3ae7fa90	0.0017698575
6	0xbe39ec3c	-0.18156523
7	0x3cceeca2	0.02525932
8	0xbe5019f9	-0.20322408
9	0xbe5a0b5d	-0.21293397
10	0xbe3a6249	-0.18201555
11	0xbd92ab68	-0.071615994
12	0xbd2f1c34	-0.042751506
13	0x3d2e1c5b	0.04250751
14	0x3bcab361	0.0061859344
15	0xbd9d5665	-0.07682494
16	0x3e1d4c12	0.1536105
17	0x3be0758c	0.00684995
18	0x3d3ac35e	0.045596473
19	0x3cd55da3	0.026045626
20	0xbde001aa	-0.109378174
21	0xbcd01704	-0.0254016
22	0xbd7e3d5b	-0.062070232
23	0x3b65dcf4	0.0035074325
24	0xbdd084ab	-0.101815544
25	0xbbfabc62	-0.0076518515
26	0x3e43700d	0.19085713
27	0x3d8ecff4	0.06973258
28	0xbc055e0d	-0.008140099
29	0x3cbe4509	0.023226278
30	0xbd9b4778	-0.07581991
31	0x3e09bf22	0.13451818
32	0x3dfba915	0.12288109
33	0xbb2e4eee	-0.0026597339
34	0x3d238d9f	0.039929982
35	0x3d2523f0	0.040317476
36	0x3dea8477	0.11451047
37	0xbcaecbe5	-0.021337459
38	0x3d9eddba	0.07757135
39	0xbe61474c	-0.21999854
40	0xbe252f12	-0.16131237
41	0xbc587006	-0.013210302
42	0x3cc84eb4	0.024451591
43	0x3dfbef9a	0.1230156
44	0xbe5a31ac	-0.21308011
45	0xbe154ae7	-0.14579354
46	0xbbe88e34	-0.00709703
47	0xbe2e9891	-0.17050387
48	0xbada2046	-0.0016641698
49	0x3e29a7c2	0.16567901
50	0xbd4c57d0	-0.049888432
51	0xbd82bf21	-0.06384111
52	0xbe005837	-0.12533651
53	0xbc9f4012	-0.01943973
54	0xbd8a1f1f	-0.06744217
55	0x3dd7d3de	0.10538457
56	0xbe138571	-0.14406373
57	0xbd27f0cb	-0.041001122
58	0x3db1f4e8	0.0868929
59	0xba08ab03	-0.0005213471
60	0xbd84c383	-0.064826034
61	0x3d119ec9	0.03555182
62	0x3d0b8fe4	0.03407277
63	0x3d6645a0	0.056218743
64	0xbdad2850	-0.084549546
65	0xbdb21743	-0.08695843
66	0xbd423d72	-0.04742188
67	0xbc22b34a	-0.009930441
68	0xbd106fb1	-0.035262767
69	0x3d6230b2	0.05522222
70	0x3d87ba35	0.06627313
71	0x3e642c8d	0.2228262
72	0x3ba9c7a3	0.0051812693
73	0xbc4de686	-0.012567168
74	0x3dc70c95	0.09719197
75	0xbd44db38	-0.048060626
76	0x3ded3207	0.115818076
77	0x3b8621ff	0.004093408
78	0x3dac649e	0.08417629
79	0xbca53c18	-0.020170256
80	0x3df04bd4	0.11733213
81	0x3dc3509c	0.095368594
82	0x3e1eb750	0.15499616
83	0x3df61906	0.120164916
84	0x3dc66937	0.09688037
85	0x3d942f7d	0.0723562
86	0x3cf48108	0.029846683
87	0x3d131c24	0.03591551
88	0xbdc99706	-0.098432586
89	0xbe02a2f2	-0.12757471
90	0x3d1cc1ad	0.03827064
91	0x3dc5e6a3	0.09663131
92	0x3bf33867	0.007422495
93	0xbd356364	-0.04428424
94	0x3da6330f	0.081152074
95	0xbda5e29a	-0.080998614
96	0xba4557a1	-0.00075280113
97	0xbca4f075	-0.02013419
98	0x3d1509c6	0.036386274
99	0x3e0d566a	0.13802496
100	0xbdc6f0fe	-0.09713934
101	0xbdcc81de	-0.09985708
102	0x3dea0d2c	0.114282936
103	0xbd9ef75e	-0.07762025
104	0xbd8c1a43	-0.068409465
105	0x3d8cf0ac	0.06881842
106	0x3d6a4dc2	0.057203062
107	0x3e2d08e5	0.16897924
108	0x3e2fe34b	0.17176549
109	0x3df1b312	0.11801733
110	0x3db4f705	0.08836178
111	0xbc3bbbcf	-0.011458351
112	0xbdead918	-0.114671886
113	0x3c747280	0.014919877
114	0x3dd23aed	0.102651455
115	0x3e460d8b	0.19341104
116	0x3e5cd8fe	0.21567151
117	0x3e9c5ef9	0.30541208
118	0x3e1a19bb	0.15048878
119	0xbbe1b555	-0.0068880715
120	0xbd84f70b	-0.06492432
121	0xbe1f0f0b	-0.15533082
122	0xbd26a525	-0.040684838
123	0xbde69ea5	-0.11260728
124	0xbd27b810	-0.04094702
125	0xbd0a2235	-0.03372403
126	0xbddf9213	-0.10916533
127	0xbe11df9f	-0.14245461
128	0x3d983ac9	0.074330874
129	0xbd5bbf1f	-0.053649064
130	0xbc22ec46	-0.009944027
131	0x3e09d533	0.13460235
132	0x3d52010f	0.05127054
133	0x3e580983	0.21097378
134	0x3dd1a246	0.10236029
135	0xbe1aa195	-0.15100701
136	0xbd676c95	-0.056500036
137	0x3d8923e4	0.06696299
138	0x3d6d9f69	0.058013353
139	0xbd010b65	-0.031505007
140	0xbce31330	-0.02771911
141	0xbc85a710	-0.016315013
142	0x3d4c3e0f	0.04986387
143	0xbd728afc	-0.059214577
144	0xbdb7bdb8	-0.08971733
145	0x3c8b44da	0.017000604
146	0x3d28220b	0.04104809
147	0xbd837b50	-0.06420004
148	0x3dd180ec	0.10229668
149	0xbd73e889	-0.059547935
150	0x3de280ee	0.11059748
151	0xbe4a01af	-0.19727205
152	0xbcdfbb17	-0.027310891
153	0x3d601058	0.054703087
154	0xbc0ab88a	-0.008466849
155	0xbaa9e426	-0.001296167
156	0xbe105909	-0.14096464
157	0xbd0347d4	-0.032050923
158	0xbd355f45	-0.04428031
159	0xbd487650	-0.048940957
160	0xbe13a72d	-0.14419241
161	0xbc7d70f9	-0.015468829
162	0xbd8ac2e0	-0.06775451
163	0x3d6d04f5	0.057866056
164	0x3dffee05	0.124965705
165	0xbd86618f	-0.065615766
166	0xbdc7c149	-0.09753663
167	0xbe29794f	-0.16550182
168	0x3e22a06c	0.15881509
169	0x3df580b8	0.11987442
170	0xbc5325f0	-0.012887463
171	0xbd396caf	-0.045269664
172	0x3da5478b	0.08070286
173	0xbdbdb619	-0.09263248
174	0x3d826191	0.063662656
175	0x3d42d014	0.04756172
176	0xbdb787ee	-0.089614734
177	0xbdcbc809	-0.09950263
178	0xbdde9a25	-0.108692445
179	0x3b0aff25	0.0021209207
180	0xbd88b651	-0.06675399
181	0xbb985c73	-0.0046496927
182	0x3e419249	0.1890346
183	0x3da4f752	0.08054985
184	0xbcccfbbd	-0.025022382
185	0xbcd7fe4d	-0.026366377
186	0xbe098077	-0.13427912
187	0xbe063b5c	-0.13108581
188	0xbd763fb5	-0.06011935
189	0x3df06dd3	0.11739697
190	0x3dbecb67	0.0931614
191	0x3e2af667	0.16695558
192	0x3c8db3a5	0.017297575
193	0x3e1befdf	0.15228222
194	0xbe1e2807	-0.15444957
195	0xbc827e78	-0.015929446
196	0xbe12adf1	-0.14324166
197	0xbd38706d	-0.045029093
198	0x3e1bbebe	0.15209481
199	0x3cf249e3	0.029576248
200	0x3d388640	0.045049906
201	0xbde18c37	-0.11013072
202	0x3e1b1a46	0.15146741
203	0x3d9fead0	0.07808459
204	0xbd9914a3	-0.07474639
205	0x3d40b7ab	0.04705016
206	0x3e292856	0.16519293
207	0xb9870d53	-0.00025759134
208	0xbe3d0c66	-0.18461761
209	0x3d1882ff	0.037234303
210	0x3dab7de2	0.083736196
211	0xbd944211	-0.07239164
212	0x3c1976e1	0.009366722
213	0xbd33a92c	-0.043862507
214	0xbd7c95f4	-0.061666444
215	0x3b008303	0.001960934
216	0x3c0e8ab6	0.008700063
217	0x3d85ec3e	0.065392
218	0xbda5c026	-0.0809329
219	0x3dba5406	0.090980574
220	0x3d441ab3	0.047877025
221	0x3cb46be7	0.022024108
222	0x3d6cd764	0.0578226
223	0x3d538b9e	0.05164682
224	0x3e00f330	0.12592769
225	0xbc1f944b	-0.009739946
226	0xbdaa6a6d	-0.0832108
227	0xbd5d0c4c	-0.053966805
228	0xbe34c32a	-0.17652574
229	0xbe6dff01	-0.23241808
230	0xbe0b41e6	-0.13599357
231	0x3d377bb8	0.04479572
232	0x3de1dd8a	0.11028583
233	0x3e3556f1	0.17708947
234	0xbc390aee	-0.01129411
235	0xbd08dfdc	-0.033416614
236	0x3e40bd75	0.18822272
237	0x3d856df0	0.065151095
238	0xbb8e8542	-0.0043493817
239	0xbd98234d	-0.07428608
240	0xbdc782a5	-0.09741715
241	0x3e3bc8da	0.18338338
242	0x3db38f98	0.08767623
243	0xbdea5f02	-0.114439026
244	0xbcf0a8fd	-0.029377455
245	0x3da08e7d	0.078396775
246	0xbad8411c	-0.0016498896
247	0xbda80374	-0.08203784
248	0x3e22d2dc	0.15900749
249	0x3d28c54e	0.04120379
250	0xbd4fd719	-0.050742242
251	0xbd8cf7c0	-0.06883192
252	0x3b7a1a48	0.0038162638
253	0xbdc2fb06	-0.09520535
254	0x3ddc1f61	0.107481726
255	0x3e45c204	0.19312292

actor.0.bias f4 [64]
0	0xbb5686c1	-0.0032734128
1	0x3b27125d	0.0025493123
2	0x3ad0f7fe	0.0015943048
3	0xbab65248	-0.001391002
4	0x3b193d90	0.0023382641
5	0x3b6b3f60	0.0035895929
6	0xba581a5c	-0.0008243674
7	0xbb0d56a2	-0.002156653
8	0xb90cc079	-0.00013423142
9	0x3b71dc6d	0.0036905066
10	0xb8e6200f	-0.00010973226
11	0x3ac71b84	0.0015190695
12	0x3a2027c2	0.000610944
13	0xbaa9ada7	-0.0012945429
14	0xba9c8794	-0.0011942261
15	0x3ae2cc5f	0.0017303339
16	0x3a9a6c0e	0.001178147
17	0x3982447e	0.00024846563
18	0xba266d86	-0.0006348718
19	0x3a61e4ce	0.00086171634
20	0x390fd5f0	0.0001371724
21	0xba937c6d	-0.0011252292
22	0x39636470	0.00021685823
23	0xb9a86280	-0.00032116845
24	0x3b64680e	0.003485206
25	0x38a46ddb	7.8405916e-05
26	0xbac4228c	-0.0014963909
27	0x3a15d829	0.00057161093
28	0xba9dda2c	-0.001204317
29	0xbaec9795	-0.0018050546
30	0x3acf033a	0.0015793808
31	0x3b0f0478	0.0021822732
32	0x3ae94d5f	0.0017799548
33	0x39de539f	0.00042405442
34	0xba87db8a	-0.001036511
35	0xbad31dce	-0.0016106905
36	0x3a0c9170	0.0005362248
37	0x3a264b01	0.0006343574
38	0x3aa00c0e	0.0012210624
39	0xb91b2277	-0.00014794791
40	0xb9cc2e81	-0.0003894456
41	0xbaaf7768	-0.0013387026
42	0x3a837358	0.0010028882
43	0x3867ee18	5.5296434e-05
44	0xb810f987	-3.4564666e-05
45	0x3a47788a	0.0007609209
46	0x3a66ad16	0.00087995955
47	0xba0920ee	-0.0005231042
48	0xb791718c	-1.7338221e-05
49	0xba7cbbd4	-0.00096410257
50	0xbac02eb7	-0.001466236
51	0xb9e2e362	-0.00043275492
52	0xba577ad4	-0.0008219902
53	0x39ad144c	0.00033012254
54	0x3abf52dd	0.0014596839
55	0xbaef6697	-0.0018264827
56	0xbaedb7f7	-0.0018136491
57	0x3964e4cf	0.00021829012
58	0xbaf2d297	-0.0018525895
59	0x39b5fa75	0.00034709615
60	0xb86cd208	-5.646239e-05
61	0x394d3324	0.00019569375
62	0xba383b23	-0.0007027855
63	0xb9b88d8d	-0.00035200678

actor.2.weight f4 [64, 64]
0	0xbe11a2db	-0.1422228
1	0xbce3f555	-0.027826944
2	0xbe9e037e	-0.3086204
3	0x3e1829cf	0.14859699
4	0x3dab3001	0.083587654
5	0xbc3a8348	-0.011383839
6	0x3c9cec1e	0.019155558
7	0xbe3ca92d	-0.1842391
8	0xbdd51bc6	-0.10405688
9	0xbe49c7c1	-0.19705106
10	0xbe461814	-0.19345123
11	0xbdaf19cf	-0.085498445
12	0x3e7ca8c5	0.24673755
13	0x3e53f1a3	0.20697646
14	0x3e7079a2	0.23483899
15	0xbdd5af32	-0.104338065
16	0x3d427da9	0.04748312
17	0xbec3fe9b	-0.38280186
18	0xbe7c6e9b	-0.24651568
19	0x3dd49687	0.10380273
20	0x3e850418	0.25979686
21	0x3d8037b7	0.06260627
22	0x3e104b61	0.14091255
23	0x3d5bde37	0.053678717
24	0x3e984836	0.29742593
25	0xbdef8d0d	-0.11696825
26	0xbe02184d	-0.12704583
27	0xbd6768ac	-0.056496307
28	0x3d2e8bce	0.042613797
29	0x3d0f306b	0.034958284
30	0xbed57870	-0.4169345
31	0xbea10c0a	-0.31454498
32	0xbdf2a87b	-0.11848541
33	0x3e3be66b	0.18349616
34	0x3e6f867c	0.23391145
35	0x3e6dff64	0.23241955
36	0x3d3d8836	0.04627248
37	0x3e3962b2	0.18104056
38	0xbdcc840c	-0.099861234
39	0x3deb33bb	0.11484476
40	0x3e2f71f7	0.17133318
41	0xbe264c4f	-0.16240047
42	0xbe83cc3f	-0.25741765
43	0x3cfd9552	0.03095499
44	0x3b969504	0.0045954008
45	0x3d5bad5c	0.053632125
46	0xbeb39ea1	-0.35081962
47	0x3e9e55a0	0.30924702
48	0x3c860b47	0.0163628
49	0x3e774193	0.24146108
50	0xbdbd4ca2	-0.09243132
51	0x3d672319	0.056429956
52	0xbe4bec4d	-0.1991436
53	0xbc46f3b9	-0.012143069
54	0x3e160112	0.14648846
55	0xbd439ff3	-0.04775996
56	0xbe3a3cb1	-0.18187214
57	0x3e2c09db	0.16800635
58	0x3d870b2d	0.065939285
59	0x3d9bba5b	0.07603904
60	0xbd8766ed	-0.066114284
61	0xbe7c5d08	-0.24644864
62	0x3c8c100f	0.017097501
63	0xbdedf40c	-0.11618814
64	0x3dd3c0ef	0.103395335
65	0xbcaa0bb0	-0.020757526
66	0x3e119571	0.14217164
67	0xbdf8ecd5	-0.12154547
68	0xbd948d03	-0.07253458
69	0xbe366a11	-0.17813899
70	0x3d900a6b	0.07033237
71	0x3e89f4fb	0.26944718
72	0x3dcff57d	0.10154245
73	0x3e5b11e5	0.21393545
74	0xbc9f6fbc	-0.019462459
75	0xbe8ba187	-0.27271673
76	0xbe7a6eee	-0.24456379
77	0x3dacb0ea	0.08432181
78	0x3e6c095d	0.23050447
79	0x3dfd953e	0.12381981
80	0xbdab52b9	-0.083653875
81	0xbd1dae13	-0.03849609
82	0x3c418df4	0.011813629
83	0xbe5555a2	-0.20833448
84	0xbb6b05c3	-0.0035861589
85	0x3e0be248	0.13660538
86	0xbea95213	-0.3307043
87	0x3e90f114	0.28308928
88	0xbe3d0afd	-0.18461223
89	0x3d8c1244	0.068394214
90	0x3cffe88c	0.031238817
91	0x3e78ba30	0.24289775
92	0x3d84302b	0.064545
93	0xbe648f04	-0.22320181
94	0xbd456138	-0.04818842
95	0xbd609d91	-0.054837767
96	0x3e024c56	0.12724432
97	0x3e29f9fe	0.1659927
98	0x3c9043b6	0.017610412
99	0xbdc2e7ab	-0.095168434
100	0xbe7c47da	-0.24636784
101	0xbd993321	-0.07480455
102	0xbe76e675	-0.2411135
103	0x3d581198	0.052751154
104	0xbcb514fe	-0.022104736
105	0x3e0e86d1	0.13918616
106	0xbe54c5e2	-0.20778611
107	0x3da1f5bc	0.07908198
108	0xbdac0737	-0.083998136
109	0x3e2d6be8	0.16935694
110	0xbec0455f	-0.37552926
111	0x3dfe9744	0.124311954
112	0x3d808140	0.062746525
113	0xbed2a604	-0.41142285
114	0xbdd55807	-0.104171805
115	0xbe0dd0d1	-0.13849188
116	0xbe2a3469	-0.16621555
117	0xbc755192	-0.014973061
118	0x3e76248a	0.24037376
119	0xbdf29475	-0.11844722
120	0x3e93776e	0.28802055
121	0x3ec3fd39	0.3827913
122	0x3db49a2b	0.08818468
123	0x3e76bda0	0.24095774
124	0x3e33a313	0.17542677
125	0xbdf9d051	-0.12197936
126	0xbe867c12	-0.26266533
127	0xbd337ee0	-0.04382217
128	0xbd3a37b9	-0.045463298
129	0xbe58b715	-0.2116359
130	0xbe2a34ba	-0.16621676
131	0x3dacac60	0.084313154
132	0xbd91cc2b	-0.0711902
133	0xbd0572f3	-0.032580327
134	0x3e8329ae	0.25617737
135	0xbd05e6ca	-0.0326908
136	0xbe0c14d8	-0.13679826
137	0x3ded4609	0.11585624
138	0xbe687575	-0.22701056
139	0x3e27f07b	0.1640033
140	0xbeb392a3	-0.35072812
141	0x3da3257c	0.07966134
142	0xbde69b1c	-0.112600535
143	0xbcc480fe	-0.02398729
144	0x3e01ac94	0.1266349
145	0x3e155406	0.14582834
146	0xbe385809	-0.18002333
147	0x3d0d924f	0.03456336
148	0xbeb3deb6	-0.35130852
149	0x3e6e33d0	0.23261952
150	0xbe31ed3b	-0.17375652
151	0xbdd5c427	-0.10437804
152	0x3e049e63	0.12951045
153	0xbe49fcb7	-0.1972531
154	0xbcf07d1d	-0.029356534
155	0xbe235ea6	-0.15954074
156	0x3c92dd1a	0.017927695
157	0x39e207ad	0.00043111798
158	0x3db97455	0.09055392
159	0xbd5a0504	-0.05322744
160	0x3bb2f459	0.0054612574
161	0xbd9189ef	-0.07106387
162	0x3e4f562b	0.20247714
163	0xbeabd197	-0.33558342
164	0x3f19f6c2	0.6014215
165	0xbd5c0bd6	-0.053722225
166	0x3d7c7511	0.06163508
167	0x3cb29441	0.021799209
168	0xbe82f460	-0.25577068
169	0x3eb60c67	0.35556337
170	0xbdff50ba	-0.12466569
171	0x3d06efe8	0.032943636
172	0xbe3f757e	-0.18697163
173	0xbe8316e5	-0.25603405
174	0xbdd66dd0	-0.10470164
175	0x3e18abe3	0.1490932
176	0x3cff7153	0.031181967
177	0xbda8e816	-0.08247392
178	0xbde8cc8b	-0.113671385
179	0x3e2c600b	0.16833512
180	0x3d83afda	0.064300254
181	0xbd5ba84f	-0.05362731
182	0xbd4930dc	-0.04911886
183	0x3d0da7ee	0.03458398
184	0x3dda3bca	0.10655935
185	0x3d48ce8f	0.049025115
186	0xbdddb969	-0.1082638
187	0xbe40b5dc	-0.18819374
188	0xbdf15387	-0.1178351
189	0xbec14af8	-0.3775251
190	0xbd1c5619	-0.038168047
191	0xbe7f1bf4	-0.24913007
192	0x3d9d7c0f	0.07689678
193	0x3ddf5480	0.10904789
194	0x3de11fc2	0.109923854
195	0xbd1355f8	-0.035970658
196	0xbdc6170f	-0.09672367
197	0x3e24e72e	0.16103813
198	0xbeb50024	-0.3535167
199	0x3eaf9d11	0.3429952
200	0x3d787618	0.060659498
201	0xbd6ed24c	-0.058306023
202	0xbdc387da	-0.09547396
203	0x3e8ebdf5	0.278793
204	0x3dfc7fe2	0.12329079
205	0xbb37defb	-0.002805649
206	0x3d7d6529	0.061864052
207	0xbd512291	-0.051058356
208	0x3e60f3f4	0.2196806
209	0xbe72167b	-0.23641388
210	0xbd8e2477	-0.06940549
211	0xbdeaa99a	-0.1145813
212	0xbd4e1977	-0.050317254
213	0xbd9f5035	-0.0777897
214	0xbd082e1d	-0.033247102
215	0x3e1ae166	0.15125045
216	0x3d8ce0b8	0.06878799
217	0x3ca45d27	0.02006395
218	0x3de8c7e6	0.113662526
219	0xbe189751	-0.14901473
220	0x3dda5053	0.10659852
221	0x3e2ab9d0	0.16672444
222	0x3e463f18	0.19360006
223	0xbe96b4c1	-0.2943478
224	0x3cdd2554	0.026995338
225	0xbd8d13b8	-0.06888527
226	0x3e47061e	0.19435927
227	0xbe81aec2	-0.25328642
228	0xbc220eca	-0.009891221
229	0x3e826a9e	0.25471967
230	0xbd8670ce	-0.065644845
231	0x3e48db23	0.19614844
232	0x3e4a11b4	0.19733316
233	0x3e4fa17e	0.20276448
234	0x3c7ce5fc	0.015435692
235	0xbdc76d25	-0.097376145
236	0xbe77ec28	-0.2421118
237	0xbeed89ae	-0.46394104
238	0xbd7868e1	-0.060646895
239	0xbd2fabbb	-0.042888384
240	0xbddfe860	-0.10932994
241	0xbdfd825d	-0.123783804
242	0xbe6236f0	-0.2209127
243	0x3bd8b4f0	0.0066133663
244	0xbe9416fb	-0.28923783
245	0xbdaa476b	-0.08314403
246	0xbd22b787	-0.039725807
247	0xbdd0e2bc	-0.10199496
248	0x3d7b9a68	0.06142655
249	0xbee3c713	-0.4448782
250	0x3e2e9afb	0.17051308
251	0x3eadc821	0.3394175
252	0xbd86a195	-0.06573788
253	0x3e17215d	0.14758821
254	0xbd5e5223	-0.05427755
255	0x3e91c583	0.28471002

actor.2.bias f4 [64]
0	0xba64e4f4	-0.00087316264
1	0xba2f2610	-0.0006681392
2	0xbaae6eef	-0.0013308207
3	0xb9d15b42	-0.0003993158
4	0x3a765125	0.0009396247
5	0xbaebf717	-0.0018002716
6	0x3a56831d	0.00081829895
7	0x3ae853f4	0.0017725215
8	0xbb06c157	-0.0020562017
9	0xbaa0cebb	-0.0012268642
10	0x3abc7d25	0.0014380558
11	0xb93dce57	-0.00018101312
12	0xbac05b97	-0.0014675733
13	0xb90fe311	-0.00013722132
14	0xb8360569	-4.339722e-05
15	0xba262017	-0.0006337179
16	0x3a5ce348	0.00084262015
17	0x39abd97f	0.0003277771
18	0x39a273eb	0.00030985413
19	0xbad72138	-0.0016413098
20	0x3b48bab8	0.0030628871
21	0xba89c6a5	-0.0010511471
22	0xba7e2e16	-0.00096961984
23	0x3aa8f4bf	0.0012890323
24	0x3a130082	0.00056076807
25	0xb83dbe55	-4.5238372e-05
26	0x3a48fc7c	0.00076670176
27	0xba8e7928	-0.0010869848
28	0xb9d65775	-0.0004088242
29	0xb9cd2851	-0.00039130685
30	0xbb567d52	-0.0032728505
31	0xb8fd335c	-0.000120735465
32	0x3b266661	0.0025390612
33	0x3ab363ec	0.0013686395
34	0xba17a614	-0.00057849404
35	0xba8e01ad	-0.001083424
36	0x3a5aaa27	0.0008341395
37	0xb75b67ff	-1.3077631e-05
38	0x3b09b898	0.0021014567
39	0x39ee81bc	0.00045491557
40	0x3aed5b68	0.0018108906
41	0x3a599378	0.00082998676
42	0xba262692	-0.0006338145
43	0x39465a72	0.00018916445
44	0x3ab242e5	0.0013600258
45	0xbabc07cd	-0.0014345587
46	0xb9006163	-0.0001224331
47	0x3a2c9c18	0.0006584539
48	0x38ef1fff	0.00011402368
49	0x3ad2b1d5	0.0016074727
50	0xba71f269	-0.00092295423
51	0x3b0d4c7a	0.0021560476
52	0x3aebc321	0.001798723
53	0xbae50e31	-0.0017475543
54	0xbb0589f8	-0.0020376425
55	0x3a0f2e5a	0.0005461924
56	0x3adae209	0.0016699444
57	0x37a4058e	1.955291e-05
58	0xba69e1a9	-0.00089218706
59	0xbb199ada	-0.0023438246
60	0x3aa25a7f	0.0012386589
61	0xba72261c	-0.0009237246
62	0x3a78a3cd	0.00094848574
63	0xba922567	-0.0011150063
