Tetris-PPO/trained/PPO/tetris_6/stage3.pth (torch, 183709 bytes, 15 tensors)

critic.0.weight f4 [64, 200]
-0.056056853 0.091673285 -0.003340342 0.06403625 -0.009530734 -0.130314 0.03166111 0.0003099528
0.24773696 -0.15545857 0.08719669 -0.048280954 -0.032237247 -0.18299267 -0.026770322 -0.15930898
-0.11754721 -0.04903995 0.00886731 -0.06602548 0.13123378 -0.075285144 -0.29710364 0.012864655
-0.0049918015 -0.07942759 -0.077967644 -0.18058315 0.013106389 -0.13784875 -0.07480794 -0.07787045
-0.15728644 0.22884431 0.09327948 0.0760721 -0.0300034 -0.20351978 -0.0012671005 0.1692995
-0.036256433 -0.20599926 0.05473725 -0.08984833 0.10310895 -0.14109431 0.052175116 -0.035532136
-0.20595516 -0.003200123 -0.041824732 0.06403222 0.03989389 -0.005390186 -0.04723534 -0.004115059
0.05154431 0.020595834 -0.024939554 -0.017901106 -0.07719926 -0.053731132 -0.14134985 0.09319619
-0.205972 0.040508986 -0.028493643 0.01387698 -0.06635553 0.019612404 -0.05128019 -0.14658812
-0.02390118 0.13835765 0.0032028968 -0.19704485 0.06355653 -0.018726846 -0.05034301 -0.051721208
0.07170835 0.123441055 0.11309983 0.067409724 0.07587488 0.092473626 0.097709715 -0.07948152
0.11379282 0.15145397 -0.061049614 0.019664042 0.18276232 -0.08056297 -0.053672735 0.02540553
-0.09178513 -0.089429535 0.0010794078 0.03005287 -0.024233773 -0.06688598 -0.049373064 -0.10344039
0.03796713 0.13674524 0.005789629 -0.19187187 0.052259196 0.14016 0.025504956 -0.15561119
-0.07419602 0.09486668 -0.024414185 -0.016843682 0.08279623 0.05881414 -0.047113184 -0.01435198
-0.19069375 0.13524276 -0.06839682 0.13596629 -0.035049394 -0.0129675595 -0.035851132 -0.01967187
-0.049311295 -0.05573685 -0.07492597 0.15034288 0.08124298 0.010615934 0.08426382 -0.16215758
-0.008962047 0.06737612 -0.00086950895 0.12849893 0.007285266 -0.025589466 -0.19670463 -0.008212007
-0.21369633 0.051367257 -0.08269167 -0.07421993 -0.076001234 0.098722756 -0.12655397 -0.007189174
-0.2636006 -0.07859245 -0.066734 0.1510142 0.040257648 -0.040670052 -0.16564207 -0.024100346
-0.15743043 0.0035785988 -0.047766794 0.11506664 0.06524744 -0.13574968 0.2029622 -0.075510554
0.10514404 -0.07057358 -0.13021013 -0.07095319 0.15028116 -0.09262652 0.060109988 -0.09774536
0.021740288 -0.14101426 -0.10718738 -0.0819439 -0.07162008 0.008080385 0.042323817 0.11251055
0.017741637 -0.015283642 0.038659804 -0.037964895 -0.102573186 0.14023753 -0.14549838 -0.2171201
-0.06396392 -0.0567408 0.03565184 0.011699554 -0.13755815 -0.018853988 -0.03583632 -0.05962266
-0.018024882 -0.06635131 -0.08901988 -0.07261698 -0.047743797 -0.10812521 -0.061839506 -0.13868581
0.07878654 -0.22388242 -0.13743454 0.19694933 0.040404513 0.0459523 -0.053253327 -0.0600486
-0.08324871 0.096336044 -0.0643198 -0.0070843087 0.14119972 0.0052583227 0.005139552 0.22701749
0.07943392 -0.14297749 0.13306096 -0.10198672 0.14314212 0.026035294 -0.07629639 -0.034815114
-0.003113435 0.065889515 0.02959688 -0.02282325 -0.10284567 -0.04929414 -0.108344436 0.17489538
0.16768155 -0.047290273 -0.048815843 0.05102103 0.13753189 -0.1047014 0.014764658 -0.19306724
-0.121669546 -0.00020438744 0.1553383 -0.03006273 -0.101751424 0.078410745 0.025768105 0.0157755
00000000: df9b 65bd 34bf bb3d a4e9 5abb 7025 833d
00000010: cc26 1cbc 0971 05be 15af 013d 2981 a239
00000020: c2ae 7d3e 8830 1fbe 2e94 b23d 40c2 45bd
00000030: 340b 04bd 6e62 3bbe 6f4d dbbc e521 23be
00000040: 97bc f0bd 1dde 48bd 3248 113c 5e38 87bd
00000050: 2662 063e 192f 9abd f81d 98be 46c6 523c
00000060: 4492 a3bb efaa a2bd 80ad 9fbd caea 38be
00000070: 2ebc 563c 3928 0dbe e834 99bd 8b7a 9fbd
00000080: b20f 21be 2a56 6a3e 5009 bf3d b0cb 9b3d
00000090: b1c9 f5bc 7d67 50be d614 a6ba d95c 2d3e
000000a0: a081 14bd 78f1 52be 2b34 603d 6702 b8bd
000000b0: c92a d33d 077b 10be 93b5 553d 258a 11bd
000000c0: e9e5 52be 28b9 51bb 6950 2bbd 5323 833d
000000d0: c767 233d 28a0 b0bb d879 41bd 9ed7 86bb
000000e0: 2020 533d 98b8 a83c 094e ccbc 57a5 92bc
000000f0: a51a 9ebd 2d15 5cbd 04be 10be a5dd be3d
00000100: 53ea 52be c0ec 253d 806b e9bc 465c 633c
00000110: 68e5 87bd 31aa a03c 2d0b 52bd 321b 16be
00000120: 68cc c3bc a1ad 0d3e b1e7 513b 20c6 49be
00000130: ed29 823d 0b69 99bc 7934 4ebd 9ed9 53bd
00000140: d4db 923d aace fc3d e2a0 e73d 1c0e 8a3d
00000150: 4a64 9b3d d062 bd3d 081c c83d 35c7 a2bd
00000160: 360c e93d c016 1b3e 290f 7abd 7c16 a13c
00000170: 0c26 3b3e 33fe a4bd f1d7 5bbd 421f d03c
00000180: d8f9 bbbd d526 b7bd ea7a 8d3a 7031 f63c
00000190: e885 c6bc 84fb 88bd 693b 4abd 8ed8 d3bd
000001a0: 6c83 1b3d f206 0c3e eeb6 bd3b 0f7a 44be
000001b0: bd0d 563d 1a86 0f3e c5ef d03c 8a58 1fbe
000001c0: 15f4 97bd 7649 c23d 4200 c8bc c3fb 89bc
000001d0: 1291 a93d 18e7 703d c1f9 40bd 9124 6bbc
000001e0: 3945 43be 147d 0a3e a213 8cbd bf3a 0b3e
000001f0: f48f 0fbd e375 54bc a3d8 12bd e726 a1bc
00000200: a4fa 49bd 534c 64bd c972 99bd 7cf3 193e
00000210: b862 a63d 74ee 2d3c 8292 ac3d a30c 26be
00000220: 8dd5 12bc 7efc 893d c2ef 63ba 3995 033e
00000230: 3eb9 ee3b 00a1 d1bc f06c 49be a78b 06bc
00000240: 36d3 5abe 7966 523d 405a a9bd 9e00 98bd
00000250: 89a6 9bbd 282f ca3d 5d97 01be 2a93 ebbb
00000260: a8f6 86be 14f5 a0bd d6ab 88bd 77a3 1a3e
00000270: 34e5 243d a495 26bd 139e 29be 176e c5bc
00000280: 7135 21be ed86 6a3b 1da7 43bd 0fa8 eb3d
00000290: 73a0 853d f701 0bbe 53d5 4f3e 47a5 9abd
000002a0: c255 d73d e288 90bd ce55 05be e84f 91bd
000002b0: 4ee3 193e f9b2 bdbd e435 763d b82e c8bd
000002c0: b018 b23c 0b66 10be 0f85 dbbd 34d2 a7bd
000002d0: 8cad 92bd 9763 043c bd5b 2d3d ee6b e63d
000002e0: e956 913c 3e68 7abc be59 1e3d 1481 1bbd
000002f0: e411 d2bd 6d9a 0f3e 87fd 14be bb54 5ebe
00000300: 84ff 82bd 0b69 68bd aa07 123d 7caf 3f3c
00000310: 0bdc 0cbe ae73 9abc 1bc9 12bd e436 74bd
00000320: eba8 93bc 32e3 87bd 0e50 b6bd 36b8 94bd
00000330: 008f 43bd c070 ddbd 6c4b 7dbd a703 0ebe
00000340: d65a a13d 6f41 65be a4bb 0cbe 16ad 493e
00000350: 347f 253d 7b38 3c3d 2920 5abd 85f5 75bd
00000360: 4d7e aabd d54b c53d 19ba 83bd 7d23 e8bb
00000370: a996 103e 024e ac3b b069 a83b 4677 683e
00000380: 40ae a23d b168 12be 2241 083e 6ade d0bd
00000390: d993 123e f847 d53c 4841 9cbd 4b9a 0ebd
000003a0: c60a 4cbb 15f1 863d 2875 f23c d3f7 babc
000003b0: c0a0 d2bd a7e8 49bd b0e3 ddbd c617 333e
000003c0: b6b4 2b3e 72b3 41bd 1ff3 47bd 6dfb 503d
000003d0: 29d5 0c3e b06d d6bd 77e7 713c 6bb3 45be
000003e0: e22d f9bd d650 56b9 0111 1f3e 1d46 f6bc
000003f0: 0d63 d0bd d095 a03d a217 d33c 9f3b 813c

critic.0.bias f4 [64]
-0.045733076 -0.05441599 -0.061378885 0.0503259 -0.047055423 0.042877164 -0.04861473 -0.044454444
0.026024444 0.054208174 0.050970357 0.051771183 0.04969037 -0.054010328 0.045661133 -0.02461688
-0.049389597 -0.049600206 0.046594456 0.041425135 -0.055414274 -0.047552824 0.025830587 -0.043003958
0.051561236 0.051034372 0.025664145 0.04651512 0.0587487 -0.045317274 -0.051033523 0.053661145
-0.034678243 -0.044372324 -0.04767997 -0.042667493 -0.054988757 0.0037127566 -0.053329434 0.043592997
0.012603523 0.04735374 0.055659655 -0.047631547 -0.055013847 -0.044944823 0.054189198 0.03202889
0.052984156 -0.050425217 0.05223039 0.055479873 0.046775468 0.055710714 -0.05625587 -0.038523108
0.055342145 -0.04548055 0.05435642 0.05360012 0.053967386 0.046084806 0.04475674 -0.057356264
00000000: 9b52 3bbd 4de3 5ebd 6d68 7bbd 8822 4e3d
00000010: 30bd 40bd f79f 2f3d 3d20 47bd dd15 36bd
00000020: 3731 d53c 6409 5e3d 4bc6 503d 050e 543d
00000030: 2188 4b3d ef39 5dbd 2b07 3b3d 57a9 c9bc
00000040: bf4c 4abd 9629 4bbd d4d9 3e3d 67ad 293d
00000050: 14fa 62bd c0c6 42bd ab9a d33c eb24 30bd
00000060: e031 533d 6b09 513d 9d3d d23c a386 3e3d
00000070: 7aa2 703d 9b9e 39bd 8708 51bd cacb 5b3d
00000080: c60a 0ebd c1bf 35bd 124c 43bd 1cc4 2ebd
00000090: e43b 61bd b851 733b f76f 5abd 928e 323d
000000a0: 027f 4e3c fff5 413d 61fb 633d 4c19 43bd
000000b0: 3356 61bd 1018 38bd 7ef5 5d3d ba30 033d
000000c0: ea05 593d ac8a 4ebd 89ef 553d dd3e 633d
000000d0: a297 3f3d eb30 643d 8e6c 66bd 68ca 1dbd
000000e0: 72ae 623d d049 3abd d6a4 5e3d cd8b 5b3d
000000f0: e80c 5d3d 6cc3 3c3d d852 373d 67ee 6abd

critic.2.weight f4 [64, 64]
0.15374003 0.26001215 -0.05951043 0.0014754221 0.05544468 0.024640575 -0.014061702 -0.32903248
-0.02200162 -0.039259084 0.19127664 -0.13597392 0.0074185315 -0.13815176 0.05426949 0.094579495
0.18142149 -0.006103924 -0.3569175 0.18098117 -0.10512704 0.030622313 0.22832064 0.053239886
-0.17704861 -0.3379708 0.3461816 -0.14515549 -0.14048837 -0.083918944 0.014703861 0.04904297
-0.096234426 0.33368242 0.2651775 0.2210719 0.15523459 -0.0122180935 0.2484734 -0.061721098
0.09688059 -0.012821299 -0.43179446 0.33629072 -0.12956437 0.07381256 0.03709559 -0.22563961
-0.0374722 0.32572362 0.04240212 -0.210968 -0.036418207 0.22587562 0.035670813 0.035987776
-0.1268314 -0.0422423 0.021543186 0.3626324 0.037200704 -0.15611728 -0.0797281 -0.31906703
0.21984394 0.16777794 0.24831262 -0.114855185 0.008154667 -0.121718585 0.4861371 0.094456606
0.17685002 -0.10220048 0.098809995 0.106994845 -0.08149059 0.11420282 -0.11459232 0.10894344
-0.13648407 0.11231633 -0.055689372 -0.19281913 0.2490129 0.1780145 -0.0018055481 -0.2002807
-0.2606245 -0.0131340055 0.15468411 0.3029544 -0.11270251 -0.117578655 0.25450274 0.045765646
0.20288762 0.030476468 0.013913561 0.16980295 0.14284804 -0.02189044 -0.23072769 -0.3983544
0.15437663 -0.31234002 -0.20292741 0.07104568 0.10701658 -0.26362452 -0.2520889 0.2388513
-0.20101441 0.190427 -0.2507573 0.06837112 -0.03837477 0.13497148 0.06219196 -0.063631326
-0.01605378 -0.22792983 0.12489402 -0.025019139 0.19074823 0.19345307 0.07179661 0.16882275
0.15206942 0.051250022 0.11525145 0.21796651 -0.07063762 0.039359055 -0.11740522 -0.025261927
0.16880412 -0.04228306 -0.20366424 -0.24204013 -0.35073963 0.0756695 -0.17717469 -0.16612503
0.22832808 0.22262721 0.20524399 -0.2673105 0.15282646 0.0592129 0.41547137 -0.014410875
-0.19378158 -0.39797613 -0.16545449 -0.09706522 0.012219276 0.012909275 -0.066003256 -0.27987075
-0.15648314 -0.052835625 0.0007729706 0.14332746 -0.036164735 0.0041322038 0.063419 0.11736239
0.0037113456 0.2428477 -0.09380515 0.15932935 0.15585347 -0.5110371 0.34094116 -0.11243854
-0.17460288 0.11689353 -0.3251469 0.067405656 -0.12359652 -0.034396533 0.2314384 0.0076545295
0.07615103 0.10390365 -0.25163633 -0.02103865 -0.04774741 0.036970396 0.050414436 0.16309069
-0.22357489 0.21796022 -0.14344215 -0.21431087 0.2010254 -0.26379463 -0.106082246 0.059047047
-0.102062404 0.38981363 -0.2061473 -0.030077036 0.11936013 0.14225523 -0.36011234 -0.091967374
0.2930532 -0.029208617 -0.19723241 -0.0012227959 0.2069957 0.028280256 0.10761718 0.0103008915
-0.005214656 0.3144491 0.053190693 -0.028446324 0.19442272 -0.06289383 0.046454623 -0.17828108
0.016721636 0.03538239 0.13501953 0.28689355 -0.1811238 0.14347415 0.047238927 -0.1960398
0.08663177 -0.24748138 -0.016822087 -0.12630448 0.26043326 0.28311652 0.39512 -0.15873134
-0.24714883 0.35559013 0.01537336 -0.029833436 -0.29401687 0.06476764 0.23023841 -0.07533367
-0.13899262 -0.004497583 0.030938627 -0.27325225 -0.023055159 0.041571613 0.03507511 0.036669746
00000000: 076e 1d3e 5020 853e 35c1 73bd f362 c13a
00000010: f619 633d 08db c93c 0e63 66bc f276 a8be
00000020: be3c b4bc 22ce 20bd 06de 433e bf3c 0bbe
00000030: 2717 f33b a877 0dbe af49 5e3d e5b2 c13d
00000040: 8ec6 393e 6d03 c8bb e4bd b6be 2153 393e
00000050: d84c d7bd a5db fa3c e3cc 693e 1112 5a3d
00000060: 3b4c 35be 820a adbe b73e b13e a4a3 14be
00000070: 2fdc 0fbe b2dd abbd 77e8 703c 48e1 483d
00000080: 8e16 c5bd 6cd8 aa3e 58c5 873e ac60 623e
00000090: d1f5 1e3e 662e 48bc d06f 7e3e 43cf 7cbd
000000a0: 5569 c63d 6d10 52bc 2a14 ddbe 4c2e ac3e
000000b0: 86ac 04be 0a2b 973d 8cf1 173d 120e 67be
000000c0: 737c 19bd 3fc5 a63e d8ad 2d3d ff07 58be
000000d0: 422b 15bd f04b 673e 8f1b 123d eb67 133d
000000e0: 17e0 01be 4306 2dbd 567b b03c f4aa b93e
000000f0: c45f 183d 35dd 1fbe 7c48 a3bd c15c a3be
00000100: c51e 613e fbcd 2b3e aa45 7e3e 3239 ebbd
00000110: 279b 053c 9847 f9bd f6e6 f83e 7772 c13d
00000120: 2c18 353e 7c4e d1bd e55c ca3d 1d20 db3d
00000130: 8ae4 a6bd 2be3 e93d 61af eabd bd1d df3d
00000140: 7bc2 0bbe 1b06 e63d 8a1a 64bd 6172 45be
00000150: 3dfd 7e3e 6f49 363e 24a8 ecba 6216 4dbe
00000160: 9370 85be 0330 57bc 8365 1e3e d71c 9b3e
00000170: 93d0 e6bd 14cd f0bd 2f4e 823e c274 3b3d
00000180: c6c1 4f3e c9a9 f93c b4f5 633c d3e0 2d3e
00000190: c246 123e 9453 b3bc e143 6cbe 1cf5 cbbe
000001a0: e814 1e3e 08eb 9fbe 34cc 4fbe 6680 913d
000001b0: 822b db3d cbf9 86be cc11 81be 6f95 743e
000001c0: b9d6 4dbe 4cff 423e 4363 80be 2806 8c3d
000001d0: dd2e 1dbd f735 0a3e ffbc 7e3d 2451 82bd
000001e0: 3883 83bc 7066 69be 70c8 ff3d f0f4 ccbc
000001f0: 8153 433e 9018 463e 1a0a 933d dfdf 2c3e
00000200: 16b8 1b3e 8beb 513d f408 ec3d 9d32 5f3e
00000210: 75aa 90bd f636 213d 2672 f0bd 1af2 cebc
00000220: fdda 2c3e 0031 2dbd 5c8d 50be 5ed9 77be
00000230: 2594 b3be 9cf8 9a3d 486d 35be ae1c 2abe
00000240: d6ce 693e 63f8 633e 7b2b 523e ecdc 88be
00000250: 8a7e 1c3e 3a89 723d aab8 d43e 971b 6cbc
00000260: ae6e 46be 87c3 cbbe e76c 29be 21ca c6bd
00000270: 5c33 483c 6c81 533c b72c 87bd 384b 8fbe
00000280: 1e3d 20be 2b6a 58bd 2ea1 4a3a 6fc4 123e
00000290: 7921 14bd 7067 873b d2e1 813d b15b f03d
000002a0: 0c3a 733b 11ad 783e ea1c c0bd 3c27 233e
000002b0: 0d98 1f3e 54d3 02bf d78f ae3e 2d46 e6bd
000002c0: 19cb 32be e065 ef3d a879 a6be fa0b 8a3d
000002d0: 2c20 fdbd 61e3 0cbd 30fe 6c3e d9d2 fa3b
000002e0: 12f5 9b3d 70cb d43d 7ad6 80be 3f59 acbc
000002f0: ca92 43bd 456e 173d 5e7f 4e3d 3f01 273e
00000300: d1f0 64be f730 5f3e 80e2 12be 4f74 5bbe
00000310: 9ad9 4d3e 1710 87be a641 d9bd 51db 713d
00000320: 1806 d1bd a795 c73e 4718 53be 1e64 f6bc
00000330: 1573 f43d 5bab 113e a560 b8be 6459 bcbd
00000340: 120b 963e e946 efbc 4bf7 49be 3946 a0ba
00000350: aef6 533e ffab e73c 6566 dc3d 12c5 283c
00000360: b4df aabb 79ff a03e 7cde 593d 4408 e9bc
00000370: c016 473e 7bce 80bd 3447 3e3d 518f 36be
00000380: d0fb 883c 20ed 103d 8f42 0a3e b6e3 923e
00000390: 8478 39be e3ea 123e 9b7d 413d a8be 48be
000003a0: ff6b b13d c26b 7dbe 79ce 89bc f655 01be
000003b0: 8257 853e a6f4 903e 2b4d ca3e 788a 22be
000003c0: 9514 7dbe e90f b63e 8ce0 7b3c 4065 f4bc
000003d0: 6189 96be e5a4 843d 9ec3 6b3e 8a48 9abd
000003e0: 1554 0ebe 7660 93bb 0173 fd3c b8e7 8bbe
000003f0: 2cde bcbc ff46 2a3d ebaa 0f3d 0433 163d

critic.2.bias f4 [64]
-0.04416604 -0.046329744 -0.046694327 -0.041874036 -0.037308253 0.042019874 -0.04567634 0.04137948
0.031038098 0.047018275 -0.03888213 -0.044689577 0.042344496 0.03969911 -0.035685748 0.044530526
0.04423454 0.04422967 0.029196585 0.038855057 -0.028961467 0.044105466 0.041074213 0.04065523
0.025668854 -0.041290462 0.036948215 -0.03328355 0.048564747 0.034364898 -0.043508355 0.031851545
-0.039641708 0.030553302 -0.040055484 0.04773466 -0.042916194 -0.04251801 -0.05112825 -0.031258237
0.039629746 -0.04203256 -0.03629837 0.0120369755 0.04304363 0.042103097 0.044648074 -0.029144358
-0.037384033 0.036196962 -0.03201755 -0.03426999 0.04417152 -0.034355346 0.05027974 0.049003743
0.03474079 -0.03503907 -0.02686546 -0.027954865 0.038692486 0.038483597 -0.04260643 0.04681607
00000000: 73e7 34bd 42c4 3dbd 8d42 3fbd 1c84 2bbd
00000010: 8ad0 18bd 081d 2c3d 1d17 3bbd 887d 293d
00000020: 9c43 fe3c 3c96 403d de42 1fbd 6b0c 37bd
00000030: 6c71 2d3d 899b 223d 382b 12bd a465 363d
00000040: 472f 353d 2c2a 353d ad2d ef3c 7b26 1f3d
00000050: 9940 edbc efa7 343d 6f3d 283d 1986 263d
00000060: 7d47 d23c 3020 29bd 0357 173d 5554 08bd
00000070: d4eb 463d 35c2 0c3d d135 32bd c476 023d
00000080: 585f 22bd eb4a fa3c 3811 24bd 6b85 433d
00000090: e4c8 2fbd 5d27 2ebd db6b 51bd a308 00bd
000000a0: cd52 223d 552a 2cbd 9aad 14bd bc36 453c
000000b0: 844e 303d 4c74 2c3d e6e0 363d 26c0 eebc
000000c0: 0020 19bd 4443 143d d624 03bd b05e 0cbd
000000d0: 32ed 343d 31b8 0cbd 21f2 4d3d 26b8 483d
000000e0: 5c4c 0e3d 2185 0fbd f414 dcbc 9a01 e5bc
000000f0: 037c 1e3d faa0 1d3d 1484 2ebd 35c2 3f3d

critic.4.weight f4 [64, 64]
-0.21450277 0.10661074 -0.08798635 -0.2726795 -0.23790324 0.04255889 0.0015708584 0.106630504
0.17084607 0.31951442 0.055202644 -0.15538059 0.14224905 0.3751389 0.19123569 0.115344234
0.01910464 0.19656447 -0.12720838 0.1490501 -0.37741524 0.15495567 -0.038948312 0.13168228
0.1803391 0.016321916 0.2143117 0.108593695 0.061431553 0.24641785 0.16532016 -0.11987376
-0.08221648 0.27251634 0.08628795 0.09421129 0.024722205 -0.01728924 -0.07336898 0.03941592
-0.121808894 0.17797452 -0.052256018 0.029787114 -0.012288776 0.14534496 0.1670266 0.13854146
-0.11874433 -0.15629376 -0.07380424 -0.37882012 0.0028857377 0.2478534 0.36869222 0.15367399
-0.09823059 0.11829479 -0.34535486 -0.19939834 0.048774883 0.17684838 0.029288338 0.5725981
-0.20564355 -0.22466588 -0.17399336 -0.05223829 -0.2568196 0.13111873 -0.041467592 -0.15699343
0.0034405468 -0.034342825 -0.22856063 -0.06537263 0.05685886 -0.039687354 -0.44857898 0.15768082
-0.17995729 0.17381136 0.15014753 -0.16949458 -0.17287111 0.116928786 0.2605336 0.03822822
0.41090393 0.05826928 0.055647176 -0.12958983 0.35582706 -0.00048829964 0.015280491 0.19660428
-0.17767027 0.44864613 0.00294689 0.1180374 -0.27752444 0.07714598 0.08264232 0.13775235
0.19615811 -0.08469704 0.23940198 -0.13240047 0.047273353 -0.28112298 0.07302678 -0.28610682
-0.32512483 -0.22209413 -0.10102286 -0.06896183 -0.24029352 -0.00783052 -0.16746591 0.09791279
0.11520104 -0.14882536 -0.0534515 0.08331337 0.20482962 -0.28245184 -0.04482452 0.12772523
0.14312106 -0.003866209 0.112294175 0.10053495 0.031835712 -0.10305923 -0.02234893 -0.11066903
-0.18916117 -0.13449787 -0.23229843 -0.04371349 -0.5183436 0.060960326 -0.074999824 -0.11762881
-0.103939414 -0.074317634 -0.066677526 -0.17530271 0.050885525 0.13713253 -0.07796523 -0.21122845
-0.018380083 0.12654728 -0.39093882 0.39828378 -0.11052002 0.20535213 -0.017753959 -0.06441654
-0.11013255 0.01627602 0.11776356 0.19757783 0.35088825 0.032436296 0.41662577 -0.19846307
-0.08897186 0.42854616 0.007888271 0.18733041 -0.13702343 0.0058462443 -0.23170029 -0.1420281
0.39960945 -0.1979328 0.15725869 0.101691745 0.0068674525 -0.00307842 -0.15959592 0.02982863
0.12222737 0.189194 0.06196071 0.21964823 0.104743116 -0.0150571475 -0.24503052 0.29409635
0.019907292 -0.2766533 -0.20741288 0.033711378 -0.15556458 0.040839467 0.1538575 -0.10784735
0.08071704 0.061572578 0.12049296 -0.08415485 0.09268087 0.053024374 0.22770135 0.22908594
-0.08503176 0.029911483 -0.021909077 0.09211641 0.030817328 0.12405318 0.09293802 0.08102967
-0.10064261 -0.19306538 0.005592576 0.14491008 0.3027109 -0.08633219 -0.13049999 0.330466
0.11937982 0.087661654 -0.33046636 -0.032096922 -0.17269823 0.06499115 0.028434256 -0.36303517
-0.07758631 -0.002738242 0.15581955 0.2666391 -0.26695523 0.03289475 -0.23385699 -0.26304582
-0.07007035 0.31925675 -0.2824831 -0.22883052 -0.16924806 0.08241911 0.019409597 0.22219731
0.5215801 -0.08245151 -0.16869655 -0.3636074 -0.36246464 0.18740429 -0.13954996 0.07329908
00000000: 9da6 5bbe bb56 da3d 3032 b4bd a69c 8bbe
00000010: e89c 73be 3b52 2e3d 43e5 cd3a 1861 da3d
00000020: 46f2 2e3e 6597 a33e 2b1c 623d 171c 1fbe
00000030: bca9 113e 3512 c03e 4ad3 433e 9939 ec3d
00000040: 5681 9c3c 3248 493e ea42 02be 97a0 183e
00000050: 923c c1be b3ac 1e3e 4488 1fbd b8d7 063e
00000060: d0aa 383e 8ab5 853c 8774 5b3e 5f66 de3d
00000070: a79f 7b3d f654 7c3e b049 293e 6080 f5bd
00000080: 1d61 a8bd 4387 8b3e bdb7 b03d d9f1 c03d
00000090: 3986 ca3c 2aa2 8dbc 7a42 96bd 9672 213d
000000a0: f176 f9bd f43e 363e 680a 56bd 1b04 f43c
000000b0: dd56 49bc 4fd5 143e 0509 2b3e d0dd 0d3e
000000c0: 3a30 f3bd 790b 20be ad26 97bd b6f4 c1be
000000d0: a51e 3d3b 48cd 7d3e 3ac5 bc3e b75c 1d3e
000000e0: 1f2d c9bd 8a44 f23d 5ad2 b0be 142f 4cbe
000000f0: 2cc8 473d be17 353e 19ee ef3c ca95 123f
00000100: 3994 52be d00e 66be 512b 32be d1f7 55bd
00000110: dc7d 83be fd43 063e ecd9 29bd e3c2 20be
00000120: cc7a 613b 10ab 0cbd cc0b 6abe 16e2 85bd
00000130: d6e4 683d 358f 22bd 25ac e5be 1577 213e
00000140: b946 38be 9bfb 313e 46c0 193e fd8f 2dbe
00000150: 2005 31be 5c78 ef3d a964 853e 3295 1c3d
00000160: 0062 d23e c5ab 6e3d 4bee 633d 32b3 04be
00000170: f72e b63e 3c01 00ba 065b 7a3c a252 493e
00000180: 32ef 35be f2b4 e53e 9c20 413b 98bd f13d
00000190: af17 8ebe b6fe 9d3d 6040 a93d f40e 0d3e
000001a0: acdd 483e a475 adbd cb25 753e fd93 07be
000001b0: b4a1 413d 5aef 8fbe 108f 953d 987c 92be
000001c0: c376 a6be a56c 63be 13e5 cebd dc3b 8dbd
000001d0: 810f 76be 954b 00bc 2f7c 2bbe 8086 c83d
000001e0: 86ee eb3d ad65 18be f6ef 5abd 33a0 aa3d
000001f0: dbbe 513e 879d 90be ea99 37bd 67ca 023e
00000200: 548e 123e 3960 7dbb 7dfa e53d 45e5 cd3d
00000210: 2a66 023d b810 d3bd 1a15 b7bc 72a6 e2bd
00000220: 77b3 41be cfb9 09be a4df 6dbe eb0c 33bd
00000230: 2bb2 04bf 89b1 793d 8299 99bd 60e7 f0bd
00000240: 30de d4bd d833 98bd 3a8e 88bd 8e82 33be
00000250: 576d 503d 786c 0c3e 3cac 9fbd 454c 58be
00000260: d491 96bc 9c95 013e 2229 c8be daeb cb3e
00000270: 5258 e2bd d447 523e c070 91bc d2ec 83bd
00000280: 2d8d e1bd 4a55 853c 052e f13d d851 4a3e
00000290: a0a7 b33e ecdb 043d f94f d53e e739 4bbe
000002a0: e136 b6bd 676a db3e ce3d 013c 8bd3 3f3e
000002b0: df4f 0cbe da91 bf3b d742 6dbe d06f 11be
000002c0: 9c99 cc3e e5ae 4abe 6c08 213e c343 d03d
000002d0: 5e08 e13b 51bf 49bb 1d6d 23be 2c5b f43c
000002e0: 5852 fa3d 12bc 413e 83ca 7d3d 77eb 603e
000002f0: 8f83 d63d 41b2 76bc 48e9 7abe cc93 963e
00000300: 9e14 a33c 80a5 8dbe 0b64 54be f114 0a3d
00000310: 524c 1fbe 4947 273d d28c 1d3e 12df dcbd
00000320: fa4e a53d 8733 7c3d 03c5 f63d 6159 acbd
00000330: 78cf bd3d 1630 593d 8b2a 693e 8195 6a3e
00000340: 2225 aebd ed08 f53c aa7a b3bc 87a7 bc3d
00000350: 9f74 fc3c 980f fe3d 4a56 be3d e2f2 a53d
00000360: b61d cebd eeb2 45be ee41 b73b 4f63 143e
00000370: ecfc 9a3e eece b0bd caa1 05be d732 a93e
00000380: 687d f43d f487 b33d e332 a9be 1078 03bd
00000390: ced7 30be 141a 853d f5ee e83c bfdf b9be
000003a0: 92e5 9ebd 1474 33bb 298f 1f3e ec84 883e
000003b0: 5bae 88be a5bc 063d 3578 6fbe f1ad 86be
000003c0: 0b81 8fbd 9f75 a33e a0a1 90be 8c52 6abe
000003d0: 5d4f 2dbe 5acb a83d e000 9f3c b187 633e
000003e0: 4686 053f 56dc a8bd cabe 2cbe c02a babe
000003f0: f794 b9be e9e6 3f3e 2fe6 0ebe d41d 963d

critic.4.bias f4 [64]
0.023258068 0.0353558 -0.046094358 0.04992561 0.071366765 0.058884453 0.04351676 0.046986412
0.048781972 -0.0456025 -0.040170196 0.05163361 0.064788364 -0.073770165 0.048877303 0.047199313
-0.042502202 -0.030433143 0.04204757 0.032765582 0.049908616 0.051758938 0.0428089 0.060856305
0.05961521 -0.039547857 -0.038958702 0.042033143 -0.045396958 0.04668768 -0.07772377 -0.05420062
0.044091374 0.05306455 0.06044874 -0.05686284 -0.04068493 0.045072407 0.046973128 -0.03241334
-0.054218702 0.050666906 -0.03837276 0.03838098 0.02918902 -0.045552094 -0.058267966 -0.040076397
0.051979546 0.023295248 0.06393568 -0.034174196 -0.05411035 -0.055815417 -0.045819007 0.031632323
-0.042261537 0.04426801 0.041720804 0.053428598 -0.03956122 0.046911236 -0.043742936 0.051568937
00000000: b487 be3c 3ed1 103d 70cd 3cbd cc7e 4c3d
00000010: bd28 923d d330 713d a13e 323d d374 403d
00000020: 9bcf 473d b0c9 3abd 8189 24bd c47d 533d
00000030: c3af 843d d014 97bd 9133 483d 1154 413d
00000040: ca16 2ebd ed4e f9bc 133a 2c3d 3435 063d
00000050: fa6c 4c3d 2e01 543d 6358 2f3d 7644 793d
00000060: 142f 743d effc 21bd 2993 1fbd f22a 2c3d
00000070: 29f2 39bd 953b 3f3d a42d 9fbd 7801 5ebd
00000080: 2899 343d 375a 593d 1999 773d 02e9 68bd
00000090: 3ea5 26bd d89d 383d e566 403d dac3 04bd
000000a0: 6e14 5ebd 1a88 4f3d c12c 1dbd 6035 1d3d
000000b0: d01d ef3c d594 3abd 64aa 6ebd 2627 24bd
000000c0: 81e8 543d add5 be3c b6f0 823d 3efa 0bbd
000000d0: d0a2 5dbd b59e 64bd b6ac 3bbd e590 013d
000000e0: 6f1a 2dbd 5f52 353d 6fe3 2a3d f2d7 5a3d
000000f0: f20a 22bd ff25 403d cb2b 33bd f339 533d

critic.6.weight f4 [1, 64]
0.35327342 0.39868054 -0.24816886 0.19823895 0.089051 0.18740587 0.31657907 0.12318031
0.17007297 -0.28426683 -0.21304828 0.21752693 0.12150996 -0.12537867 0.28069887 0.142912
-0.2472073 -0.13743073 0.16684319 0.121796 0.13090575 0.16452429 0.12403675 0.0880531
0.12972638 -0.35958284 -0.3403376 0.18027657 -0.19395287 0.18828568 -0.10091094 -0.119546786
0.18702951 0.11059998 0.15946189 -0.13775639 -0.25869182 0.23872381 0.20416884 -0.1599746
-0.11345036 0.18948065 -0.14720652 0.22629753 0.27917245 -0.16669272 -0.17194913 -0.26774323
0.19760881 0.1334392 0.11014365 -0.081174314 -0.20302595 -0.14842615 -0.16009073 0.35667932
-0.14270964 0.18265286 0.25632614 0.18241376 -0.30250472 0.26095974 -0.2586917 0.21531478
00000000: 41e0 b43e db1f cc3e fa1f 7ebe 27ff 4a3e
00000010: 5f60 b63d 53e7 3f3e a716 a23e f545 fc3d
00000020: 9c27 2e3e 6c8b 91be 5429 5abe 61bf 5e3e
00000030: 37da f83d 4463 00be c3b7 8f3e 8657 123e
00000040: e923 7dbe a4ba 0cbe f1d8 2a3e 2e70 f93d
00000050: 280c 063e 0e79 283e fb06 fe3d 2f55 b43d
00000060: fed6 043e 3e1b b8be bb40 aebe 6c9a 383e
00000070: 959b 46be f6cd 403e 65aa cebd f2d4 f4bd
00000080: aa84 3f3e 3e82 e23d fa49 233e 0310 0dbe
00000090: 4173 84be 0474 743e a311 513e 62d0 23be
000000a0: aa58 e8bd 3707 423e 4ebd 16be 8aba 673e
000000b0: b1ef 8e3e 7fb1 2abe 6f13 30be a415 89be
000000c0: f759 4a3e 49a4 083e fe92 e13d b83e a6bd
000000d0: 09e6 4fbe 06fd 17be d3ee 23be ac9e b63e
000000e0: 7a22 12be 5a09 3b3e 2e3d 833e acca 3a3e
000000f0: e6e1 9abe 849c 853e 3d73 84be 7a7b 5c3e

actor.0.weight f4 [64, 200]
0.11021472 0.026127212 -0.061961595 0.042665683 -0.16053164 0.0017359621 -0.18166973 0.02521279
-0.20316464 -0.21294828 -0.18164359 -0.07088186 -0.04236825 0.0426627 0.0060895504 -0.07694373
0.15355015 0.006590474 0.045456413 0.026027797 -0.10912754 -0.02515646 -0.062057916 0.0037461335
-0.10193803 -0.0077601103 0.19080272 0.06977993 -0.008192299 0.023354849 -0.07587954 0.1343631
0.12281663 -0.0028751662 0.039907 0.040324807 0.114613645 -0.020924456 0.07753404 -0.21990554
-0.16140077 -0.013592196 0.02419474 0.122740306 -0.21284144 -0.14557736 -0.0064111995 -0.17031434
-0.0015097086 0.16572541 -0.04956707 -0.063931115 -0.12528859 -0.019251842 -0.06772219 0.1052623
-0.14371192 -0.04086326 0.08678157 -0.000514387 -0.06461404 0.035718992 0.034103032 0.056014746
-0.0848194 -0.087394424 -0.047442105 -0.009464413 -0.0355656 0.055032786 0.066148125 0.22298624
0.0056346594 -0.012654471 0.09728221 -0.048438873 0.116146356 0.0045775343 0.08450474 -0.02003284
0.11723679 0.0954011 0.15512262 0.11982827 0.09702311 0.07213171 0.030116672 0.036086414
-0.09843017 -0.12757128 0.03840685 0.09656027 0.00762662 -0.04425717 0.0809175 -0.08144654
-0.00066183764 -0.019819986 0.036654197 0.1381557 -0.096842945 -0.099752165 0.11465174 -0.07738844
-0.0684242 0.06899711 0.057311438 0.16888995 0.17148118 0.117830865 0.08840266 -0.011267327
-0.114839084 0.014896357 0.10231478 0.1935688 0.21586402 0.30589524 0.14988495 -0.0068965005
-0.06454482 -0.15505022 -0.040698763 -0.1124754 -0.041407745 -0.03424 -0.10920242 -0.14204644
0.07416614 -0.053297292 -0.010002689 0.13495375 0.051390775 0.21080495 0.10189418 -0.15116195
-0.056299094 0.06772212 0.05844057 -0.03127793 -0.027886754 -0.015936326 0.050140932 -0.059296384
-0.08969158 0.017244153 0.0410628 -0.06379365 0.10281462 -0.05939225 0.11094494 -0.19703473
-0.02717206 0.05483231 -0.008318228 -0.0011069202 -0.14107381 -0.032020476 -0.04404085 -0.04907919
-0.14413162 -0.015467274 -0.067666896 0.057753194 0.12484033 -0.06572962 -0.097619876 -0.1655187
0.15903345 0.11968737 -0.012714571 -0.045226235 0.08048032 -0.09276971 0.06338665 0.047479607
-0.08961726 -0.09957999 -0.1086163 0.0024161506 -0.06669539 -0.0047564986 0.18902557 0.0807554
-0.025014201 -0.026074424 -0.1340771 -0.1310311 -0.06009627 0.11773398 0.09325663 0.166868
0.017269019 0.15225841 -0.15475555 -0.015674783 -0.14313263 -0.045128666 0.15233286 0.029727658
0.045291536 -0.10993717 0.1512404 0.07845752 -0.07455381 0.04724652 0.1649863 -0.00022021458
-0.18447794 0.03721567 0.0834297 -0.07224683 0.009685133 -0.043691523 -0.06215745 0.0016097582
0.00838652 0.06552605 -0.08071523 0.090769544 0.04738888 0.021722473 0.05806444 0.051560797
0.1259822 -0.009606987 -0.082889326 -0.054181136 -0.17677788 -0.23266622 -0.13567536 0.045078535
0.11081329 0.17756951 -0.011287431 -0.033345368 0.18860874 0.065019675 -0.0044502183 -0.07442431
-0.097012185 0.18398365 0.08806142 -0.11379515 -0.029426621 0.078511864 -0.001644183 -0.0820802
0.15890862 0.04118617 -0.050641138 -0.06876672 0.0036794108 -0.09496776 0.10789994 0.19353865
00000000: 41b8 e13d bc08 d63c 71cb 7dbd 36c2 2e3d
00000010: 6862 24be 3989 e33a a107 3abe 0e8b ce3c
00000020: 640a 50be 1d0f 5abe c700 3abe 822a 91bd
00000030: 558a 2dbd 15bf 2e3d da8a c73b ad94 9dbd
00000040: 403c 1d3e e7f4 d73b 8130 3a3d 3f38 d53c
00000050: 427e dfbd ec14 cebc 7130 7ebd b181 753b
00000060: e3c4 d0bd 8648 febb ca61 433e c8e8 8e3d
00000070: fe38 06bc ab52 bf3c bb66 9bbd 7b96 093e
00000080: 4987 fb3d 496d 3cbb 8675 233d a02b 253d
00000090: 8fba ea3d c469 abbc 2bca 9e3d eb2e 61be
000000a0: 3e46 25be cdb1 5ebc 0c34 c63c 455f fb3d
000000b0: 1bf3 59be 3b12 15be 0a15 d2bb e266 2ebe
000000c0: 6ae1 c5ba ecb3 293e d706 4bbd 51ee 82bd
000000d0: a74b 00be 0ab6 9dbc eeb1 8abd c393 d73d
000000e0: 3829 13be 3c60 27bd 89ba b13d edd7 06ba
000000f0: 5e54 84bd 144e 123d 9faf 0b3d b86f 653d
00000100: cbb5 adbd d9fb b2bd a752 42bd a010 1bbc
00000110: 3cad 11bd 0f6a 613d ab78 873d 8156 643e
00000120: f3a2 b83b b354 4fbc e53b c73d d767 46bd
00000130: 24de ed3d 24ff 953b d210 ad3d e91b a4bc
00000140: d819 f03d a761 c33d 77d8 1e3e 8668 f53d
00000150: 0db4 c63d cab9 933d 3db7 f63c 59cf 133d
00000160: c295 c9bd 0ca2 02be 8050 1d3d 64c1 c53d
00000170: bae8 f93b 0247 35bd 13b8 a53d 72cd a6bd
00000180: 2c7f 2dba 865d a2bc b622 163d b078 0d3e
00000190: 9855 c6bd dd4a ccbd 88ce ea3d d57d 9ebd
000001a0: fd21 8cbd 5b4e 8d3d 66bf 6a3d 7df1 2c3e
000001b0: c398 2f3e 4f51 f13d 740c b53d 989a 38bc
000001c0: c130 ebbd da0f 743c 698a d13d e636 463e
000001d0: 750b 5d3e 4d9e 9c3e 717b 193e 0afc e1bb
000001e0: 1330 84bd 7cc5 1ebe bfb3 26bd 8159 e6bd
000001f0: 2b9b 29bd 3e3f 0cbd 85a5 dfbd 9f74 11be
00000200: 6be4 973d 434e 5abd 52e2 23bc 5131 0a3e
00000210: 227f 523d 41dd 573e e5ad d03d 33ca 1abe
00000220: e199 66bd e5b1 8a3d 615f 6f3d 491d 00bd
00000230: c372 e4bc e68c 82bc 9460 4d3d c4e0 72bd
00000240: 38b0 b7bd 9c43 8d3c 7731 283d 3fa6 82bd
00000250: 7990 d23d 4a45 73bd 1a37 e33d 79c3 49be
00000260: f197 debc d897 603d 2d49 08bc 1416 91ba
00000270: a775 10be e727 03bd 2e64 34bd 4307 49bd
00000280: 3d97 13be 736a 7dbc f194 8abd 9d8e 6c3d
00000290: 49ac ff3d 409d 86bd eeec c7bd bc7d 29be
000002a0: aad9 223e a71e f53d c750 50bc 253f 39bd
000002b0: ded2 a43d 0cfe bdbd dcd0 813d fa79 423d
000002c0: 4189 b7bd 98f0 cbbd 3972 debd 4858 1e3b
000002d0: 9897 88bd 67dc 9bbb eb8f 413e 1663 a53d
000002e0: 95ea ccbc 089a d5bc 824b 09be 042d 06be
000002f0: 8227 76bd 831e f13d 55fd be3d 72df 2a3e
00000300: c277 8d3c a1e9 1b3e 3d78 1ebe 6768 80bc
00000310: 5c91 12be d6d8 38bd 25fd 1b3e 6b87 f33c
00000320: 9e83 393d bd26 e1bd c3de 1a3e 56ae a03d
00000330: abaf 98bd 9185 413d 2bf2 283e 67e9 66b9
00000340: c9e7 3cbe 756f 183d 31dd aa3d 25f6 93bd
00000350: 64ae 1e3c e2f5 32bd cf98 7ebd 86fe d23a
00000360: 9d67 093c 8632 863d 074e a5bd 62e5 b93d
00000370: d81a 423d 54f3 b13c fad4 6d3d 6a31 533d
00000380: 7a01 013e a066 1dbc e1c1 a9bd 0aed 5dbd
00000390: 4305 35be 0e40 6ebe 7bee 0abe 45a4 383d
000003a0: 14f2 e23d c8d4 353e ebee 38bc 2795 08bd
000003b0: a622 413e 0929 853d 23d3 91bb c66b 98bd
000003c0: 53ae c6bd 3666 3c3e 8c59 b43d 6e0d e9bd
000003d0: 1910 f1bc d4ca a03d a081 d7ba aa19 a8bd
000003e0: f1b8 223e d4b2 283d 156d 4fbd 91d5 8cbd
000003f0: 4522 713b 757e c2bd a5fa dc3d ff2e 463e

actor.0.bias f4 [64]
-0.0034117037 0.0025418159 0.0015905586 -0.0012713494 0.0018132398 0.0036689728 -0.0003996967 -0.0023715557
0.00010264394 0.0038522247 0.0002871418 0.001761569 0.00095062365 -0.00071626087 -0.0007738637 0.0019452834
0.0015227621 -5.7444588e-05 -0.0009576602 0.00074897934 0.000226151 -0.000907523 0.0006890376 -0.0002883365
0.003685371 -2.0833735e-05 -0.0014320959 0.00063524226 -0.0018372112 -0.0017806992 0.0011744295 0.002055305
0.0020328234 -5.6826408e-05 -0.0012167295 -0.0011569029 0.00046309122 0.00030684995 0.0011890245 -0.00040502055
0.00050979416 -0.0020259104 0.00050276774 -9.691067e-05 0.00027616648 0.00069341034 0.0006133773 -0.0004104895
-6.574788e-05 -0.0008260919 -0.0017737506 -0.00078836083 -0.0011311341 0.0006470905 0.0016675537 -0.00166469
-0.0019550018 0.0003906166 -0.0015089046 0.00019227261 0.00032094546 -0.00025037525 -0.000474222 -0.00029533697
00000000: e496 5fbb 9894 263b 4a7a d03a 68a3 a6ba
00000010: 3baa ed3a 2673 703b 628e d1b9 1a6c 1bbb
00000020: 8c42 d738 9b75 7c3b 858b 9639 72e4 e63a
00000030: 4633 793a 74c3 3bba 1ddd 4aba e1f8 fe3a
00000040: 6b97 c73a a8f0 70b8 7d0b 7bba 2757 443a
00000050: f222 6d39 d6e6 6dba 88a0 343a df2b 97b9
00000060: 4486 713b 1bc4 aeb7 2ab5 bbba 6386 263a
00000070: 94ce f0ba 5a66 e9ba 51ef 993a 4cb2 063b
00000080: 1e39 053b e458 6eb8 ab7a 9fba 38a3 97ba
00000090: 0dcb f239 b4e0 a039 0bd9 9b3a f058 d4b9
000000a0: b5a3 053a 23c5 04bb 2ccc 033a 853c cbb8
000000b0: 70ca 9039 fbc5 353a 0ecb 203a f836 d7b9
000000c0: 20e2 89b8 178e 58ba 327d e8ba 00aa 4eba
000000d0: 9042 94ba 82a1 293a d191 da3a ba31 daba
000000e0: 7d1f 00bb accb cc39 70c6 c5ba c99c 4939
000000f0: 9244 a839 cc44 83b9 00a1 f8b9 75d7 9ab9

actor.2.weight f4 [64, 64]
-0.14220722 -0.027898878 -0.30887982 0.14884076 0.084064394 -0.011294485 0.019221589 -0.1848295
-0.104852796 -0.19722307 -0.19340518 -0.08553653 0.24689542 0.20760843 0.23556216 -0.10377932
0.047719408 -0.38227937 -0.24699952 0.1033526 0.25984654 0.0631404 0.14082035 0.053785216
0.29693538 -0.11715305 -0.1262194 -0.055838726 0.042731777 0.035051063 -0.41602775 -0.31520188
-0.118802 0.18398611 0.23406108 0.23181415 0.046190258 0.18077202 -0.09920129 0.11439046
0.17128345 -0.16269094 -0.2567724 0.030549645 0.004623204 0.053948473 -0.3511945 0.30879351
0.016300617 0.24142566 -0.09276161 0.056973062 -0.19918963 -0.011364398 0.1469882 -0.0477011
-0.18219033 0.16797733 0.06654455 0.07688352 -0.06649483 -0.24630612 0.01736043 -0.11575209
0.103199326 -0.021151995 0.1420037 -0.121604614 -0.07279333 -0.17823237 0.070296295 0.2694798
0.101449095 0.2142277 -0.019630384 -0.27277887 -0.24485189 0.08444245 0.23060536 0.123609826
-0.0836472 -0.03811153 0.0118528055 -0.20833711 -0.0033866074 0.13675164 -0.33055067 0.28318936
-0.18498956 0.06842404 0.03153407 0.24284475 0.06446177 -0.22287855 -0.048243694 -0.055016622
0.12759435 0.16616628 0.017223211 -0.09537465 -0.24674375 -0.074720964 -0.24108809 0.05244268
-0.022028057 0.13908193 -0.20804757 0.07900901 -0.08421509 0.16928566 -0.37582058 0.12468641
0.06276106 -0.4115109 -0.104060836 -0.13885121 -0.16576709 -0.014315702 0.24009003 -0.11821865
0.28784466 0.3823749 0.08848712 0.24135675 0.17529817 -0.121773735 -0.26277012 -0.04384168
-0.045537323 -0.21132728 -0.1659755 0.08443278 -0.071363725 -0.032707606 0.25565898 -0.033059355
-0.13672625 0.11601457 -0.22695176 0.1636414 -0.35077053 0.07953667 -0.11255289 -0.02387318
0.12669522 0.14570351 -0.18001702 0.034978073 -0.3517582 0.23236603 -0.1735619 -0.10473677
0.12966667 -0.19733027 -0.029494345 -0.15976387 0.017904066 0.0007425584 0.090506025 -0.053045545
0.005523846 -0.07130936 0.20245029 -0.33555433 0.6017063 -0.053501133 0.061554193 0.021715024
-0.25566667 0.3556287 -0.12496996 0.03314832 -0.18705957 -0.25584996 -0.10431243 0.14944741
0.031176466 -0.08241695 -0.11369732 0.16847254 0.06421675 -0.053817645 -0.049087252 0.03427043
0.1063607 0.049435463 -0.10790157 -0.18840237 -0.11719392 -0.3774039 -0.03834735 -0.24915853
0.07687425 0.108484015 0.10998738 -0.036752567 -0.09649288 0.1606775 -0.35358948 0.34290954
0.06093339 -0.058081057 -0.09600668 0.27893555 0.1233581 -0.0030506984 0.06167342 -0.051258415
0.2192854 -0.2365009 -0.069041684 -0.11440363 -0.05037383 -0.078023024 -0.0331133 0.15125133
0.069226235 0.019618072 0.11347464 -0.14896107 0.10669379 0.16676748 0.19311556 -0.2942424
0.027046425 -0.06897301 0.19436821 -0.25306553 -0.0097849555 0.25509202 -0.06572155 0.19628184
0.19709711 0.20320968 0.015349893 -0.09744786 -0.24224716 -0.46408302 -0.060360458 -0.042917192
-0.10917581 -0.12375037 -0.22077341 0.00672271 -0.2897256 -0.08340365 -0.039322592 -0.10219118
0.061965633 -0.4443712 0.17056236 0.3393714 -0.065164424 0.1471833 -0.05413144 0.28442383
00000000: c59e 11be 308c e4bc 7f25 9ebe b669 183e
00000010: f429 ac3d 810c 39bc 9876 9d3c f243 3dbe
00000020: 10bd d6bd d8f4 49be 020c 46be c72d afbd
00000030: 27d2 7c3e 4e97 543e 3537 713e 418a d4bd
00000040: 6d75 433d 1fba c3be 71ed 7cbe 87aa d33d
00000050: 9b0a 853e c14f 813d 3633 103e e34d 5c3d
00000060: ea07 983e f0ed efbd a93f 01be 26b7 64bd
00000070: 8407 2f3d b491 0f3d 9701 d5be 2462 a1be
00000080: 774e f3bd db66 3c3e b5ad 6f3e b060 6d3e
00000090: ff31 3d3d 4d1c 393e 0c2a cbbd 8c45 ea3d
000000a0: ee64 2f3e 7498 26be ac77 83be 4043 fa3c
000000b0: 3f7e 973b 13f9 5c3d c4cf b3be 2f1a 9e3e
000000c0: df88 853c 4a38 773e cdf9 bdbd 965c 693d
000000d0: 5ef8 4bbe bd31 3abc 1384 163e 3b62 43bd
000000e0: 1a90 3abe 4002 2c3e 8248 883d 1b75 9d3d
000000f0: 712e 88bd ac37 7cbe 7637 8e3c 6f0f edbd
00000100: 2b5a d33d f346 adbc 6b69 113e d70b f9bd
00000110: ab14 95bd 8c82 36be 81f7 8f3d 42f9 893e
00000120: 8bc4 cf3d 825e 5b3e e6cf a0bc aca9 8bbe
00000130: 74ba 7abe 2af0 ac3d d023 6c3e 2627 fd3d
00000140: 394f abbd d61a 1cbd 4532 423c 5356 55be
00000150: d8f1 5dbb 9f08 0c3e f03d a9be 32fe 903e
00000160: e76d 3dbe e721 8c3d de29 013d 4bac 783e
00000170: 8804 843d 463a 64be 2e9b 45bd 1c59 61bd
00000180: 18a8 023e 7e27 2a3e b117 8d3c c953 c3bd
00000190: 65aa 7cbe 4e07 99bd ccdf 76be 23ce 563d
000001a0: 2f74 b4bc 7e6b 0e3e 6c0a 55be 7acf a13d
000001b0: f678 acbd 3859 2d3e 8e6b c0be 975b ff3d
000001c0: df88 803d 8fb1 d2be d91d d5bd 032f 0ebe
000001d0: d9be 29be 688c 6abc 29da 753e 9f1c f2bd
000001e0: 6060 933e a5c6 c33e bc38 b53d 3926 773e
000001f0: 5d81 333e 8264 f9bd ce89 86be 5593 33bd
00000200: 5885 3abd 2e66 58be 7bf5 29be 18eb ac3d
00000210: 2527 92bd 69f8 05bd bce5 823e 3f69 07bd
00000220: f701 0cbe 0c99 ed3d 0b66 68be 9c91 273e
00000230: 3298 b3be 1fe4 a23d 2182 e6bd b091 c3bc
00000240: 64bc 013e 4d33 153e 6256 38be 2b45 0f3d
00000250: a719 b4be 5cf1 6d3e 36ba 31be 3b80 d6bd
00000260: 57c7 043e f210 4abe 209e f1bc 2499 23be
00000270: 8cab 923c 40a8 423a 395b b93d 4946 59bd
00000280: 6101 b53b a40a 92bd 214f 4f3e c7cd abbe
00000290: 6d09 1a3f 0124 5bbd 4020 7c3d b5e3 b13c
000002a0: bee6 82be f714 b63e 40f0 ffbd 88c6 073d
000002b0: 8b8c 3fbe c4fe 82be c1a1 d5bd be08 193e
000002c0: ca65 ff3c 38ca a8bd 24da e8bd 1184 2c3e
000002d0: 1284 833d e46f 5cbd b70f 49bd 275f 0c3d
000002e0: a4d3 d93d d77c 4a3d 80fb dcbd 8dec 40be
000002f0: 5e03 f0bd 153b c1be 1c12 1dbd 6a23 7fbe
00000300: 3f70 9d3d de2c de3d 1041 e13d dc89 16bd
00000310: 0f9e c5bd a488 243e ae09 b5be d791 af3e
00000320: 4a95 793d 67e6 6dbd 269f c4bd a4d0 8e3e
00000330: 2ca3 fc3d 3aee 47bb 459d 7c3d 58f4 51bd
00000340: 5a8c 603e 4b2d 72be ba65 8dbd 734c eabd
00000350: ca54 4ebd 89ca 9fbd d0a1 07bd a1e1 1a3e
00000360: 7cc6 8d3d 14b6 a03c 6465 e83d 4089 18be
00000370: 4682 da3d 18c5 2a3e 16c0 453e f1a6 96be
00000380: 7790 dd3c b941 8dbd 7608 473e ce91 81be
00000390: 1451 20bc 6c9b 823e 0599 86bd 1bfe 483e
000003a0: d3d3 493e 3316 503e 1e7e 7b3c be92 c7bd
000003b0: a40f 78be 4a9c edbe 873c 77bd f0c9 2fbd
000003c0: 9197 dfbd d670 fdbd 6d12 62be 2e4a dc3b
000003d0: ea56 94be 88cf aabd ba10 21bd 9c49 d1bd
000003e0: adcf 7d3d 9f84 e3be e6a7 2e3e 17c2 ad3e
000003f0: ed74 85bd 38b7 163e eeb8 5dbd 00a0 913e

actor.2.bias f4 [64]
-0.00014911873 -0.00051364413 -0.001451694 -0.0005463062 0.0009983967 -0.0022266845 0.0007268068 0.0015032913
-0.002033756 -0.0017062183 0.0014051724 -0.00028786145 -0.0013694082 -0.00029543822 0.00019425234 -0.0010056782
0.0008041875 0.00093282823 0.00036998536 -0.0018591034 0.0028950989 -0.0012555687 -0.0008898647 0.0016916275
0.00061193435 7.0372926e-06 0.00077574083 -0.0012769141 -0.00047393315 -0.0003965167 -0.0030651076 0.00013226834
0.0027414076 0.00063376053 -0.00064997777 -0.0017435096 0.0011122364 0.00017665644 0.0017921161 0.00059246115
0.0013695436 0.0006766239 -0.00082222477 0.0007232864 0.0015394136 -0.0011290713 -0.0003141105 0.0007089573
-0.00026695838 0.0019543306 -0.0006749768 0.0022935963 0.0015772053 -0.0016802403 -0.0023383165 0.00043977782
0.0011553512 0.0004999333 -0.0007581163 -0.0025830532 0.0011411159 -0.0010704126 0.0007567293 -0.0012939969
00000000: c15c 1cb9 13a6 06ba c546 beba fd35 0fba
00000010: a2dc 823a 91ed 11bb 2e87 3e3a 160a c53a
00000020: c448 05bb 30a3 dfba c32d b83a 1cec 96b9
00000030: b77d b3ba 0ce5 9ab9 37b0 4b39 f6d0 83ba
00000040: 1cd0 523a 0b89 743a 98fa c139 29ad f3ba
00000050: b3bb 3d3b e591 a4ba cf45 69ba 9ab9 dd3a
00000060: 386a 203a e221 ec36 165b 4b3a 215e a7ba
00000070: 3b7a f8b9 92e3 cfb9 f9df 48bb 83b1 0a39
00000080: 30a9 333b f322 263a 4563 2aba 7986 e4ba
00000090: 76c8 913a da3c 3939 70e5 ea3a 654f 1b3a
000000a0: 4282 b33a 765f 313a 928a 57ba ee9a 3d3a
000000b0: 26c6 c93a 59fd 93ba 33af a4b9 52d9 393a
000000c0: 8cf6 8bb9 3a14 003b edf0 30ba 2950 163b
000000d0: 3aba ce3a 823b dcba 713e 19bb fb91 e639
000000e0: 276f 973a f50d 033a 53bc 46ba 7148 29bb
000000f0: 7f91 953a 164d 8cba 3e5f 463a 559b a9ba

actor.4.weight f4 [64, 64]
0.50288767 0.1523037 -0.20352538 0.004470119 0.019705141 0.1456934 0.06653803 0.010416993
0.19232666 0.08010199 -0.2338722 0.013061018 -0.22694768 -0.14589915 0.013551387 -0.21782437
0.011820013 -0.31405658 0.14860238 0.2031278 0.26434475 -0.13807718 -0.16681515 0.013450924
0.028129077 -0.22514318 0.18741438 -0.3316898 -0.10668588 0.10316222 -0.17991766 -0.21057247
-0.2497215 0.12827055 0.084518574 0.29048675 0.24119319 0.25698495 0.11879215 0.07415596
-0.016395638 0.3075241 0.07203031 -0.17200598 0.09561728 0.11411657 -0.073668815 0.03677755
-0.2871047 -0.06593072 0.045971625 0.09807897 -0.03287914 -0.07585703 0.044490036 -0.029332643
0.057200875 -0.18866359 -0.10556115 0.19616432 -0.3136742 -0.040195152 0.28295824 -0.104962304
0.2763381 -0.112704515 0.11792695 -0.19653668 0.230119 0.14122906 0.26930216 0.48887122
0.042683624 0.27168608 -0.015967699 0.32092178 0.08011737 -0.072849795 -0.0035982213 -0.10611682
0.06530733 0.3024382 -0.23287752 0.20903686 0.1367648 0.091805205 0.11134233 0.0071921134
0.27006802 0.23836021 -0.10335995 -0.0057255654 0.10314469 0.20015183 -0.19349322 -0.1648178
-0.006289621 -0.35344404 -0.0013892407 -0.07286724 -0.131697 0.109179676 -0.30664167 0.101944715
0.16352674 0.004066008 -0.14243652 0.08508719 -0.015837867 -0.23962785 -0.05532343 -0.02758658
0.15172529 -0.034782287 -0.08486697 -0.16858009 0.33457848 -0.01998215 -0.094075665 -0.13776784
0.12067855 -0.09178073 -0.22363295 -0.13031144 -0.308499 0.010261501 -0.12671062 -0.04563102
0.056230873 -0.2727025 -0.17491695 0.29795912 0.1858662 -0.03996117 -0.023913875 -0.18127434
0.06119289 0.16300437 0.2538781 0.24332888 0.1467795 0.089192085 -0.14793926 0.3122608
0.2584344 0.026288927 0.2381759 -0.12125998 0.021047834 0.1244889 -0.093960024 -0.15459055
-0.018406847 0.17708482 0.13803798 0.05687892 0.009999735 0.21096788 -0.24457274 -0.13909751
0.1732936 0.11347458 -0.017269727 0.034970056 0.3200786 0.10936222 -0.02996905 -0.06890419
-0.12601824 0.096620746 -0.14023119 -0.29980367 0.24972476 -0.06812398 0.25705883 0.02668052
-0.14869265 -0.16946805 -0.15230764 0.060786307 0.20434485 0.16088897 0.065809004 0.15327087
-0.3677902 0.11233355 -0.44996178 -0.14537828 0.23065181 0.05127297 -0.016545756 0.17823493
0.36943227 -0.10579104 -0.028611986 -0.16655096 0.22720067 0.018883254 0.036054883 0.19638935
0.30837643 -0.24790487 -0.07014345 0.28076068 0.43220574 0.20844752 0.26377136 0.15979873
-0.075985625 0.07725311 0.24408233 -0.32730356 -0.21641022 -0.039075628 0.21544069 0.17189024
-0.16417159 -0.040784676 0.21377225 -0.0169302 -0.2517922 -0.075546205 -0.09836953 0.06314474
0.022900442 -0.10438419 -0.2150722 0.06094992 -0.13458534 -0.18501596 0.30359802 -0.13532853
0.017978126 -0.011673726 0.1628623 0.06251177 -0.07699511 -0.17362005 -0.23604992 0.09478449
-0.25180984 -0.18596807 0.1800112 0.10334817 0.11040841 -0.17245436 -0.0438286 -0.15684868
-0.106260344 0.04530293 0.23653911 -0.0015321185 -0.012868179 0.10822011 0.047966234 0.23938458
00000000: 3fbd 003f 80f5 1b3e f568 50be 137a 923b
00000010: ad6c a13c a730 153e 1745 883d 09ac 2a3c
00000020: 48f1 443e 830c a43d 327c 6fbe e1fd 553c
00000030: f964 68be 9666 15be a306 5e3c 5a0d 5fbe
00000040: baa8 413c 06cc a0be 392b 183e bc00 503e
00000050: 3258 873e 1b64 0dbe 97d1 2abe 4461 5c3c
00000060: f36e e63c ef8b 66be 8ee9 3f3e 3fd3 a9be
00000070: 207e dabd b746 d33d 563c 38be 4fa0 57be
00000080: feb6 7fbe 5b59 033e 1318 ad3d aeba 943e
00000090: 59fb 763e 8893 833e 4c49 f33d 14df 973d
000000a0: 2550 86bc cd73 9d3e a184 933d 5622 30be
000000b0: fed2 c33d f3b5 e93d addf 96bd 0ea4 163d
000000c0: 63ff 92be af06 87bd be4c 3c3d a1dd c83d
000000d0: 47ac 06bd ee5a 9bbd 2f3b 363d 034b f0bc
000000e0: 774b 6a3d 0731 41be 7230 d8bd 4ddf 483e
000000f0: e899 a0be aca3 24bd e7df 903e 7af6 d6bd
00000100: 307c 8d3e a0d1 e6bd af83 f13d e940 49be
00000110: 51a4 6b3e 5a9e 103e f9e1 893e 544d fa3e
00000120: 06d5 2e3d 701a 8b3e b1ce 82bc dc4f a43e
00000130: 9314 a43d 4632 95bd 23d0 6bbb c653 d9bd
00000140: d9bf 853d 2ed9 9a3e 7277 6ebe c20d 563e
00000150: 120c 0c3e 5e04 bc3d 7307 e43d d2ab eb3b
00000160: 5b46 8a3e b314 743e 62ae d3bd 869d bbbb
00000170: 863d d33d 9af4 4c3e 1623 46be ffc5 28be
00000180: 2a19 cebb 9ef6 b4be 2f17 b6ba 6b3b 95bd
00000190: 94db 06be 9899 df3d 2300 9dbe 64c8 d03d
000001a0: 8e73 273e 263c 853b e1da 11be 3142 ae3d
000001b0: 6abe 81bc 0161 75be d29a 62bd 40fd e1bc
000001c0: e05d 1b3e df77 0ebd bcce adbd 42a0 2cbe
000001d0: df4d ab3e 9bb1 a3bc beaa c0bd 0313 0dbe
000001e0: 5126 f73d 89f7 bbbd 0900 65be 5d70 05be
000001f0: 95f3 9dbe db1f 283c 6ec0 01be 98e7 3abd
00000200: 5852 663d a99f 8bbe 6e1d 33be 198e 983e
00000210: b653 3e3e 53ae 23bd 08e7 c3bc fb9f 39be
00000220: 65a5 7a3d 9eea 263e 4ffc 813e 352b 793e
00000230: 5e4d 163e 57aa b63d 647d 17be a6e0 9f3e
00000240: 8451 843e e05b d73c 62e4 733e 2757 f8bd
00000250: 826c ac3c 09f4 fe3d 1d6e c0bd fc4c 1ebe
00000260: f5c9 96bc b955 353e d459 0d3e dff9 683d
00000270: eed5 233c f707 583e 4771 7abe 946f 0ebe
00000280: e173 313e 5c65 e83d 3e79 8dbc c33c 0f3d
00000290: 58e1 a33e 4df9 df3d a781 f5bc a41d 8dbd
000002a0: ed0a 01be 19e1 c53d c498 0fbe de7f 99be
000002b0: d9b7 7f3e 9684 8bbd 379d 833e 1b91 da3c
000002c0: e342 18be 0889 2dbe 89f6 1bbe 10fb 783d
000002d0: c73f 513e 14c0 243e dfc6 863d 0af3 1c3e
000002e0: ff4e bcbe 220f e63d 6461 e6be 0bde 14be
000002f0: fd2f 6c3e 9b03 523d f78a 87bc 3883 363e
00000300: 3a26 bd3e f9a8 d8bd af63 eabc 568c 2abe
00000310: 4ba7 683e 0eb1 9a3c 49ae 133d 4a1a 493e
00000320: 84e3 9d3e c6da 7dbe 5ea7 8fbd ddbf 8f3e
00000330: 124a dd3e 4473 553e 0a0d 873e 47a2 233e
00000340: 5a9e 9bbd e136 9e3d b8f0 793e 5594 a7be
00000350: a49a 5dbe c40d 20bd 7c9c 5c3e ff03 303e
00000360: 991c 28be d50d 27bd 1de7 5a3e 34b1 8abc
00000370: e8ea 80be f8b7 9abd f775 c9bd 0852 813d
00000380: b599 bb3c 61c7 d5bd e33b 5cbe a0a6 793d
00000390: bdd0 09be d374 3dbe 3371 9b3e 9093 0abe
000003a0: dd46 933c 2843 3fbc 60c5 263e 2c06 803d
000003b0: 9daf 9dbd 74c9 31be 12b7 71be 5f1e c23d
000003c0: 38ed 80be 6a6e 3ebe db54 383e 35a8 d33d
000003d0: ce1d e23d e097 30be 9e85 33bd f19c 20be
000003e0: 069f d9bd 918f 393d 4f37 723e 5ed1 c8ba
000003f0: 0ed5 52bc 81a2 dd3d 3e78 443d 3b21 753e

actor.4.bias f4 [64]
-0.0005073084 0.00024901042 0.0009020497 -0.00029114838 -0.0015503265 -0.0018415563 0.0017397071 -9.062287e-05
-0.0015860745 0.00034827524 -0.00022317127 0.0016262385 -0.000773652 0.00042282126 -0.000204472 0.00013432876
0.0023164316 0.00020625061 -0.0012525019 0.0004286773 0.0005594901 0.00031973634 0.00036404285 -0.0005712821
0.00027540172 0.0016535053 0.001173461 -0.0023971735 0.001212811 0.00031102131 0.0007706488 -0.00052612956
0.0007543138 -0.0005959594 -0.00021713166 0.000567798 0.0024072214 0.0006698614 -0.0028578723 0.00064809935
0.0014516894 -0.00048015502 -0.0010228029 -0.00037733873 0.00023603355 0.0027179746 0.0008862266 0.0002676152
0.0023215222 -0.00029837879 -0.00048818323 -0.002404551 0.0003500561 0.0001766238 0.002271081 -0.0018975975
-0.0023859676 0.00019159439 -0.0018224295 -0.0015983261 0.0022676222 0.0014130246 0.00073711737 -0.0012684406
00000000: e4fc 04ba 9d8d 8239 8877 6c3a 46a5 98b9
00000010: 5334 cbba 6060 f1ba e206 e43a c80c beb8
00000020: d4e3 cfba b698 b639 1503 6ab9 8227 d53a
00000030: e8ce 4aba 1cae dd39 8967 56b9 9ada 0c39
00000040: 46cf 173b fa44 5839 fd2a a4ba 18c0 e039
00000050: bfaa 123a 49a2 a739 01dd be39 18c2 15ba
00000060: cb63 9039 6eba d83a d1ce 993a e619 1dbb
00000070: 2ff7 9e3a 9310 a339 5e05 4a3a f5eb 09ba
00000080: 24bd 453a 293a 1cba d6ad 63b9 47d8 143a
00000090: 79c2 1d3b a399 2f3a 244b 3bbb 36e5 293a
000000a0: 9d46 be3a 51bd fbb9 920f 86ba 8cd5 c5b9
000000b0: c67f 7739 0c20 323b a951 683a b44e 8c39
000000c0: ae24 183b b96f 9cb9 d8f2 ffb9 ac95 1dbb
000000d0: bc87 b739 1734 3939 6bd6 143b ceb8 f8ba
000000e0: e55d 1cbb bae6 4839 96de eeba ed7e d1ba
000000f0: 639c 143b 3d35 b93a 1c3b 413a ce41 a6ba
