Tetris-PPO/trained/PPO/tetris_6/stage1.pth (torch, 183709 bytes, 15 tensors)

critic.0.weight f4 [64, 200]
000000 d1 80 63 bd ce ec bc 3d 9f 80 3d bb c3 0e 94 3d
       -0.05554277 0.092248544 -0.0028915775 0.07229378
000010 ad 2e 83 3b 08 68 ed bd b5 02 23 3d 84 9b a3 39
       0.004003367 -0.11592108 0.039797504 0.0003120565
000020 5b bd 7d 3e 89 23 1f be e6 cd b3 3d c5 ce 42 bd
       0.24779265 -0.155409 0.087795064 -0.047560472
000030 20 ed 01 bd 86 12 3b be 93 91 56 bc 5f a1 15 be
       -0.03172028 -0.18268785 -0.013096231 -0.1461234
000040 54 d9 e4 bd 42 cb 48 bd 9a 6c 12 3c bd 0b 87 bd
       -0.111742646 -0.049021967 0.008937025 -0.06594036
000050 44 48 07 3e 7e 6d 98 bd 5a f1 97 be 09 ca 5b 3c
       0.13211161 -0.07442759 -0.29676324 0.013414868
000060 15 d8 9e bb 10 79 a2 bd eb 8c 9f bd d4 bf 38 be
       -0.0048475363 -0.07933247 -0.0779055 -0.18041927
000070 f6 a9 5a 3c a3 f9 0c be f3 7a 97 bd 2c 21 9d bd
       0.013346186 -0.13767104 -0.073964976 -0.07672343
000080 31 e9 1f be 10 99 6b 3e 07 fe c0 3d 4a 30 9d 3d
       -0.15616299 0.23007607 0.09423452 0.07675226
000090 a6 ce ef bc 06 1d 50 be be 05 5c ba 2a be 2d 3e
       -0.029273342 -0.20323572 -0.00083931896 0.16967073
0000a0 e5 7a 10 bd cd 99 51 be f0 dc 65 3d d9 4a b5 bd
       -0.03527345 -0.20468827 0.056118906 -0.08852167
0000b0 33 ed d5 3d 79 ca 0f be aa e0 59 3d 93 90 0f bd
       0.10445633 -0.14042081 0.053192772 -0.035049986
0000c0 1f 52 52 be 7e fd 39 bb e8 ec 24 bd 4a 0f 87 3d
       -0.20539139 -0.0028379853 -0.040264994 0.06594713
0000d0 eb e6 2b 3d d5 29 5f bb 02 a1 3a bd 38 29 2e bb
       0.041968267 -0.0034052033 -0.045563705 -0.0026574861
0000e0 4a c5 58 3d b8 29 b1 3c ca 6e c5 bc 10 86 8e bc
       0.052922525 0.021626338 -0.02410068 -0.01739791
0000f0 86 37 9b bd df d7 54 bd 9a c7 0e be e4 6b c3 3d
       -0.0757895 -0.051963683 -0.1394333 0.09542063
000100 8c e8 51 be c6 c6 2b 3d 98 94 dc bc e0 ee 74 3c
       -0.20498866 0.041937612 -0.026926324 0.01494953
000110 7a 3f 86 bd 6f f4 a6 3c 79 0c 4a bd 41 e5 13 be
       -0.06555076 0.020380227 -0.0493283 -0.14442922
000120 a2 dd af bc ec d3 10 3e 36 5e 9e 3b 76 41 48 be
       -0.021467987 0.14143342 0.004833008 -0.19556221
000130 11 1f 86 3d 01 06 8e bc e2 c0 49 bd 67 0e 50 bd
       0.06548894 -0.017336847 -0.049256213 -0.050794985
000140 2b 21 99 3d a0 ce 01 3e b9 75 ee 3d ae 9c 91 3d
       0.074770294 0.12676477 0.116435476 0.071099624
000150 12 77 a0 3d 2c fa c2 3d 3b 8e cd 3d 3d 97 9f bd
       0.07835211 0.09520373 0.10036894 -0.07792518
000160 5b 44 ec 3d 71 8a 1c 3e 1a c9 70 bd d3 cd b9 3c
       0.11536475 0.15287186 -0.058785535 0.022681152
000170 76 93 3e 3e 15 62 9f bd b0 6c 53 bd af 05 e4 3c
       0.1861094 -0.077823795 -0.051617324 0.027834741
000180 fb 00 b8 bd 33 ea b4 bd 50 e5 26 3b a3 4b 01 3d
       -0.08984562 -0.088337325 0.002546627 0.031566273
000190 b4 85 b3 bc c9 9d 83 bd 54 36 41 bd 71 66 cf bd
       -0.02191434 -0.064265795 -0.047170952 -0.10126961
0001a0 3a c6 24 3d a5 42 0f 3e 5b 06 06 3c 8d 17 43 be
       0.040228106 0.13990267 0.008180226 -0.19051953
0001b0 13 32 5e 3d 56 6a 11 3e 19 bd e3 3c d1 6a 1c be
       0.054246973 0.1420072 0.02780013 -0.15275122
0001c0 a8 25 93 bd 27 58 c7 3d 7a 82 b9 bc 0b e9 69 bc
       -0.07184917 0.097336106 -0.022645224 -0.014276753
0001d0 c3 bd af 3d 25 b9 7b 3d de 86 39 bd 6a 74 52 bc
       0.08581116 0.061455864 -0.045294635 -0.012845138
0001e0 eb c7 40 be d3 0b 0e 3e 82 07 86 bd 38 48 0e 3e
       -0.18826263 0.13871698 -0.06544401 0.13894737
0001f0 db e0 05 bd 57 44 33 bc cf 34 07 bd 2a 16 8b bc
       -0.032685142 -0.010941586 -0.033009347 -0.016978342
000200 c6 e7 42 bd 0e 7f 5d bd 21 f5 93 bd b5 c0 1d 3e
       -0.047584318 -0.054076247 -0.07224489 0.15405543
000210 ad 69 ad 3d 94 7d 5c 3c f6 92 b1 3d 7f f6 23 be
       0.08467422 0.0134576745 0.08670609 -0.16012
000220 20 7c bf bb ba 19 90 3d d6 fb b8 3a bf 0e 06 3e
       -0.0058436543 0.07036157 0.0014113139 0.13091563
000230 99 5c 23 3c 2c 45 b6 bc 37 67 47 be 8e 04 c5 bb
       0.0099708075 -0.02224978 -0.19472967 -0.006012506
000240 a1 18 59 be 14 28 5e 3d 60 8d a1 bd 8e f5 91 bd
       -0.21200801 0.05423744 -0.07888293 -0.07126914
000250 e2 c8 97 bd 72 1d cf 3d ca 80 fe bd 38 68 62 bb
       -0.07411362 0.10113038 -0.12426908 -0.0034546982
000260 0d 10 86 be 67 d6 9b bd 4b a5 82 bd 7b 53 1e 3e
       -0.2618412 -0.076092534 -0.063791834 0.15461533
000270 17 cc 39 3d d2 9f 19 bd dc d7 27 be 3a 0a b3 bc
       0.04536065 -0.037505932 -0.16390938 -0.021855462
000280 f8 11 1e be 2f 92 00 3c 1d a3 33 bd 8c a1 f4 3d
       -0.15436542 0.007847353 -0.04385673 0.11944875
000290 3b cc 8d 3d 92 a3 07 be df 46 55 3e df 78 93 bd
       0.069237195 -0.13245991 0.20827816 -0.07200789
0002a0 30 7e dd 3d b1 53 8a bd 71 7b 02 be 7b 51 88 bd
       0.10815084 -0.06754244 -0.12742402 -0.06656166
0002b0 7c 3b 1f 3e b1 80 b3 bd 5d a6 84 3d b6 ff bf bd
       0.15550035 -0.0876478 0.06477044 -0.09374945
0002c0 5b 36 dd 3c b0 d9 0d be 5b ed d5 bd 8e 0d a0 bd
       0.027003458 -0.13852572 -0.104456626 -0.07815085
0002d0 ff 60 8b bd 7f 1b 4b 3c 82 a7 43 3d 25 48 f4 3d
       -0.0680561 0.012396692 0.04776717 0.11927823
0002e0 eb 53 c5 3c 92 c2 1d bc 74 ed 34 3d 44 c8 08 bd
       0.024087867 -0.009628909 0.044171765 -0.033394113
0002f0 eb 06 cb bd 37 4d 14 3e ee d6 11 be 49 77 5a be
       -0.09913429 0.1448258 -0.14242145 -0.21334566
000300 4e 43 76 bd 28 a7 54 bd 72 25 29 3d ec 84 8f 3c
       -0.06012278 -0.051917225 0.041295476 0.017519437
000310 e0 3c 08 be ba 52 6c bc 61 35 03 bd 86 c9 63 bd
       -0.13304472 -0.01442402 -0.032033328 -0.05561211
000320 01 3c 90 bc ef eb 86 bd 3c af b5 bd 15 1a 8e bd
       -0.017606737 -0.065879695 -0.08871314 -0.069385685
000330 f9 8a 0f bd c5 42 bf bd 8c c2 68 bd 71 01 0e be
       -0.035044644 -0.09338907 -0.05682616 -0.13867737
000340 0d 60 a1 3d 6f 41 65 be 41 43 0c be 6a 87 4a 3e
       0.07879648 -0.22388242 -0.1369753 0.19778219
000350 be 29 28 3d 2e 84 3e 3d c4 b0 21 bd c8 2a 40 bd
       0.041055433 0.046512775 -0.039475217 -0.0469158
000360 6f df 9e bd d1 4f c5 3d 0e ad 83 bd b5 24 e7 bb
       -0.0775746 0.096343644 -0.06429492 -0.0070539364
000370 61 bd 11 3e 16 dc d4 3b 50 55 c5 3b ea 87 69 3e
       0.14232399 0.006495963 0.006022133 0.22805753
000380 fd d3 a2 3d 4d 6a 12 be a3 41 08 3e c2 d3 d0 bd
       0.0795059 -0.14298363 0.13306288 -0.101966396
000390 d0 97 12 3e 6f 94 d5 3c 97 6c 9a bd 15 d6 09 bd
       0.14315724 0.026071755 -0.07540243 -0.03365143
0003a0 fc f3 0a bb 86 f7 88 3d d6 86 f6 3c 19 bc b9 bc
       -0.0021202555 0.06687836 0.030093592 -0.0226727
0003b0 aa 7f d2 bd 01 b9 49 bd d4 d8 dd bd 67 36 33 3e
       -0.10278256 -0.0492487 -0.10832372 0.17501222
0003c0 16 f7 2c 3e 2c e6 3c bd 9c d8 43 bd 92 91 55 3d
       0.16891131 -0.046117947 -0.047813997 0.05214078
0003d0 d9 8f 0d 3e 3f b8 d5 bd 0f 88 74 3c dc a9 45 be
       0.13824405 -0.10435533 0.014925017 -0.19303077
0003e0 61 08 f9 bd 7f 1d be b8 5e 6a 20 3e 40 a1 eb bc
       -0.12159801 -9.0654e-05 0.15665576 -0.028763413
0003f0 67 4d ce bd 98 d1 a2 3d eb 56 d9 3c 1b 42 85 3c
       -0.10073357 0.07950133 0.026530704 0.016266873

critic.0.bias f4 [64]
000000 46 a0 f8 bc 61 6c 1e bd 26 4d 33 bd 99 ce 0b 3d
       -0.030349862 -0.038677577 -0.043774746 0.034132574
000010 a9 8e 04 bd 32 35 e9 3c 52 cb 06 bd e4 a0 f9 bc
       -0.032362614 0.028467748 -0.032908745 -0.030472226
000020 8c 00 46 3c 06 54 18 3d f1 89 0c 3d 1c 2d 13 3d
       0.012085091 0.037189506 0.03431124 0.03593169
000030 7e 93 01 3d 3a 79 18 bd 4a 9c ea 3c 11 55 05 bc
       0.0316348 -0.037224986 0.028638978 -0.008137957
000040 c5 1d 0b bd eb 6e 06 bd 18 c6 f9 3c 80 c7 d5 3c
       -0.033963937 -0.032820623 0.030489966 0.026096106
000050 90 2e 1c bd 90 1d 06 bd e3 0e 4c 3c be c9 f8 bc
       -0.038130343 -0.032743037 0.012454721 -0.030369636
000060 cb a7 10 3d 6a 19 0d 3d fd d6 28 3c ca 08 04 3d
       0.03531627 0.034448065 0.010305163 0.032234944
000070 6a e0 2a 3d c3 11 f0 bc 8b b9 0a bd 78 2c 16 3d
       0.041717924 -0.029305344 -0.033868354 0.036663502
000080 71 6e 8b bc e5 9d fa bc 6d b9 fb bc 23 a3 d2 bc
       -0.017020436 -0.030592868 -0.030728066 -0.025712555
000090 79 a0 1d bd 6e d5 00 bc b6 05 19 bd 12 c6 ec 3c
       -0.038483117 -0.007863386 -0.037358962 0.028903041
0000a0 ce 98 60 ba 65 bd 02 3d a6 0b 21 3d 8d 75 01 bd
       -0.00085676915 0.031918902 0.03931775 -0.031606246
0000b0 7d 1c 1a bd a5 a4 ee bc f1 12 18 3d 6a 75 8a 3c
       -0.037624825 -0.029131243 0.03712744 0.01690169
0000c0 a0 49 12 3d 06 17 0a bd 8e f3 0d 3d e3 bb 1d 3d
       0.035714746 -0.033713363 0.0346561 0.03850926
0000d0 6e 2b 03 3d 77 33 1f 3d 84 cf 21 bd 1b f3 a3 bc
       0.03202384 0.03886744 -0.039504543 -0.020013383
0000e0 56 1c 1d 3d 0e 9d f7 bc e8 b4 15 3d 6e 08 1d 3d
       0.0383571 -0.030226257 0.03654948 0.038338117
0000f0 a1 d7 17 3d 8d e6 f6 3c b3 63 f1 3c 6b 17 24 bd
       0.037070874 0.030139232 0.029466486 -0.040061396

critic.2.weight f4 [64, 64]
000000 73 7b 10 3e 8c 08 7d 3e a5 9d 94 bd e1 91 6b 3c
       0.14109592 0.24710292 -0.07256631 0.014378042
000010 d7 26 30 3d 85 5d 0b 3d d5 c6 d8 bc 91 8c ae be
       0.04300579 0.034024734 -0.026461998 -0.3409162
000020 96 09 27 bc bd c0 fe bc 56 9d 52 3e 69 3b fd bd
       -0.010195157 -0.031097764 0.20567831 -0.12364847
000030 b4 f2 99 3c 60 83 19 be c3 78 8a 3d 4c 89 bb 3d
       0.018792488 -0.14991522 0.06761315 0.09157047
000040 82 c1 2c 3e 3c d8 9a bc 79 f5 af be 7e 3c 46 3e
       0.16870692 -0.018901937 -0.34366968 0.19359013
000050 7b d0 f0 bd df 17 97 3c 11 41 76 3e 3a 09 24 3d
       -0.117585145 0.018444 0.24048258 0.04004786
000060 75 e8 26 be 4a 88 a6 be 8f 65 b8 3e 03 4e 08 be
       -0.16299613 -0.32525855 0.36014983 -0.13311009
000070 57 3e 03 be 3e 1e c5 bd af 2e 43 3b 4b f4 79 3d
       -0.1281675 -0.09624909 0.0029782464 0.06102399
000080 f2 8c dc bd 0f 64 a4 3e 8d 3c 80 3e 3d 8c 53 3e
       -0.10769071 0.3210759 0.25046197 0.20658965
000090 b1 06 12 3e 92 e2 91 b8 bb 9e 73 3e 57 a8 6a bd
       0.14260365 -6.956341e-05 0.2379102 -0.057289448
0000a0 b7 45 e3 3d ff b8 40 b9 19 c2 d8 be b9 46 a5 3e
       0.110972814 -0.00018379463 -0.42335585 0.3228052
0000b0 ce 6a 11 be b3 21 80 3d f5 9e 55 3d f1 f3 59 be
       -0.14200899 0.062564276 0.052153546 -0.21284463
0000c0 dc 1b c4 bc 9e 84 a1 3e bc e9 68 3d c3 59 4c be
       -0.023939066 0.3154649 0.05686353 -0.19956116
0000d0 65 fe c4 bc 9e 83 73 3e f8 38 be 3c 59 df af 3c
       -0.024047086 0.23780677 0.023220524 0.021468805
0000e0 13 a6 ea bd 1e 15 62 bd 63 96 0b 3d 9f eb bf 3e
       -0.114574574 -0.05519592 0.034078967 0.37484452
0000f0 9f 57 45 3d be 08 13 be 85 3d 87 bd 9c 70 a9 be
       0.048179265 -0.14358804 -0.06603531 -0.33093727
000100 7e 60 53 3e c3 23 1e 3e f2 89 71 3e 1f f3 ce bd
       0.20642278 0.1544333 0.23587778 -0.101049654
000110 ca 09 b8 bb c0 9d f8 bd c7 90 f3 3e e1 7f a8 3d
       -0.0056164013 -0.121394634 0.47571394 0.08227516
000120 77 52 41 3e 66 b2 c4 bd 28 e5 e5 3d 3b 1d f5 3d
       0.18879114 -0.09604339 0.11225349 0.11968466
000130 cc 47 9d bd 11 3e d1 3d 33 05 d3 bd 65 1b e7 3d
       -0.0767971 0.10216916 -0.10303726 0.11284522
000140 16 ec 17 be 6f 9b cb 3d 5b d4 29 bd df ec 39 be
       -0.14836153 0.09941756 -0.041462284 -0.18156765
000150 4d c0 74 3e c5 fa 29 3e 92 e0 3a 3c 20 83 5b be
       0.23901482 0.16599567 0.011406081 -0.21436739
000160 33 e0 7b be 57 a4 5e 39 7b 08 2b 3e 89 e4 a1 3e
       -0.24597244 0.00021232791 0.16702454 0.3161967
000170 b9 83 d0 bd f5 88 03 be 20 66 78 3e 8a 87 6e 3d
       -0.10181374 -0.12845214 0.24257708 0.05823473
000180 d4 43 51 3e fd 79 87 3c 9b b4 09 3a 1c 24 1f 3e
       0.2043603 0.01653766 0.00052530476 0.15541118
000190 99 97 04 3e 13 06 2a bc 74 0a 77 be 50 9d cd be
       0.12948455 -0.010377425 -0.24125081 -0.40159082
0001a0 62 20 2d 3e c8 31 99 be 73 4a 47 be 1e fa 6d 3d
       0.16906884 -0.29920793 -0.19461994 0.05809986
0001b0 63 89 c2 3d 04 a1 8b be 81 0e 71 be 05 0e 81 3e
       0.09498861 -0.27271283 -0.23540689 0.2520601
0001c0 19 93 40 be 91 cb 3a 3e d3 df 72 be cb 45 a1 3d
       -0.18806113 0.18241717 -0.23718195 0.0787464
0001d0 e9 a8 ca bc 0e d1 16 3e 55 1d 49 3d 54 fe 99 bd
       -0.024738746 0.14728186 0.04910024 -0.07519212
0001e0 bc 3d 65 bb df b1 77 be 7f 08 09 3e 1c f0 4e bc
       -0.0034979424 -0.24188946 0.13382147 -0.012630489
0001f0 c0 3d 4e 3e 98 e7 53 3e d0 ac b0 3d 86 9c 22 3e
       0.20140743 0.20693815 0.08626711 0.15880021
000200 a2 6f 0e 3e 71 b8 1e 3d 11 d3 d3 3d 7f 9c 6c 3e
       0.13909772 0.038750116 0.10342992 0.23106574
000210 72 c9 ab bd 13 ec 3c 3d 56 94 03 be 3d ee 15 bd
       -0.08388032 0.046123575 -0.12849554 -0.036604155
000220 71 bb 38 3e 48 61 09 bd c4 e5 42 be df 20 6b be
       0.18040253 -0.03354004 -0.19032961 -0.22961758
000230 b8 a9 af be 39 84 83 3d f6 cc 2a be 5a 13 33 be
       -0.34309173 0.06421704 -0.16679749 -0.17487851
000240 1f 54 5d 3e ea 0b 57 3e 5c 0a 60 3e f3 2b 83 be
       0.21614121 0.21000639 0.21878952 -0.25619468
000250 ac 57 11 3e dc d7 40 3d ac 12 db 3e d0 e9 de bc
       0.141936 0.04708086 0.42787683 -0.0272111
000260 6d 06 39 be 83 73 c5 be 63 16 20 be e3 3b ad bd
       -0.18068857 -0.3856469 -0.1563354 -0.08458688
000270 1d 25 bf 3c 5a ea 7c 3b 14 b2 9d bd af 28 89 be
       0.023333127 0.0038591833 -0.07699981 -0.26788852
000280 d0 58 28 be 60 6a 86 bd 6b 74 47 bc d7 5f 04 3e
       -0.1644013 -0.06563258 -0.012173752 0.12927185
000290 7b 3e 48 bd 06 f0 7a 3c 6d cf 58 3d 25 59 01 3e
       -0.04888771 0.015316015 0.05293219 0.12631662
0002a0 39 f0 93 3c fc d4 82 3e 06 77 a9 bd ed 33 16 3e
       0.018058883 0.2555312 -0.08274655 0.14668246
0002b0 2d df 13 3e 49 8b 05 bf cf dc b5 3e 74 06 cc bd
       0.14440604 -0.5216566 0.35520026 -0.09962168
0002c0 fc da 25 be ef 20 db 3d a9 52 a0 be 9d 77 9f 3d
       -0.16196817 0.10699641 -0.31313065 0.07786486
0002d0 be 44 e2 bd ca 89 b9 bc b2 16 60 3e 69 58 82 bb
       -0.11048268 -0.02264871 0.21883658 -0.0039778245
0002e0 00 e0 b3 3d 17 dd b9 3d eb f5 76 be 3a 2b 1c bc
       0.08782959 0.09075373 -0.24117248 -0.00953179
0002f0 4b 3e 18 bd 1a 6e 4b 3d f8 8e 81 3d 06 d2 1b 3e
       -0.037168782 0.049665548 0.06326097 0.15216836
000300 c7 08 6f be ef 10 55 3e aa 47 1c be b7 d2 50 be
       -0.23343192 0.20807241 -0.15261713 -0.20392881
000310 ad 75 43 3e 62 be 85 be ce 3a ea bd 48 5b 4e 3d
       0.19087858 -0.26121813 -0.11436997 0.05038002
000320 c0 70 bf bd 72 39 cb 3e d7 b2 46 be 93 29 a9 bc
       -0.09347677 0.39692265 -0.1940416 -0.020649707
000330 1a bb 04 3e 32 fb 08 3e 60 c9 b5 be 72 1e c3 bd
       0.12961999 0.13377073 -0.355052 -0.09527291
000340 51 1e 91 3e b1 a1 20 bd 19 cb 3e be d6 d2 f2 3b
       0.28343442 -0.0392167 -0.18632163 0.0074103875
000350 d9 88 4a 3e 27 7f 9a 3c 63 05 f0 3d c6 2e 87 b9
       0.19778766 0.01885946 0.117197774 -0.00025784055
000360 3b ee ea 3b 79 d1 a5 3e c0 63 81 3d 3e fc 9b bc
       0.0071695126 0.32386377 0.06317854 -0.019041177
000370 03 b4 4f 3e e4 63 93 bd 78 45 1c 3d 62 10 2d be
       0.20283513 -0.07196787 0.038152188 -0.16900781
000380 2b 2a 0e 3c 85 fa cf 3c dd 0e fe 3d 08 f3 8c 3e
       0.008677046 0.025388012 0.12405179 0.27529168
000390 41 53 43 be 33 02 1c 3e f2 46 20 3d b1 0f 44 be
       -0.19074728 0.15235214 0.03913016 -0.19146611
0003a0 d6 83 c8 3d d6 2e 73 be 85 c6 fd bb f9 44 0b be
       0.09790771 -0.23748335 -0.0077446126 -0.1360053
0003b0 50 ea 80 3e 10 a7 8e 3e 89 55 d0 3e 92 1a 18 be
       0.25178766 0.27861834 0.40690258 -0.14853886
0003c0 e6 a3 72 be c1 1c b2 3e b7 f7 d1 3c 7f e4 b1 bc
       -0.23695335 0.34787562 0.025630815 -0.0217154
0003d0 47 5e 91 be f0 b7 96 3d 6f dc 61 3e cb a6 ae bd
       -0.2839224 0.07359302 0.22056745 -0.08527907
0003e0 07 06 05 be 4e 9c 71 bc 1a 13 22 3d 55 2d 87 be
       -0.1299058 -0.014746739 0.039568998 -0.26401773
0003f0 94 f6 73 bc 66 91 52 3d 02 57 3b 3d 78 f9 e6 3c
       -0.014890332 0.051408194 0.045737274 0.028195128

critic.2.bias f4 [64]
000000 e9 3e 00 bd 41 5b 01 bd 6d f8 04 bd 18 0d fc bc
       -0.031309996 -0.031581167 -0.03246348 -0.030767962
000010 89 ac d4 bc 61 49 d9 3c a1 ea 0b bd 9a eb 04 3d
       -0.025961177 0.026524248 -0.034159306 0.03245125
000020 84 b6 b9 3c bb 45 fc 3c 3b 23 da bc 39 2d 02 bd
       0.022670038 0.030794969 -0.026628127 -0.03178141
000030 94 13 e1 3c 3c 26 e8 3c 72 f7 da bc 25 88 07 3d
       0.027475156 0.028338544 -0.02672932 0.033088822
000040 b0 88 06 3d cc ea f9 3c c7 03 b9 3c ad 29 9e 3c
       0.0328452 0.030507468 0.022584809 0.019306982
000050 4b fa 5b bc 8e 6a f1 3c 13 86 ef 3c ef 83 cb 3c
       -0.013426374 0.029469755 0.029238736 0.024843184
000060 e1 87 96 3c 20 26 00 bd 22 6b e0 3c cf 51 d2 bc
       0.018375339 -0.03128636 0.027394835 -0.025673775
000070 a0 91 fb 3c de fb c5 3c ef a6 fc bc 2b f2 c5 3c
       0.030709088 0.024167951 -0.030841319 0.024163326
000080 a5 97 f2 bc 9a fc b7 3c ab 84 c1 bc b3 08 05 3d
       -0.029613325 0.022459317 -0.023622831 0.032479
000090 a7 5e 00 bd 37 d3 07 bd 0f 52 1e bd 0b 35 a9 bc
       -0.031340268 -0.033160415 -0.038652476 -0.020655176
0000a0 f8 b0 e1 3c de e8 f3 bc f6 b9 d4 bc 6d f8 44 3b
       0.027550206 -0.029774126 -0.02596758 0.00300553
0000b0 cb 88 fa 3c d7 03 fe 3c 44 1f f5 3c 60 71 ab bc
       0.030582806 0.03100769 0.029922135 -0.020928085
0000c0 4c 20 de bc 89 ca e2 3c b8 75 b2 bc 3f a6 d2 bc
       -0.02711501 0.027684467 -0.021784648 -0.025714038
0000d0 cc 4b 00 3d 12 09 aa bc d6 58 16 3d 58 b2 0e 3d
       0.031322286 -0.020756278 0.036705814 0.03483805
0000e0 97 59 d7 3c b5 dc bf bc fc 7b a4 bc 53 02 a9 bc
       0.026287837 -0.023420671 -0.020078652 -0.020630991
0000f0 8c da b4 3c 33 35 e0 3c 87 0d d0 bc 1e e1 03 3d
       0.022076868 0.027369117 -0.025397075 0.03219711

critic.4.weight f4 [64, 64]
000000 73 e1 4d be f3 fa eb 3d 19 54 9a bd 1a 00 85 be
       -0.20105533 0.11522474 -0.075355716 -0.2597664
000010 51 d0 6a be bb 60 f3 3c ce 9e 57 3c 03 12 c6 3d
       -0.22931029 0.02970921 0.013160421 0.09671404
000020 f9 bf 24 3e ea eb a1 3e 99 23 88 3d 34 ab 12 be
       0.16088857 0.316253 0.06647415 -0.14323121
000030 bc 50 04 3e 56 2b ba 3e 6a 4f 4d 3e 20 87 d2 3d
       0.12921423 0.36361188 0.20049825 0.10279679
000040 f0 bc 14 3c b0 95 3d 3e 55 22 0a be 7e 74 0f 3e
       0.009078249 0.18514132 -0.13489659 0.14009282
000050 7d 36 ba be 99 f4 13 3e 77 c7 48 bd 34 d7 fe 3d
       -0.36369696 0.14448775 -0.04901835 0.124433905
000060 38 0d 31 3e fb 97 d9 3c 4c b9 4f 3e e8 36 ec 3d
       0.17290199 0.026561728 0.20285529 0.1153391
000070 c9 71 5a 3d d3 bb 73 3e 84 46 32 3e f6 77 04 be
       0.05333117 0.23802118 0.17409712 -0.12936386
000080 41 b6 8f bd 5e c5 86 3e 6e c5 cd 3d b3 fb a8 3d
       -0.07017184 0.26322454 0.10047422 0.08251133
000090 2a 77 0f 3d 2d 6b d3 bb e1 a2 78 bd e0 0e 4f 3d
       0.035025753 -0.0064519853 -0.06070221 0.050551295
0000a0 40 df 07 be d9 5b 44 3e 71 41 30 bd f7 69 af 3c
       -0.13268757 0.19175662 -0.04303116 0.021412833
0000b0 28 f9 c6 bc 90 60 08 3e b5 86 1e 3e 07 15 17 3e
       -0.024288729 0.13318086 0.15481074 0.14754115
0000c0 a5 02 db bd 74 c2 29 be 6d c1 88 bd 77 0b bd be
       -0.10693864 -0.16578084 -0.06677518 -0.3692281
0000d0 4b ff e2 bb 04 d6 83 3e cf 7d b6 3e b5 28 12 3e
       -0.006927406 0.25749218 0.3564286 0.14273341
0000e0 06 10 de bd d8 e7 00 3e 56 97 ac be 5f 8a 42 be
       -0.108429 0.12588441 -0.3370921 -0.18998097
0000f0 a3 03 25 3d 7b 3d 2d 3e 40 27 1a 3d 5d c4 0f 3f
       0.04028667 0.16917984 0.037635088 0.56159
000100 93 71 3f be f2 ed 54 be 69 80 1e be 5c 3e 0e bd
       -0.18695669 -0.20793894 -0.15478672 -0.03472744
000110 48 2f 79 be f9 7c e7 3d 0c 4c c7 bc 23 d7 2f be
       -0.24334443 0.113031335 -0.024328254 -0.17171912
000120 fc 83 30 bc 0e a4 34 bd 95 27 56 be 96 f9 3b bd
       -0.010773655 -0.044101767 -0.20913537 -0.04589232
000130 ca ee 10 3d 78 10 65 bd f2 fd dd be 52 1e 0f 3e
       0.035383977 -0.05592391 -0.43357807 0.1397641
000140 9c 50 47 be 5a d1 1f 3e 9b 18 0c 3e 3b 97 3f be
       -0.19464344 0.15607205 0.13681261 -0.18710034
000150 d3 93 1b be 1b c5 cd 3d 06 8f 7a 3e 1c f0 ba 3c
       -0.15193109 0.100473605 0.24468622 0.022819571
000160 0c ea cb 3e d1 6f 96 3d 81 be 22 3d 50 b9 f0 bd
       0.39827 0.07345546 0.03973246 -0.117540956
000170 98 ce ae 3e f5 7c 67 bc 18 d4 f2 3c 52 9d 3a 3e
       0.34141994 -0.014128913 0.02964215 0.18224075
000180 2b b9 23 be 19 57 de 3e c1 eb c4 3c c2 0f c9 3d
       -0.15988605 0.43425825 0.024038197 0.09817459
000190 5c 57 86 be 86 b6 bd 3d a4 2a cc 3d f7 9c 1d 3e
       -0.26238525 0.09263329 0.099690706 0.15391909
0001a0 a4 b4 35 3e 44 36 85 bd ef d9 81 3e 9e 34 16 be
       0.1774469 -0.06504491 0.25361583 -0.1466851
0001b0 d2 a9 f6 3c b7 2c 98 be 78 68 56 3d 01 39 8b be
       0.030110274 -0.29721615 0.052345723 -0.27191928
0001c0 5a 9d 9d be 9f 81 72 be 26 b7 b5 bd 59 4d 5e bd
       -0.30784112 -0.23682259 -0.088728234 -0.054272983
0001d0 f9 be 82 be 7f 85 fa 3b ea d2 3b be 3c 7e a7 3d
       -0.25536326 0.0076453085 -0.18342176 0.08178374
0001e0 6f d9 cc 3d e2 3c 0b be 04 c5 24 bd 80 6f c7 3d
       0.1000241 -0.13597444 -0.04022695 0.09738064
0001f0 cc 41 43 3e e8 32 97 be d5 01 e5 bc 16 6b e6 3d
       0.19068068 -0.29531026 -0.027954975 0.11250894
000200 d5 23 ff 3d d9 8b c2 bc 58 e7 bd 3d c8 cf a7 3d
       0.12458006 -0.023748325 0.09272641 0.08193928
000210 83 2d 81 3c b3 8b ac bd 5a 4a 25 bd 30 c2 bf bd
       0.015768772 -0.08425083 -0.04035411 -0.0936321
000220 96 c6 30 be a3 c7 fa bd 09 13 81 be ef 51 83 bd
       -0.17263255 -0.12245109 -0.25209835 -0.06412112
000230 75 a4 fc be 74 32 a0 3d 7e 73 bc bd a1 6d ca bd
       -0.4934422 0.07822123 -0.09201716 -0.09884191
000240 5c 8d b2 bd 53 b5 62 bd 5c bc 4f bd 58 cb 1c be
       -0.087183684 -0.055348706 -0.050716743 -0.15311944
000250 f0 7a f1 3c aa aa 1e 3e 12 10 77 bd a4 06 44 be
       0.029477566 0.1549479 -0.06031806 -0.19143158
000260 b1 dd 36 bb 80 c7 df 3d af 2a bf be 49 1e c4 3e
       -0.0027903134 0.109267235 -0.37337252 0.38304356
000270 d5 c4 b5 bd 85 ee 62 3e 8f f1 0d bd 12 cf 44 bd
       -0.08875433 0.221613 -0.034654196 -0.04804904
000280 68 9c 03 be 8f 70 06 3d 53 71 c4 3d d6 3e 5f 3e
       -0.12852633 0.032822188 0.095919274 0.21801314
000290 4b 00 ab 3e e7 1d 78 3c 14 ba cb 3e 67 21 5d be
       0.3339866 0.015143848 0.39790404 -0.21594773
0002a0 76 bf 8b bd 30 8d d0 3e a9 95 0e bc e0 63 51 3e
       -0.06823628 0.40732718 -0.008702674 0.20448256
0002b0 9f d1 f3 bd 6d bc c1 3c 6a 92 57 be 1e 13 22 be
       -0.119052164 0.023649419 -0.21051946 -0.15827605
0002c0 11 5a c3 3e d1 a0 39 be e9 3a 11 3e ec ed ac 3d
       0.38154653 -0.18127753 0.14182629 0.084438175
0002d0 f1 69 c4 3c 53 c2 a4 bc 0c cb 10 be 23 0f 43 3d
       0.023976298 -0.020112192 -0.14139956 0.047621857
0002e0 79 79 0e 3e 34 7b 31 3e ea 50 3c 3d f3 10 50 3e
       0.13913526 0.17332155 0.045975603 0.20318966
0002f0 a9 8f f9 3d e8 a5 48 3a 81 f2 88 be 0b 49 9f 3e
       0.12185604 0.00076541165 -0.26747516 0.31110415
000300 c7 27 24 3d df 5c 82 be 17 c2 3e be 10 25 5a 3d
       0.040076997 -0.2546148 -0.18628727 0.053258
000310 8c 3d 0d be 40 cf ac 3c 30 3c 31 3e 3d 13 01 be
       -0.1379301 0.021094918 0.17308116 -0.12604995
000320 69 d4 80 3d 6c 15 3e 3d 7b c7 10 3e 2f 1e 80 bd
       0.06290514 0.04640715 0.14138596 -0.06255757
000330 41 ec 8a 3d e4 82 0c 3d 3b c6 7b 3e 1f 0f 56 3e
       0.06783343 0.034304515 0.24587338 0.20904206
000340 0a 61 d3 bd 30 63 22 3c 16 74 21 bd be 3b 8c 3d
       -0.10321243 0.009911343 -0.03941735 0.068473324
000350 80 f7 59 3d 78 86 d6 3d b9 69 97 3d 74 50 71 3d
       0.05321455 0.10474867 0.07393212 0.058914617
000360 a5 55 f1 bd 60 9e 32 be 0f 27 55 bc 19 b7 25 3e
       -0.117839135 -0.17443228 -0.013009801 0.16183127
000370 b3 44 8f 3e 74 5d d5 bd d4 64 e5 bd 69 fb 9f 3e
       0.279821 -0.104182154 -0.11200872 0.31246498
000380 d3 fa 0d 3e cc d6 8e 3d a3 11 9d be 14 6e 5e bd
       0.13865213 0.06974563 -0.30677518 -0.054304197
000390 58 14 1e be 35 13 ab 3d 3e 02 43 3d 0b 21 b0 be
       -0.15437448 0.08353273 0.04760956 -0.3440021
0003a0 e4 34 cb bd 88 4a 96 3c 07 fe 31 3e d0 b9 7d 3e
       -0.099221975 0.018346086 0.1738206 0.24777913
0003b0 9e 5d 92 be e3 2e 5d 3c bb 9b 82 be f8 15 7b be
       -0.2858705 0.013499948 -0.25509438 -0.24520099
0003c0 34 41 51 bd 94 21 9a 3e 96 e3 87 be a6 56 57 be
       -0.051087573 0.30103743 -0.26540822 -0.21029148
0003d0 ca 16 40 be 96 a5 ce 3d dd 71 a8 38 88 be 4f 3e
       -0.18758693 0.10090177 8.032073e-05 0.20287526
0003e0 8e c9 00 3f c3 2b 85 bd c4 cc 1a be 93 fc b0 be
       0.5030755 -0.065024875 -0.15117174 -0.345677
0003f0 17 ef c2 be da ec 2d 3e 86 77 ec bd e6 18 5f 3d
       -0.38073036 0.16984883 -0.11546235 0.054467104

critic.4.bias f4 [64]
000000 d1 6a 8a 3c 3e 0f c3 3c f1 c1 ff bc 4e 76 08 3d
       0.016896637 0.023810979 -0.031220408 0.03331595
000010 f1 45 3e 3d 2a 8d 1c 3d f7 96 c8 3c 02 94 04 3d
       0.04645342 0.038220562 0.024486048 0.032367714
000020 21 c8 0b 3d 40 de df bc 6a e6 e0 bc fe f2 03 3d
       0.034126405 -0.027327657 -0.02745362 0.032214157
000030 72 31 35 3d 9f b9 41 bd 62 5f fe 3c cb 29 f1 3c
       0.044236608 -0.047296163 0.031051341 0.029438874
000040 ef 7c cd bc 7a ef 93 bc a6 77 d7 3c 1c 7d ad 3c
       -0.025083987 -0.018058527 0.02630217 0.02117782
000050 82 71 07 3d 28 41 0a 3d e2 21 f3 3c 61 dd 11 3d
       0.033067234 0.033753544 0.029679243 0.035611514
000060 be c5 1e 3d 3f d3 be bc 5f 8d d3 bc dc f2 cc 3c
       0.0387628 -0.02329409 -0.025824247 0.025018148
000070 b3 f0 fb bc af 62 00 3d 51 73 50 bd df 76 0b bd
       -0.030754423 0.031344112 -0.050891224 -0.03404891
000080 f4 cb e1 3c 7e ec 14 3d 06 a3 22 3d 6a 92 19 bd
       0.027563073 0.03635835 0.039706253 -0.037493147
000090 26 74 da bc a6 f9 e4 3c 53 d9 fd 3c 89 33 a6 bc
       -0.026666712 0.027951073 0.030987417 -0.020288246
0000a0 aa 42 12 bd 0c 84 10 3d c7 c1 df bc e5 81 b8 3c
       -0.035708107 0.03528218 -0.02731408 0.022522876
0000b0 6f 98 98 3c b4 29 f7 bc 1f e9 1b bd bb e1 dd bc
       0.018627374 -0.030171253 -0.03806412 -0.027085176
0000c0 3a 9f 07 3d c8 2a 77 3c 28 38 37 3d c5 0a 6a bc
       0.033110835 0.015085883 0.04473129 -0.014284794
0000d0 79 b7 0e bd c9 94 14 bd cf b8 f7 bc 5d 65 a5 3c
       -0.034842942 -0.036274705 -0.03023949 0.020189935
0000e0 5e b8 e5 bc bc d5 f2 3c f9 6e de 3c f0 e2 06 3d
       -0.028042015 0.029642932 0.027152525 0.03293127
0000f0 e9 5d d7 bc 6e f7 ef 3c 3e 88 dc bc dd b4 fb 3c
       -0.026289897 0.029292788 -0.026920434 0.03072589

critic.6.weight f4 [1, 64]
000000 3f 08 a0 3e 61 3e b7 3e 8d 3e 54 be 55 1b 21 3e
       0.3125629 0.3578978 -0.20726986 0.15733083
000010 27 1c 42 3d a8 dd 15 3e 5e 35 8d 3e 30 a7 a8 3d
       0.04739013 0.14635336 0.27579778 0.082350135
000020 64 3a 04 3e d9 51 79 be 01 5f 30 be 85 e3 34 3e
       0.129129 -0.24347629 -0.17223741 0.17664917
000030 ee 9a a4 3d 36 e8 aa bd fe 96 75 3e 4f 22 d1 3d
       0.08037363 -0.08345072 0.2398338 0.10211622
000040 c3 60 53 be 99 1a c6 bd 27 17 01 3e ca 10 a6 3d
       -0.2064238 -0.09673042 0.12606488 0.08108671
000050 bd 7c b8 3d a0 2d fd 3d f8 83 aa 3d 11 2c 40 3d
       0.09008167 0.12362218 0.08325952 0.046917025
000060 96 a7 b5 3d 27 3d a3 be 7f 5d 99 be f2 e1 0e 3e
       0.08869855 -0.31882593 -0.29954144 0.13953379
000070 8e c4 1c be 27 f0 16 3e 37 4b 75 bd d2 47 a1 bd
       -0.15309355 0.14740048 -0.059886184 -0.07875027
000080 dc bc 15 3e af b3 8e 3d ec 67 f2 3d fb 45 c6 bd
       0.14622825 0.06967866 0.11836228 -0.096813165
000090 ee 1d 5f be 95 a8 4a 3e 4e 39 27 3e 5b 48 f4 bd
       -0.21788761 0.19790871 0.16330454 -0.11927863
0000a0 91 b4 94 bd e9 06 18 3e ce f3 d9 bd a4 00 3e 3e
       -0.07261003 0.14846386 -0.10642205 0.18554932
0000b0 ba 2d 74 3e 52 da 00 be ba fe 05 be bf 63 68 be
       0.23845568 -0.12583283 -0.13085452 -0.226943
0000c0 75 78 20 3e 0f f4 bd 3d 65 ef 8b 3d e6 80 24 bd
       0.1567095 0.09275066 0.0683277 -0.04016199
0000d0 1e f2 25 be 73 15 dc bd 15 3a f4 bd e0 c3 a1 3e
       -0.16205642 -0.107462786 -0.11925141 0.31594753
0000e0 c6 ba d0 bd be 37 11 3e 68 b1 5c 3e c2 f4 10 3e
       -0.10191874 0.1418142 0.2155205 0.14155868
0000f0 ac fd 85 be bd 64 61 3e 77 1e 5f be e4 ae 32 3e
       -0.261701 0.22011085 -0.21788965 0.17449528

actor.0.weight f4 [64, 200]
000000 fc 9e e1 3d 0c c4 d2 3c 07 94 7d bd 43 bb 30 3d
       0.11016652 0.025728248 -0.061908748 0.043147337
000010 41 4e 24 be 05 44 fa 3a ea 68 39 be 81 dd d1 3c
       -0.16045476 0.0019093758 -0.18106428 0.025618317
000020 16 1a 50 be 79 d0 59 be d4 0d 3b be ed d0 93 bd
       -0.20322451 -0.21270932 -0.18266994 -0.07217584
000030 85 e3 2d bd f6 d3 2d 3d 08 1a d0 3b 01 3d 9d bd
       -0.042453308 0.04243847 0.0063507594 -0.07677651
000040 fe 63 1d 3e 4b 26 d9 3b ff f6 39 3d cf 52 d5 3c
       0.15370175 0.0066268793 0.04540157 0.026040463
000050 89 7a e1 bd 35 7f d2 bc 69 96 80 bd 70 22 79 3b
       -0.110097 -0.025695423 -0.062786885 0.003801491
000060 13 69 cf bd 5f 4a f8 bb e7 50 43 3e 02 82 8f 3d
       -0.10127463 -0.007577225 0.1907383 0.07007219
000070 43 fc 02 bc 28 35 bb 3c 52 59 99 bd ab a5 0a 3e
       -0.007994714 0.022852495 -0.074877396 0.1353976
000080 d3 5f fe 3d 7f c3 47 ba b6 06 25 3d d2 af 2a 3d
       0.12420621 -0.0007620379 0.040289603 0.04167158
000090 57 91 eb 3d 0b 65 ac bc 18 eb 9f 3d f2 b5 61 be
       0.11502331 -0.021044275 0.078085124 -0.22042063
0000a0 08 7b 24 be 41 1a 3c bc ce 6e d4 3c 63 b7 fe 3d
       -0.16062558 -0.011480869 0.025931742 0.12437322
0000b0 dc ca 58 be 4b 4f 14 be 3b 18 da bb 2a 42 2e be
       -0.21171135 -0.14483373 -0.0066557205 -0.17017427
0000c0 9a 8b b4 ba b5 90 29 3e 7d 43 4d bd 1c 7f 80 bd
       -0.0013774515 0.16559108 -0.05011319 -0.06274244
0000d0 3c f5 fe bd 15 9b 9c bc 7c 89 87 bd 1b 04 da 3d
       -0.124491185 -0.019116918 -0.0661802 0.10645314
0000e0 85 80 12 be 54 a7 26 bd fb ef b2 3d d8 11 89 ba
       -0.14306839 -0.04068692 0.08737179 -0.0010457588
0000f0 bb ab 83 bd d7 59 15 3d c2 ee 0d 3d 2e a6 65 3d
       -0.06429239 0.03646263 0.034651525 0.056066684
000100 6e 6f ab bd 94 f1 af bd eb e5 3b bd 6b 8a 19 bc
       -0.08370863 -0.08590999 -0.045873564 -0.00937138
000110 51 3a 12 bd 89 49 60 3d 07 92 8a 3d 27 d6 65 3e
       -0.035700146 0.05475763 0.06766134 0.22444974
000120 22 ab d7 3b 29 c9 2a bc 08 25 c9 3d e2 82 44 bd
       0.00658168 -0.010423937 0.09821516 -0.047976382
000130 1a 16 ed 3d fb a7 7d 3b a8 b9 a9 3d 80 c6 ac bc
       0.11576481 0.003870486 0.08287364 -0.021090746
000140 e7 fc f0 3d d4 a5 c6 3d 6f 11 20 3e 24 08 f7 3d
       0.11766987 0.09699598 0.1563165 0.120620996
000150 45 b9 c8 3d fa 6a 94 3d 09 ac f5 3c 59 db 14 3d
       0.09800962 0.07246967 0.02998926 0.036342
000160 f6 9c ca bd d9 1d 02 be bd 14 1e 3d 3d 79 c8 3d
       -0.09893219 -0.12706698 0.038593996 0.09788749
000170 b7 ca fb 3b ec 4a 34 bd fb 26 a6 3d c9 16 a5 bd
       0.0076840776 -0.044016764 0.08112904 -0.080609865
000180 18 47 64 39 03 be 9b bc 8c 3d 16 3d 69 17 0e 3e
       0.00021770259 -0.019011503 0.03667979 0.13876118
000190 5f ed c5 bd bd ee c9 bd 16 3e eb 3d 45 f1 9c bd
       -0.096644156 -0.09859989 0.11486451 -0.07663206
0001a0 5c 88 8a bd 72 81 8e 3d fd f0 6c 3d d0 8a 2d 3e
       -0.0676429 0.069582835 0.05784701 0.16947484
0001b0 d0 68 30 3e a3 56 f1 3d 31 9f b6 3d 14 03 22 bc
       0.17227483 0.11784103 0.08917082 -0.009888429
0001c0 83 64 e8 bd 63 62 86 3c d7 d1 d3 3d 4e 5d 47 3e
       -0.11347296 0.016404336 0.10342758 0.19469187
0001d0 9e c5 5e 3e 7a 5a 9d 3e 7b 6a 1b 3e 8e 07 d8 bb
       0.21755072 0.3073309 0.15177338 -0.0065926975
0001e0 3d 2d 83 bd e5 5a 1d be 32 32 22 bd 1f d0 e6 bd
       -0.06405113 -0.15366705 -0.03959865 -0.11270165
0001f0 b1 d4 2b bd 20 f7 05 bd 9e d0 db bd 79 1b 10 be
       -0.041950885 -0.03270638 -0.1073315 -0.1407298
000200 b3 44 9b 3d 23 03 59 bd 49 a4 11 bc 09 a2 0a 3e
       0.07581463 -0.052981507 -0.008889266 0.13538374
000210 8b 7f 54 3d 39 c9 58 3e 31 9f d1 3d b3 1e 1a be
       0.051879447 0.2117051 0.102354415 -0.15050773
000220 09 b0 63 bd 6f 3e 8b 3d 9e a3 72 3d 3c 54 fb bc
       -0.055587802 0.06799018 0.05923807 -0.030679815
000230 67 78 dc bc d0 05 7a bc 2e 69 4f 3d 81 5d 71 bd
       -0.026912881 -0.015260175 0.050637417 -0.058927063
000240 8a 4c b8 bd d5 4d 8f 3c 4d e4 2b 3d 34 92 81 bd
       -0.08998974 0.017493168 0.04196577 -0.06326714
000250 33 92 d1 3d 54 53 72 bd e8 67 e4 3d 4c cb 48 be
       0.102329634 -0.0591615 0.11152631 -0.19608802
000260 6c a7 dc bc 22 52 60 3d 39 33 0e bc cc b3 20 ba
       -0.026935302 0.054765828 -0.008679205 -0.00061303074
000270 e0 b2 0f be a5 99 fd bc ca 04 34 bd b0 ad 48 bd
       -0.14033079 -0.030957052 -0.04394988 -0.048993766
000280 68 56 13 be 14 41 6f bc 0d bd 89 bd 61 b7 6d 3d
       -0.1438843 -0.014602918 -0.06725512 0.058036212
000290 18 11 ff 3d a3 17 86 bd 56 68 c7 bd e7 12 28 be
       0.12454432 -0.06547477 -0.097366974 -0.1641346
0002a0 c7 82 22 3e 55 17 f5 3d 13 02 4b bc af f1 37 bd
       0.158702 0.11967341 -0.012390631 -0.04490822
0002b0 62 4e a6 3d e9 ad bc bd 46 06 83 3d 7f ed 45 3d
       0.08120419 -0.09212858 0.06397681 0.048322197
0002c0 1b c7 b5 bd 79 c6 c8 bd 11 f3 dd bd 30 47 16 3b
       -0.08875867 -0.09803481 -0.10837377 0.0022930615
0002d0 92 eb 87 bd e8 e7 8a bb b4 b9 42 3e cb b1 a4 3d
       -0.06636728 -0.004239071 0.19016153 0.08041724
0002e0 47 18 cf bc bf be d1 bc 1e 02 08 be ef 74 04 be
       -0.025280131 -0.02560365 -0.13282058 -0.12935232
0002f0 46 d7 75 bd 8e fe f0 3d 39 bc bf 3d ba 7b 2b 3e
       -0.060019754 0.117673025 0.093620725 0.16746417
000300 f0 fe 8c 3c 70 dd 1b 3e a6 4e 1e be 7c c0 7d bc
       0.017211407 0.1522119 -0.1545969 -0.015487786
000310 f9 7e 11 be 16 20 33 bd 2d 5d 1c 3e 18 b5 f9 3c
       -0.14208592 -0.04373177 0.15269919 0.03048186
000320 83 b9 39 3d 53 be e1 bd 44 c1 1b 3e f7 23 9f 3d
       0.045342933 -0.110226296 0.15210444 0.077705316
000330 05 9b 9a bd 7d 73 3a 3d 34 dd 28 3e 82 13 e8 38
       -0.07549099 0.045520294 0.16490632 0.00011066256
000340 94 3b 3d be 86 9e 16 3d a5 ff aa 3d 38 3c 94 bd
       -0.18479759 0.036772273 0.083495416 -0.07238048
000350 9f ea 15 3c 02 a3 35 bd c0 55 7e bd c0 65 99 3a
       0.009150176 -0.04434491 -0.062093496 0.0011703297
000360 24 7e 04 3c 51 8b 86 3d 34 1f a5 bd f4 fa ba 3d
       0.008086715 0.06569541 -0.08062592 0.09129897
000370 18 b2 43 3d 87 99 b7 3c 43 89 6f 3d 4c f9 54 3d
       0.047777265 0.022412075 0.058480512 0.05199556
000380 9b 15 02 3e 9b 23 17 bc 83 a9 a8 bd 46 7d 59 bd
       0.12703554 -0.009224798 -0.08235457 -0.053097986
000390 f8 4e 34 be a5 d0 6d be 46 ea 0b be 82 e6 32 3d
       -0.17608249 -0.23224123 -0.13663587 0.04367686
0003a0 59 cb e2 3d 52 94 35 3e 0c 48 25 bc 14 5c 06 bd
       0.11073942 0.17732361 -0.010087978 -0.032802656
0003b0 c9 b9 40 3e 58 44 86 3d 4b 76 7c bb 7e fd 97 bd
       0.18820871 0.06556004 -0.0038522657 -0.07421397
0003c0 1f dc c8 bd 62 f5 3a 3e b5 8b b4 3d fb b1 e9 bd
       -0.0980761 0.18257669 0.088157095 -0.114109
0003d0 03 fd eb bc c9 40 a0 3d 27 75 23 bb 57 83 a8 bd
       -0.028807169 0.07824857 -0.0024941654 -0.08228176
0003e0 39 b2 22 3e bc 70 27 3d 70 9f 52 bd 12 1e 8f bd
       0.15888299 0.040878996 -0.051421583 -0.06988157
0003f0 47 a4 1c 3b 1a 02 c4 bd d2 2c dc 3d 8a 92 46 3e
       0.0023901628 -0.09570713 0.10750736 0.19391838

actor.0.bias f4 [64]
000000 88 2e 44 bb 58 fa 85 3a a6 4a d4 3a 93 93 fd b9
       -0.0029934961 0.0010221703 0.0016196563 -0.00048365872
000010 ce 52 04 3b df 3f 3b 3b 95 d4 a2 ba 04 61 2d bb
       0.0020190957 0.0028572006 -0.0012422974 -0.002645553
000020 f5 06 6e 3a d9 f4 6d 3b fe a3 b3 ba 50 ab 1d 3a
       0.0009080016 0.003630927 -0.001370549 0.0006014602
000030 f3 aa f5 39 b3 c6 9e ba 28 89 04 3a d9 9a d0 3a
       0.0004685741 -0.001211366 0.0005055838 0.0015915289
000040 64 59 fd 3a d8 71 1c b7 e7 aa 80 b9 2c ca 6b 3a
       0.0019329009 -9.324831e-06 -0.00024541395 0.00089946645
000050 aa 43 b8 b9 64 b1 f6 b9 7c dc 84 39 38 1d 85 ba
       -0.00035145628 -0.00047052943 0.00025341276 -0.0010155803
000060 c7 fd 27 3b 04 da df b8 5a a9 a3 38 87 55 b7 3a
       0.002563344 -0.00010674077 7.80399e-05 0.0013987281
000070 95 89 c7 ba d0 f5 de ba 2a 7e 49 3a d9 0f 18 3b
       -0.0015223498 -0.0017010514 0.00076863414 0.0023202805
000080 32 23 09 3b 80 98 37 3a 2f dc 92 ba 9f 5a 73 ba
       0.002092552 0.000700362 -0.0011204536 -0.0009283218
000090 7e 40 94 b9 4e 24 60 3a 5f f3 fd 39 f6 09 40 ba
       -0.0002827681 0.00085503317 0.00048437246 -0.0007325703
0000a0 e5 69 2e 38 17 d9 94 ba b7 57 9f 3a ea 4e f4 b9
       4.1583455e-05 -0.0011356202 0.0012156878 -0.00046598102
0000b0 32 b2 89 3a 93 1f 97 3a e4 a1 c6 3a 1a 8a 76 ba
       0.0010505377 0.0011529796 0.0015154448 -0.0009404734
0000c0 84 fd 97 ba 0b 96 97 ba a7 37 b4 ba 25 a6 61 39
       -0.0011595939 -0.0011565102 -0.0013749496 0.00021519566
0000d0 cb 9b 18 ba 1d c4 73 b9 97 fe 8b 3a 18 71 cb ba
       -0.0005821555 -0.00023247344 0.0010680732 -0.0015521375
0000e0 63 23 ee ba 41 10 07 ba ea d1 a4 ba 3c a7 7a 39
       -0.0018168505 -0.00051522633 -0.0012574766 0.00023904158
0000f0 5f 72 a0 39 64 ed 59 3a 3e 9c 8b 37 fa e7 71 ba
       0.0003060279 0.0008313267 1.6642847e-05 -0.00092279876

actor.2.weight f4 [64, 64]
000000 52 d6 12 be e4 ff e2 bc 8c 53 9e be 36 f9 17 3e
       -0.14339569 -0.027709909 -0.30923116 0.1484116
000010 ba 4b ad 3d b3 c7 35 bc aa a6 9f 3c 9a a5 3c be
       0.08461709 -0.011094975 0.019488651 -0.18422547
000020 61 b8 d5 bd 89 b8 4a be a4 9b 45 be 76 04 af bd
       -0.10435558 -0.19796957 -0.19297653 -0.08545773
000030 cc 6a 7c 3e cc ed 53 3e ca 06 71 3e 2a 8f d6 bd
       0.24650115 0.20696181 0.23537746 -0.10476525
000040 04 09 43 3d d8 9c c3 be 12 7a 7c be 0a 1e d3 3d
       0.04761602 -0.382056 -0.24655941 0.10308464
000050 e1 3c 85 3e 00 45 80 3d a8 a8 10 3e 1a de 5f 3d
       0.2602301 0.06263161 0.14126837 0.054655172
000060 db fd 97 3e 59 54 f0 bd 5e d2 01 be 54 22 69 bd
       0.29685864 -0.11734838 -0.12677905 -0.056917503
000070 01 e0 29 3d e6 02 0e 3d a7 1f d5 be 18 55 a1 be
       0.041473392 0.034670733 -0.4162571 -0.31510234
000080 fb 5b f2 bd 28 54 3c 3e 66 da 6f 3e ea a7 6d 3e
       -0.1183395 0.18391478 0.23423156 0.23208585
000090 12 b9 3b 3d 13 fa 38 3e 62 0c cb bd f0 65 eb 3d
       0.045830794 0.18064146 -0.09914471 0.114940524
0000a0 9f 31 2f 3e 32 00 27 be bb b8 83 be e9 61 ff 3c
       0.17108773 -0.16308668 -0.25726876 0.031174617
0000b0 bb 43 98 3b 93 6d 5c 3d 60 a4 b3 be e2 01 9e 3e
       0.004646746 0.053815436 -0.35086346 0.3086081
0000c0 20 4e 83 3c ec c2 77 3e 4f 16 be bd 8d c6 67 3d
       0.016028464 0.2419545 -0.09281599 0.056585837
0000d0 89 30 4d be 88 a9 38 bc 9a 44 16 3e 4a a1 41 bd
       -0.20038046 -0.011270888 0.14674607 -0.047272958
0000e0 ce d1 39 be 2f 57 2b 3e f4 30 88 3d b4 09 9c 3d
       -0.1814644 0.16732477 0.06649962 0.07619038
0000f0 ec 3c 88 bd d9 3d 7c be 10 88 8c 3c 1f a9 ec bd
       -0.06652245 -0.24632968 0.017154723 -0.11555695
000100 12 7d d3 3d b1 84 a9 bc f0 27 11 3e 66 bb fa bd
       0.1032659 -0.020693155 0.14175391 -0.12242775
000110 45 91 93 bd db 7d 35 be 18 c0 8f 3d 2a 81 89 3e
       -0.07205442 -0.17723791 0.07019061 0.26856357
000120 75 c4 d0 3d be cb 5b 3e 61 68 a9 bc 3e 54 8b be
       0.10193721 0.2146444 -0.020679655 -0.2721271
000130 4a f2 79 be dd 87 aa 3d 1f 3f 6b 3e 29 1e fb 3d
       -0.24408832 0.08326695 0.22973298 0.12261612
000140 cf e1 ad bd c3 58 1f bd e6 6f 48 3c 53 19 55 be
       -0.08490335 -0.03890301 0.01223371 -0.20810442
000150 a3 f3 9a bb a6 ae 0b 3e 2d 45 a9 be 30 e6 90 3e
       -0.004728751 0.13640842 -0.3306059 0.2830062
000160 43 cb 3d be 5e 77 8b 3d a0 8d ff 3c 40 14 78 3e
       -0.1853457 0.06809877 0.031195462 0.24226475
000170 75 f1 84 3d c9 58 64 be 8c e2 41 bd 1a 60 63 bd
       0.06491367 -0.22299494 -0.047335193 -0.05551157
000180 e6 48 01 3e a0 3f 2a 3e 83 ab 89 3c 87 84 c1 bd
       0.12625465 0.16625834 0.016805416 -0.09449106
000190 f7 5c 7b be 52 c4 9b bd d8 29 77 be d8 01 58 3d
       -0.24547182 -0.076058045 -0.24137056 0.052736133
0001a0 11 e2 bc bc 3f f2 0d 3e 81 ff 54 be f0 95 a3 3d
       -0.023057016 0.13861941 -0.20800592 0.07987583
0001b0 49 0e ab bd 28 09 2e 3e a3 79 c0 be 17 2a 00 3e
       -0.08352334 0.1699568 -0.375928 0.12516056
0001c0 96 26 80 3d 96 00 d3 be 0f 64 d3 bd 1d e0 0d be
       0.0625736 -0.41211385 -0.10321819 -0.13855024
0001d0 6f 29 2a be 06 01 80 bc d3 ab 75 3e 7e 76 f1 bd
       -0.16617368 -0.015625488 0.23991327 -0.11790179
0001e0 8b c7 93 3e 9d aa c4 3e 99 53 b3 3d 5f 0c 76 3e
       0.28863177 0.38411418 0.08756179 0.24028157
0001f0 58 e4 33 3e 4b 1a fa bd 40 bb 86 be 84 28 31 bd
       0.17567575 -0.12212046 -0.26314735 -0.04325153
000200 06 8e 3d bd 53 32 58 be b6 3f 2a be 53 87 ac 3d
       -0.046278022 -0.21112947 -0.16625866 0.084242485
000210 55 0b 92 bd b9 fc 06 bd 92 c1 83 3e 9d 8d 06 bd
       -0.07131068 -0.03295586 0.2573362 -0.032849897
000220 d8 0e 0c be 68 97 eb 3d 57 e9 68 be 57 45 27 3e
       -0.13677537 0.11503488 -0.22745262 0.16335045
000230 83 87 b3 be 7e a6 a2 3d 86 8e e5 bd 9b 8c c6 bc
       -0.35064325 0.07941912 -0.11208825 -0.024236968
000240 68 9e 01 3e 83 cd 14 3e e8 9f 38 be 77 d0 0f 3d
       0.12658083 0.14531521 -0.1802975 0.035110917
000250 36 6f b3 be be 8c 6e 3e 51 e5 31 be 56 71 d6 bd
       -0.35045785 0.23295876 -0.17372634 -0.10470836
000260 73 8a 04 3e 42 8b 4a be da 13 f2 bc c8 0f 24 be
       0.12943439 -0.19779685 -0.029550482 -0.16021645
000270 e5 33 9b 3c 77 c9 aa 39 ee cd b7 3d 33 dd 58 bd
       0.018945644 0.0003257503 0.08974825 -0.052945327
000280 1e 65 bb 3b 1a b7 92 bd 00 1c 4f 3e a6 f9 ab be
       0.005718841 -0.0716383 0.20225525 -0.33588904
000290 e1 45 1a 3f 07 8f 5e bd 01 21 7a 3d 62 f4 b0 3c
       0.60262877 -0.05433562 0.06106663 0.021600906
0002a0 03 e6 82 be 14 7e b6 3e 31 66 ff bd 59 00 05 3d
       -0.2556611 0.35643065 -0.12470663 0.032471035
0002b0 a7 62 3e be 4a a6 82 be 81 c7 d6 bd fe 60 18 3e
       -0.1859232 -0.25517493 -0.10487271 0.1488075
0002c0 9f 2a 01 3d a2 e1 a7 bd ae 36 e8 bd fb 15 2d 3e
       0.031534787 -0.08197333 -0.11338554 0.16902916
0002d0 11 26 84 3d af dd 5a bd 3a fe 4a bd c9 56 0b 3d
       0.06452573 -0.05343407 -0.049558856 0.03401831
0002e0 e1 33 da 3d 20 5d 49 3d 0d 1c de bd da 71 40 be
       0.10654426 0.049161077 -0.10845194 -0.18793431
0002f0 40 13 f3 bd 30 01 c2 be 4a 42 1c bd 2d 70 7e be
       -0.11868906 -0.3789153 -0.038149156 -0.24847479
000300 33 35 9e 3d 6b 3b df 3d d9 7e e2 3d 11 bf 11 bd
       0.07724991 0.10900005 0.110593505 -0.035582606
000310 4d c5 c5 bd 80 71 24 3e 55 2f b5 be 64 45 b0 3e
       -0.09656773 0.16058922 -0.35387674 0.3442794
000320 e8 ea 7a 3d 02 fb 6c bd 2d 14 c5 bd 29 92 8e 3e
       0.06125918 -0.057856567 -0.09622989 0.27845886
000330 70 ae fc 3d 29 7a 4f bb 23 c5 7d 3d d4 08 53 bd
       0.12337959 -0.0031658506 0.061955582 -0.05152209
000340 85 1b 61 3e 4b 2b 72 be a1 c7 8c bd 63 8e e9 bd
       0.21983154 -0.23649327 -0.06874014 -0.11404111
000350 1d 58 4a bd d5 4d 9e bd 67 0a 07 bd 5d dd 1a 3e
       -0.049400438 -0.07729689 -0.032968905 0.15123506
000360 1b 8a 8e 3d c7 e5 a7 3c 61 47 e7 3d f3 f2 18 be
       0.06959935 0.020495309 0.11292911 -0.14936428
000370 90 1f da 3d 3c 96 2b 3e 58 88 45 3e 5b 69 96 be
       0.10650551 0.16756529 0.19290292 -0.29377255
000380 5a ec db 3c fe 23 8d bd 62 ed 46 3e a0 61 81 be
       0.0268461 -0.068916306 0.19426492 -0.25269794
000390 f3 ac 1f bc 71 4c 82 3e e6 d2 87 bd fa f3 49 3e
       -0.009745824 0.25448945 -0.066320226 0.19721976
0003a0 83 8f 4a 3e 13 10 50 3e 06 d9 72 3c 5c 53 c7 bd
       0.19781308 0.20318632 0.01482225 -0.097326964
0003b0 25 d8 77 be 0a 7f ed be ae c0 78 bd e5 a2 2e bd
       -0.24203546 -0.46385986 -0.06073063 -0.042635817
0003c0 6b f4 dd bd a0 b1 fb bd 7a 92 62 be 72 43 d5 3b
       -0.10837635 -0.12289739 -0.22126189 0.0065082842
0003d0 f0 1b 94 be ea e5 aa bd 89 93 25 bd d5 74 d2 bd
       -0.28927565 -0.08344634 -0.040423904 -0.1027619
0003e0 1a 26 7b 3d 20 9e e3 be cf 0c 2e 3e b7 eb ad 3e
       0.061315633 -0.44456577 0.16997074 0.339689
0003f0 fa 1e 87 bd f5 44 17 3e e1 cc 62 bd 14 70 91 3e
       -0.06597705 0.14772399 -0.05537117 0.2840582

actor.2.bias f4 [64]
000000 0a 79 4c ba 13 57 b5 ba aa a2 b1 ba 7f e2 57 ba
       -0.00078000186 -0.0013835154 -0.0013552506 -0.00082353497
000010 53 c0 d2 b9 91 36 03 bb b5 e9 90 3a b9 59 a0 3a
       -0.00040197614 -0.0020021538 0.0011055978 0.0012233771
000020 89 a0 0f bb d5 8e 76 ba e2 f4 c9 3a d7 b1 93 ba
       -0.0021915755 -0.0009405439 0.0015408064 -0.001126821
000030 11 04 27 bb 0b fc dd b9 4a 6e 73 ba 5f a0 d5 b9
       -0.0025484602 -0.0004234019 -0.00092861487 -0.00040746012
000040 71 aa e5 b8 b8 8e 8b 39 b2 e7 c7 3a 27 12 94 ba
       -0.00010951318 0.0002661848 0.0015251546 -0.0011296914
000050 7e 81 1a 3b 00 0e f4 ba 44 c9 12 ba 4f cf c5 3a
       0.0023575719 -0.0018619895 -0.0005599449 0.001509169
000060 8f f7 4f 3a ee 67 30 3a 64 85 90 3a c0 2f ce ba
       0.00079333124 0.0006729354 0.0011026082 -0.0015730783
000070 f3 be 44 ba 5a 2a 90 ba 68 7e 19 bb ba 35 dc 39
       -0.00075052603 -0.001099895 -0.0023421291 0.000420017
000080 d4 bc a6 3a 1e 68 62 3a 9c 76 d2 39 e7 a8 3a ba
       0.001272107 0.00086367305 0.00040142692 -0.00071205053
000090 ad ee 6d 3a ab 44 df b8 eb 7f 0a 3b 02 d0 0b ba
       0.0009076398 -0.00010646259 0.0021133374 -0.0005333425
0000a0 ff 1c 28 3b 94 98 4c 3a 46 33 22 b9 8d 92 dc 39
       0.0025652049 0.00078047183 -0.00015468625 0.0004207086
0000b0 e5 41 8e 3a cd 21 23 39 58 0c 36 ba 19 e0 46 3a
       0.0010853378 0.00015557483 -0.00069445884 0.0007586494
0000c0 f7 d2 fd b8 08 e0 75 3a 14 55 f8 ba 8f b3 0e 3b
       -0.000121032754 0.00093793916 -0.0018946254 0.0021774506
0000d0 cf 27 d4 3a f9 74 ef ba ab 28 e1 b9 ac 59 89 3a
       0.001618618 -0.0018269113 -0.00042945644 0.0010478995
0000e0 b4 cf 01 3b b3 5d e2 b8 a0 06 bc ba 70 aa 09 bb
       0.0019807639 -0.000107939726 -0.0014345236 -0.002100613
0000f0 24 7c 2e 3b da 1b 88 b9 9c 1e 77 b9 e8 c0 98 ba
       0.0026624287 -0.00025960692 -0.00023567158 -0.001165417
