Tetris-PPO/trained_models/tetris_1000.pth (torch, 20976 bytes, 5 tensors)

conv1.0.weight f4 [64, 4]
00000000: 5e88 283e 7b39 19bc 0ca2 943d 2e23 5d3d
00000010: ac1e e8bd c0cb 48bc ad90 90be 0c25 87be
00000020: ab4f 3b3d c735 093e 219e 4e3d eafb 303d
00000030: 3ef2 893d 2c55 99be 2e6c 3e3e ee3f 84be
00000040: b075 8dbc 90b3 1fbd b8a3 48be 6085 b3bc
00000050: 1c5d 9cbd 9c33 debe 2262 353d 79e5 4fbe
00000060: b863 4c3e b8d6 7bbd 7043 ccbc ab64 1fbe
00000070: c81c 5c3d b282 8abd dfa4 28be 9035 d7bc
00000080: 35e9 b4bd 3b8d eabc e8db 9a3d 9ee2 733e
00000090: 42b0 8d3e 5c24 233e 8cfd 6dbe 1a32 5abe
000000a0: 860c ff3d e837 a3bd 40d2 b63d 0542 0fbd
000000b0: 8854 843e 2dc6 afbe 70a4 2b3e 1733 8bbc
000000c0: edfd 48be df08 87be 5ac7 713d 8682 08be
000000d0: 60d1 763d 3042 2abd 3247 e2bd 1364 24be
000000e0: 984b 5c3d bd92 3abe da3b 3f3e 83ad 923d
000000f0: 0845 e0bb bd87 25bd b37b b0bd 4db8 9c3d
00000100: ace6 38be 55fa 3bbe d3ae 9abd 508e 883e
00000110: 148d 31be 98aa f63d 5a50 443d ad3c 3e3c
00000120: f014 a43d 4f7b ea3c f030 c73d 3035 a0be
00000130: 9208 973e 32cd 8fbd d069 babc 588e 76bd
00000140: 7188 bcbd 8c96 5e3e 30f1 d4bc 112d 21bc
00000150: a0f8 1f3e 9527 e93d 8e5f 7d3d 61a8 04be
00000160: 1ced 9f3d 682f a53d b86c fd3d 137a 93be
00000170: c792 f63d 6491 c13b c6a0 8a3e aafe 823e
00000180: 71c0 ad3e b3d8 b43e 3936 cabd e64d e7bc
00000190: d951 6bbe 0519 623e dfd8 53be 6267 863e
000001a0: 0942 2abe 4053 61bd 3362 8cbc 062d 043d
000001b0: c14c 3abd fdf1 873e 6652 85bd 9c4b 3e3e
000001c0: 47f2 8b3d fc45 833d 6270 0abe 7a2f 583e
000001d0: 6ead 0bbe 163c 803e c00d e03b b397 7cbe
000001e0: ebc7 89be bf61 66be 0e68 543e 8e8d d33d
000001f0: 323e b83d 84cb 40bd 94a0 b13c e0bb ce3c
00000200: d03f 3cbe 80db d8bc e48e 54be 0030 46bb
00000210: d1de b7bd 66c1 5b3e 7775 213e 6678 a83a
00000220: 5507 6e3e 5d73 cabd 90b9 733e b8b5 92be
00000230: 39c1 cf3d e479 03bd ad86 4dbe c35b ee3d
00000240: 18eb 653e 24c7 84bd 1ff6 6e3e a273 293e
00000250: e86a 7fbc 0d2b bbbd 6859 073e 2449 87be
00000260: 12d1 b33d eac9 5fbc c3bb 93be b7e9 1d3d
00000270: 08e8 773e bdfe 693e 0cbc a23e a375 383d
00000280: 59df 8cbe 8b6c 86be 7968 05be 00b2 0f3c
00000290: fd69 863e 2146 92be 8733 16be fb1c e43d
000002a0: b971 63bc 54b3 083e 41ef b53e a214 f2bd
000002b0: 59e8 563e 49a7 c03d 00cf bdba 23a7 e33d
000002c0: f4e6 24be 9a8c 843b b297 6a3e 5226 3cbe
000002d0: 3979 66be d3ea 1cbd 701d d9bd 79b2 4d3e
000002e0: efec 783d 3b7b 2ebe 46ea 3ebe a46f 503e
000002f0: c0c0 f73c be33 50be 2247 35be 8e04 76be
00000300: 1893 833d 18cc 803e bf12 2e3d f57d 923e
00000310: 1a35 15be 801b 663d ecda fabc f705 8a3e
00000320: 2040 903e d0af 4c3d 90cf 8bbe d693 60be
00000330: 190f dbbe 1e97 8cbe 18ef 0fbd 72ba 7b3e
00000340: 41a2 e9bd b3b7 d13d 476e 31be d3c8 553e
00000350: 6c38 cc3d b7ed 89bd 8736 d73d 034a 403e
00000360: 1839 c0be 274a a53e ff63 f1bd ef51 e1bd
00000370: 213c 043e 290a bfbc 1d4d 6cbd c8ed 273d
00000380: 086f 4a3e c875 a13d b7c6 063e 2926 573c
00000390: 7e78 373e c639 a8bd 3cd0 44bd f068 65be
000003a0: 65fe d33c f0c0 4fbe 98f2 a0bd 7c9b 853e
000003b0: 10c3 a33c 50af bc3d 7c7e 19be b093 28be
000003c0: 34b8 433e 00c7 e03a f803 31be 8c0d 76be
000003d0: 026b 293e ba07 a0be 6cd3 153e cad5 9bbe
000003e0: 7ed8 5bbe 3125 1a3e 4d1d 48be ff60 b53d
000003f0: e2b1 10bd 1573 12be 73ba 0a3e 9ec5 68bd
0.1645827 -0.009352083 0.072574705 0.053988628 -0.11333975 -0.012255609 -0.2823538 -0.26395452
0.045730274 0.1339942 0.050443772 0.043208994 0.06735657 -0.29947793 0.18595955 -0.25830024
-0.017268032 -0.038989604 -0.19593704 -0.021914184 -0.07634947 -0.4339875 0.04428304 -0.2030238
0.19959915 -0.06148407 -0.0249345 -0.15565746 0.053738385 -0.067632094 -0.16469143 -0.026270658
-0.08833543 -0.028631797 0.07561475 0.23816916 0.27673537 0.15931839 -0.23241252 -0.21308175
0.124535605 -0.07969648 0.08926821 -0.03497507 0.25845742 -0.34330884 0.16761947 -0.016992135
-0.19628115 -0.26373956 0.059028007 -0.1333104 0.06025827 -0.041567028 -0.11048736 -0.160538
0.05378303 -0.18220039 0.18675175 0.07162001 -0.0068441667 -0.040412653 -0.08617344 0.0765234
-0.18056744 -0.18357213 -0.07552876 0.26671076 -0.17338973 0.12044257 0.04792819 0.011611146
0.08011806 0.028623251 0.09726131 -0.3129058 0.29498726 -0.0702156 -0.022755533 -0.060194343
-0.09205712 0.21737117 -0.025993913 -0.009837405 0.15622187 0.11384503 0.061858706 -0.12954856
0.07808897 0.08065683 0.12374252 -0.28804073 0.12039714 0.0059072245 0.27075785 0.25584918
0.33935884 0.35321578 -0.098736234 -0.028235387 -0.22980441 0.22079857 -0.20688199 0.2625075
-0.16626753 -0.055011034 -0.017136669 0.0322695 -0.045483354 0.2655181 -0.06509857 0.1858353
0.0683332 0.06409833 -0.13519433 0.21111861 -0.13640377 0.25045842 0.0068375766 -0.24667244
-0.26910338 -0.22498225 0.20742819 0.10329734 0.08996238 -0.047069088 0.021683015 0.02523607
-0.18383718 -0.026471853 -0.20757633 -0.0030241013 -0.08978046 0.21460494 0.15767466 0.0012853264
0.23244984 -0.09885285 0.23801255 -0.28654265 0.10144276 -0.032098666 -0.20070906 0.11638596
0.22452962 -0.064832956 0.23336075 0.16548017 -0.015589453 -0.09139071 0.132177 -0.2642299
0.08780111 -0.01365898 -0.28854188 0.038552966 0.24209607 0.22851081 0.31784093 0.045034062
-0.2751415 -0.26254687 -0.13028134 0.008770466 0.26252738 -0.2856913 -0.14668094 0.1113834
-0.013882094 0.13349658 0.355341 -0.11820342 0.20987071 0.09406907 -0.0014481246 0.11115863
-0.16103727 0.0040450813 0.2290943 -0.18373993 -0.2250718 -0.038309883 -0.10601318 0.20087613
0.060772832 -0.17039196 -0.18644056 0.20355088 0.030243278 -0.20332238 -0.17702916 -0.24025175
0.0642454 0.2515571 0.042498346 0.28611723 -0.14571038 0.05617857 -0.030621968 0.26957676
0.28173923 0.049972355 -0.27306795 -0.21931395 -0.42784956 -0.27459043 -0.035140127 0.24582842
-0.114079006 0.10240116 -0.17327224 0.2087739 0.09971699 -0.06734794 0.10508447 0.18778233
-0.3754356 0.32283136 -0.11786651 -0.11001956 0.12913562 -0.023320274 -0.05769073 0.04099825
0.19768918 0.07883793 0.13161741 0.013131657 0.17917058 -0.082141444 -0.04805015 -0.22403312
0.02587814 -0.20288444 -0.07858771 0.26095188 0.019990474 0.09213126 -0.14989656 -0.16462588
0.19113237 0.001714915 -0.1728667 -0.24028605 0.16544726 -0.31255895 0.14631432 -0.30436546
-0.21469304 0.1505325 -0.19542427 0.08856391 -0.035325892 -0.14301713 0.13547687 -0.056829087

conv1.0.bias f4 [64]
00000000: 3ee6 30bf 0000 0000 62cb 32bf 8cab c83e
00000010: 0000 0000 6075 c93e 0000 0000 0000 0000
00000020: 50f3 d33e 0000 0000 85b4 fe3e 71c6 8d3e
00000030: 1f76 84bc 0000 0000 3a22 083f faae 3c3f
00000040: c5c4 243f 8d44 243f 04f7 cf3e 0000 0000
00000050: 0475 dcbe 71fa 1b3f 0000 0000 6626 343e
00000060: 1217 593f 3f44 163f 9803 4b3f 50a4 28bf
00000070: c714 24bf 0000 0000 1f20 b33e 9281 403f
00000080: 0000 0000 53e8 093f f046 c53e 570c 2bbf
00000090: 2f27 083f 0f6f d03e 9271 a7be c4e1 28bf
000000a0: 0000 0000 0180 1b3f f3c3 2e3e aa4c 193f
000000b0: 7564 56bd d213 34bf 9156 15bf 0000 0000
000000c0: 5bf5 12bf 72af f13e 0000 0000 75b9 1bbe
000000d0: 1f72 15bf f8d8 1dbf dae6 28bd 608b 5f3f
000000e0: 05b6 1b3f 0000 0000 d078 073f 0000 0000
000000f0: 0000 0000 1580 28bd 387a 24bf 9c24 e03e
-0.6910132 0.0 -0.6984159 0.3919338 0.0 0.39347363 0.0 0.0
0.4139657 0.0 0.497471 0.2769046 -0.016169606 0.0 0.53177226 0.73704493
0.64362746 0.641671 0.40618145 0.0 -0.43058026 0.6092902 0.0 0.17592773
0.8480083 0.58697885 0.7930236 -0.6587572 -0.64094204 0.0 0.34985444 0.7519771
0.0 0.53870124 0.38530684 -0.66815704 0.5318479 0.4070973 -0.32703835 -0.6596949
0.0 0.60742193 0.17066936 0.59882605 -0.052341897 -0.70342743 -0.58335215 0.0
-0.5740563 0.47204167 0.0 -0.15207465 -0.5837726 -0.61659193 -0.041235782 0.87322044
0.60824615 0.0 0.5291872 0.0 0.0 -0.041137774 -0.6424899 0.4377793

conv2.0.weight f4 [64, 64]
00000000: bfe6 8a3e 7086 55bc d0d8 573e e627 b03e
00000010: 1413 163d b5a8 fc3d 5fc7 5c3e 3e2f 13be
00000020: 46d4 50be fe0b ecbd 4e54 613d 824d 4d3e
00000030: 2fbf ff3d 8027 f1ba 9e3b c13d 4d68 9c3d
00000040: 7795 f7bd 4305 81bd 531c d4bd 7c8b 01be
00000050: 2d28 f1bd 672f c7bd e951 003e ab22 3b3e
00000060: 6d3f f0bd 7890 2c3d 5ae0 4dbe 47e9 c53d
00000070: cb4a e33c 507a 03be 6355 d23d ccd6 98bd
00000080: 5a83 dfbd 130d 3fbe 1420 d73d 7169 98bd
00000090: 1982 15be 959b 71bd 1d4d a9bd b5fa 3f3e
000000a0: 6ce6 67bd bdb3 703b 2b13 5b3e 8e3d 2abe
000000b0: 7b97 8fbd f523 2e3e 6c87 2a3e 26e8 d43d
000000c0: f435 193e 6e9b 98bc 0253 bb3d 527d 26bc
000000d0: 815a 173e 826d d73d e08b 73bd 8772 63be
000000e0: 8753 0a3e a3e0 3abe 2ccd 8c3d cf3f 4f3e
000000f0: dfc5 35be 70d5 153e 4734 013e 74fe a0bd
00000100: 43dd c0bd 9093 d9bc c4c2 0bbe 67f2 52be
00000110: edfb 403e d447 c7bd 25f4 53be b40d 053d
00000120: 0735 02bb 99af 4d3e da5f 1f3e 5b59 b13d
00000130: e399 4fbe fe33 ef3d 44ce 2cbe 94bf 1ebd
00000140: 0814 fe3d c42e 6fbd 2200 043e 0037 ca3c
00000150: 6a71 9abd 7083 e4bd 90f6 a4bd dd6f d43d
00000160: 6174 363d ab60 aebd de36 fd3c 5984 f5bc
00000170: 8aa0 0bbe 04c6 52be b0e0 6fbd c5f1 383e
00000180: cc39 3ebe fae6 55be c713 c83d f61f 3abe
00000190: 0279 c9bd 210d 69be d0ea a0bc d6b3 2fbe
000001a0: 66e6 a13d 6e97 cdbd abde 4d3d df1c 94bd
000001b0: e075 393e 7cf7 1abd b07f 09be 353d 003e
000001c0: dd1d 9e3d 90d8 d0bd fab5 d73d ec4d 5abe
000001d0: 4be6 263d 3ff6 da3d da38 c93d a6b2 393d
000001e0: a485 163e 751d 023e c6f9 fc3d 30c2 4ebc
000001f0: 5808 3cbe bee6 63be 57f2 32be 8763 0a3e
00000200: 33c7 723e 1892 e1bc cb0d 033e d59c 2b3e
00000210: 04d7 0b3d b913 ae3e b551 dabd 1017 ff3c
00000220: ae35 083e 4ada 16be 9cfd 203e 3cec 12be
00000230: b457 6cbd 779d d4bd 6f5d 4bbe c132 4cbe
00000240: 354b 1abe 47e8 223e e922 803d a0c4 e13b
00000250: 9254 3e3e 93cf 643e 160b 3ebe c38a 3d3e
00000260: 61f2 71be e07b 143e 9449 d7be ef2a 2bbe
00000270: 99ce 2a3e b6cd 823d 59df 8ebd 044a 6fbc
00000280: aa0e 11be 00d5 b93c 714c 1e3e 8816 e73d
00000290: 70ab db3d dba9 263e 2959 16be 4189 acbd
000002a0: ec40 623d 4b7a febd 42d8 293e 6c23 4f3d
000002b0: 651f 0bbe 7a15 3d3e 5051 cf3d cd8b 143e
000002c0: e9fc 6b3d e3fd b23d e015 323c 8028 113e
000002d0: e4e9 4abd f9cc b4bd e4d8 10bd 2024 82be
000002e0: 2376 d53d 0967 013e 08cc 9bbc 63b4 173e
000002f0: 6ad3 f53d e631 06be 47da f5bc 6533 bebd
00000300: e77d bcbd 2afd 42be f720 263d c07c d5bb
00000310: 35cd e1bd 36dd 47be 30ca 2b3c b909 0c3e
00000320: 5a44 473e a8e2 e7bd 7ca3 0c3d 74ae 42be
00000330: d5fd 2a3e 4d79 2a3e 14df be3c 3f18 15be
00000340: d6c6 e23d 2aaa 36be 2634 d73d 097c 523e
00000350: 4133 003e 0077 0cbd 00eb ebba 9637 b8bc
00000360: a87c e63c 8575 9039 7951 9dbd efea 0ebe
00000370: 9047 22be 602c f7bd b06c 0fbb 345c 8e3d
00000380: 6d81 1dbe 7647 9d3d 6067 02be e460 333e
00000390: d06c c33d 30fa 8cbc fdbe 49be b74c b6bd
000003a0: 9008 273c 249c 8dbd c054 05bc c476 a4bd
000003b0: 50b8 b0bc 9458 a83d 9cc3 bfbd 1433 0fbd
000003c0: 83db 5bbc 60f6 94bd 1601 efbd fc69 34bd
000003d0: ec42 2fbe 345a 31be 7e05 833d bdff 4fbe
000003e0: 5a02 71be 00db 3bbe 4d53 373d 2c43 41bd
000003f0: 86a9 d23d 58d1 3cbd 57cf 313e a433 3fbe
0.2712917 -0.013032541 0.21078801 0.3440544 0.036639288 0.12336866 0.21560429 -0.1437349
-0.20393476 -0.11525725 0.05501204 0.20049098 0.12487637 -0.0018398613 0.09435199 0.07637081
-0.12089055 -0.06299832 -0.10356965 -0.12650865 -0.11775241 -0.09725838 0.12531246 0.18274944
-0.117308475 0.042129964 -0.20105115 0.09663635 0.027745625 -0.12839627 0.102701925 -0.07462844
-0.10913725 -0.18657331 0.10504165 -0.07441986 -0.1460041 -0.058986265 -0.08266661 0.18747981
-0.05661623 0.0036728226 0.21394031 -0.16625044 -0.070113145 0.17005904 0.16653222 0.10395841
0.14961988 -0.018628802 0.09146692 -0.010161715 0.14780618 0.10518934 -0.059459567 -0.22211657
0.13508426 -0.18249755 0.06875071 0.20239185 -0.17751263 0.14632201 0.12617598 -0.07861033
-0.09417202 -0.026559621 -0.13648516 -0.20600282 0.18846102 -0.09730497 -0.20698602 0.03248377
-0.0019868033 0.20086516 0.15563908 0.08659621 -0.20273547 0.116798386 -0.16875559 -0.038756922
0.124061644 -0.05839421 0.12890676 0.02468443 -0.07541163 -0.11157882 -0.080548406 0.10372899
0.04454458 -0.08514532 0.030909952 -0.029970335 -0.1363546 -0.2058335 -0.058563888 0.18060978
-0.18576735 -0.20888892 0.09769397 -0.18176255 -0.098375335 -0.22758915 -0.019643217 -0.17158446
0.07905273 -0.100386485 0.05026118 -0.07232069 0.18111372 -0.037833676 -0.13427615 0.12523349
0.0772054 -0.10197556 0.10532756 -0.21318787 0.04074697 0.10691499 0.09825297 0.045336388
0.14699417 0.1270655 0.12352328 -0.01261954 -0.18362558 -0.2225599 -0.17475258 0.13514529
0.23708801 -0.027535483 0.1279823 0.16759045 0.0341406 0.33999422 -0.10660116 0.031138927
0.13301727 -0.14731708 0.15721744 -0.14347929 -0.057700828 -0.103815965 -0.19859861 -0.19941236
-0.15067752 0.1590892 0.062566586 0.0068898946 0.18586949 0.22344808 -0.18558916 0.18509965
-0.23627616 0.1450038 -0.42048323 -0.16715597 0.16680373 0.063868925 -0.06976194 -0.014605049
-0.1416575 0.022684574 0.15458848 0.11283594 0.107260585 0.16275732 -0.1468245 -0.084246166
0.055237696 -0.12425669 0.16586402 0.05057089 -0.13586195 0.18465224 0.10122931 0.14506455
0.05761424 0.08739831 0.010869473 0.14175606 -0.04953946 -0.08828158 -0.035363093 -0.25418186
0.104229234 0.12636961 -0.019018188 0.14814906 0.12003215 -0.13104972 -0.03001131 -0.092871465
-0.092037015 -0.19041887 0.04055878 -0.0065151155 -0.11025468 -0.19517979 0.010485217 0.13675584
0.19459668 -0.11322528 0.0343356 -0.19011861 0.16698392 0.16647835 0.023299731 -0.1456003
0.11073081 -0.1783835 0.105079934 0.20555128 0.12519552 -0.034293175 -0.0017999113 -0.022487443
0.028135613 0.0002755338 -0.07681555 -0.13956808 -0.15847611 -0.12069011 -0.002188485 0.0695118
-0.15381403 0.07679646 -0.12734747 0.1751743 0.09542239 -0.017209142 -0.19701762 -0.08901351
0.010194913 -0.06914547 -0.008137882 -0.08030465 -0.021572262 0.0822002 -0.093634814 -0.03496082
-0.013419035 -0.07273555 -0.11670129 -0.044046387 -0.17115372 -0.17319566 0.06397532 -0.203124
-0.23536053 -0.1834526 0.044757176 -0.0471832 0.1028624 -0.046098083 0.1736425 -0.18672043

conv2.0.bias f4 [64]
00000000: 07e1 d7be d575 f4bc 443b eebe 62cd a9bc
00000010: 9295 ed3e 3c62 93bc 45af 8abc 9482 d4be
00000020: e6e9 1dbf dd57 08bd 0000 0000 d109 ddbe
00000030: 41f5 9ebd 8c0e 90bd 0000 0000 2049 16bf
00000040: 70a1 dd3e 785a e4bc 0000 0000 9fc8 e13e
00000050: 0000 0000 9e13 e63e f7b4 d83e 0000 0000
00000060: 5121 233f 0000 0000 4022 42bd 9ccb d6bc
00000070: e250 b9bb 42bd d4be 0000 0000 6409 01bc
00000080: a214 29bc 70ab fa3e c03f dfbe 0000 0000
00000090: 0000 0000 0000 0000 5372 23bf 661b 333f
000000a0: 0000 0000 154b d5be 90b0 b6bc 20ac eabe
000000b0: 737a e03e f2ff 96bc 78c5 17bf 3373 1d3f
000000c0: ac2c f7bb 5dd0 123f 4c4d c0be 5996 06bf
000000d0: 7edd 313f 4f13 da3e 5527 b6bb 980f f43e
000000e0: 2cf6 e33e dfc3 d53e b758 46bc bb7c fb3e
000000f0: 9c93 74bc fda4 d6be f973 7fbc d9c2 db3e
-0.4216387 -0.029841343 -0.4652959 -0.020727817 0.46403176 -0.017991178 -0.016929278 -0.41505873
-0.61685026 -0.033286918 0.0 -0.43171552 -0.07761622 -0.070340246 0.0 -0.5870533
0.4328723 -0.02787517 0.0 0.44098374 0.0 0.44936842 0.42325565 0.0
0.6372271 0.0 -0.047395945 -0.026220135 -0.005655394 -0.41550642 0.0 -0.007875774
-0.010319861 0.4895892 -0.43603325 0.0 0.0 0.0 -0.6384632 0.6996368
0.0 -0.41658846 -0.022300988 -0.45834446 0.4384342 -0.018432591 -0.5928569 0.61503905
-0.007543167 0.5734919 -0.37558973 -0.5257316 0.69478595 0.42592856 -0.005558888 0.47668147
0.44523752 0.41751 -0.012106112 0.491186 -0.014927771 -0.4192275 -0.015591615 0.42922094

conv3.0.weight f4 [1, 64]
00000000: 66c2 6fbe 64f5 16be c747 d9bd 4c64 50be
00000010: 75db 663e 0630 e8bd d409 81be c461 80bd
00000020: 9c07 79be 4a46 9dbd 1adb 993e 529c 95be
00000030: 889a afbe 99de 07be 08ed 47be 5546 31bd
00000040: 625c b63e ac39 2fbd 2a83 903e 7645 b43e
00000050: 402a af3b b8dd b53e 77af b83e 92e5 b5bd
00000060: bfb1 053f 3cfd 8bbe 43b9 2bbe ff32 cbbd
00000070: 6adc 44be c3e7 47be b41c f1bd 2ca5 75be
00000080: bc20 85be e83b 903e 6ee0 54be f097 a1bc
00000090: 1da1 1abe 7a7f b4bd ec98 21be e3ca 3f3f
000000a0: e8a4 06be c26d 0dbe f025 75be 8c14 0bbe
000000b0: 5bbd 443e bc67 ffbd c8bd 40bd 04ba 4c3d
000000c0: 0384 2fbe 1eb4 4c3f 5364 0cbd 8458 27be
000000d0: f3bc 973d aec8 483e 7d2b 86be e2cf 7f3e
000000e0: d82a 633e 7346 683e 6b6f 85bd 40c8 c73e
000000f0: c2f8 94bd 5bfa 07be 37a1 27bb 3513 d33e
-0.23414001 -0.14742047 -0.106093936 -0.2035076 0.22544654 -0.11337285 -0.2520281 -0.06268647
-0.24319309 -0.07679422 0.30049974 -0.29220825 -0.34297585 -0.13268508 -0.19524014 -0.043279964
0.35617357 -0.04277961 0.2822507 0.35209244 0.0053456128 0.3552072 0.3607137 -0.08881678
0.52224344 -0.2734164 -0.1676989 -0.09921836 -0.19224706 -0.19522004 -0.11773053 -0.2398879
-0.26001537 0.28170705 -0.20788738 -0.01972577 -0.15100522 -0.08813377 -0.15780991 0.74918956
-0.13148844 -0.138114 -0.23940253 -0.13582057 0.19212858 -0.12470958 -0.04705599 0.049982086
-0.17140202 0.79962337 -0.034275364 -0.1634236 0.07409086 0.19607803 -0.26205054 0.24981645
0.22184312 0.22683124 -0.06515392 0.39019966 -0.07274009 -0.13279097 -0.002557827 0.4122559
