Tetris-PPO/trained_models/tetris_2000.pth (torch, 20976 bytes, 5 tensors)

conv1.0.weight f4 [64, 4]
0.14413817 0.018570816 0.11193257 0.04532903 -0.11333975 -0.012255609 -0.2823538 -0.26395452
0.0313862 0.1628866 0.09391366 0.034780562 0.24102765 -0.2974119 0.20881525 -0.2354255
-0.017268032 -0.038989604 -0.19593704 -0.021914184 0.02627873 -0.4339875 0.044379126 -0.20493084
0.19959915 -0.06148407 -0.0249345 -0.15565746 0.053738385 -0.067632094 -0.16469143 -0.026270658
0.050085977 -0.07984585 0.08379864 0.19836383 0.27673537 0.15931839 -0.23241252 -0.21308175
-0.12867498 -0.14330082 0.070997536 -0.049231097 0.6034427 -0.40358785 0.15024625 -0.057468988
-0.19628115 -0.26373956 0.059028007 -0.1333104 0.06025827 -0.041567028 -0.11048736 -0.160538
0.029990545 -0.2874678 0.13475986 0.042539485 -0.010178475 -0.10552429 -0.118390806 0.06124988
-0.17213364 -0.32845843 -0.15048195 0.20725672 -0.16992247 0.057933867 0.01836017 -0.0006127319
0.18449728 0.028623251 0.0973395 -0.3145553 0.29624045 -0.0702156 -0.020324424 -0.058987364
-0.15210387 0.16761877 -0.040869765 -0.052750394 0.068113595 0.06371141 0.044617582 -0.092555605
0.07808897 0.08065683 0.12374252 -0.28804073 0.09075119 -0.089217365 0.23914297 0.113165
0.40274933 0.3143184 -0.053500663 -0.005654129 -0.21726249 0.14296532 -0.24011862 0.22933252
-0.14623427 -0.12973753 -0.05366127 0.015490592 -0.026261715 0.30050743 -0.023416998 0.16395995
0.06659072 0.08573653 -0.09741259 0.1865581 -0.13640377 0.25045842 0.0068375766 -0.24667244
-0.27120125 -0.33474123 0.18076761 0.048787747 0.0987861 -0.11704538 -0.010487356 0.0120760575
-0.18383718 -0.026471853 -0.20757633 -0.0030241013 -0.04493579 0.16672091 0.12979832 -0.030620376
0.13081276 -0.09976208 0.24042551 -0.28208673 0.016753487 -0.01589925 -0.18153985 0.09231274
0.17242442 -0.18132229 0.19797783 0.1094257 0.03427505 -0.09139071 0.1263855 -0.26624084
-0.31456366 -0.014400552 -0.22716868 0.057508633 0.23107779 0.24975953 0.33593857 0.025717042
-0.2751415 -0.26254687 -0.13028134 0.008770466 0.26102078 -0.34972826 -0.18819949 0.1034245
0.4835675 0.14139268 0.43780082 -0.086098224 0.21396822 -0.06821771 -0.07483921 0.047662254
-0.069137365 0.006964161 0.21735215 -0.1955366 -0.21469004 -0.055792872 -0.07780928 0.1466165
0.049077496 -0.17152347 -0.16535491 0.16487075 0.030243278 -0.20332238 -0.17702916 -0.24025175
0.048986435 0.26017976 0.038400717 0.2509796 -0.108183004 0.00084957015 -0.041159026 0.24285127
0.28173923 0.049972355 -0.27306795 -0.21931395 -0.7394956 -0.34973705 -0.13837735 0.14452927
-0.10696959 0.0625659 -0.17100027 0.1274994 0.11786621 -0.059658498 0.10726314 0.14794141
-0.26372057 0.3211452 -0.12384463 -0.1194153 0.13269821 -0.08113919 -0.08475934 0.033462524
0.18925782 -0.0045222095 0.094707385 -0.0060796677 0.17917058 -0.082141444 -0.04805015 -0.22403312
0.113201015 -0.23796263 -0.09332227 0.24192216 0.019990474 0.09213126 -0.14989656 -0.16462588
0.19113237 0.001714915 -0.1728667 -0.24028605 0.3039624 -0.31255895 0.14845647 -0.30713204
-0.25276673 0.18522106 -0.14925236 0.07515963 -0.27243254 -0.16717859 0.1331104 -0.06889144
00000000: f598 133e d321 983c e73c e53d efaa 393d
00000010: ac1e e8bd c0cb 48bc ad90 90be 0c25 87be
00000020: d18e 003d bfcb 263e ce55 c03d 1076 0e3d
00000030: f4cf 763e 5f46 98be aad3 553e 6213 71be
00000040: b075 8dbc 90b3 1fbd b8a3 48be 6085 b3bc
00000050: 7e46 d73c 9c33 debe e3c6 353d 64d9 51be
00000060: b863 4c3e b8d6 7bbd 7043 ccbc ab64 1fbe
00000070: c81c 5c3d b282 8abd dfa4 28be 9035 d7bc
00000080: f426 4d3d 3986 a3bd 9f9e ab3d e31f 4b3e
00000090: 42b0 8d3e 5c24 233e 8cfd 6dbe 1a32 5abe
000000a0: 60c3 03be 73bd 12be 2867 913d 8ca6 49bd
000000b0: 397b 1a3f 11a3 cebe 27da 193e 9a64 6bbd
000000c0: edfd 48be df08 87be 5ac7 713d 8682 08be
000000d0: 60d1 763d 3042 2abd 3247 e2bd 1364 24be
000000e0: bbae f53c fb2e 93be 7dfe 093e e23d 2e3d
000000f0: 9ec3 26bc 1e1d d8bd e176 f2bd 27e1 7a3d
00000100: cd43 30be b42b a8be f117 1abe 1b3b 543e
00000110: 2800 2ebe 104c 6d3d 1168 963c be9f 20ba
00000120: dbec 3c3e 4f7b ea3c ef59 c73d 640d a1be
00000130: d4ac 973e 32cd 8fbd 687f a6bc bc9c 71bd
00000140: 1ec1 1bbe 41a4 2b3e 0e67 27bd cc10 58bd
00000150: 247f 8b3d 217b 823d edc0 363d cb8d bdbd
00000160: 1ced 9f3d 682f a53d b86c fd3d 137a 93be
00000170: c3db b93d 98b7 b6bd e5e1 743e 0dc3 e73d
00000180: 2935 ce3e 57ee a03e 8323 5bbd 4646 b9bb
00000190: 0f7a 5ebe 8065 123e a8e1 75be 25d6 6a3e
000001a0: 70be 15be ead9 04be ebcb 5bbd 41cc 7d3c
000001b0: cf22 d7bc 1cdc 993e 01d5 bfbc 1ee5 273e
000001c0: b760 883d a296 af3d 4180 c7bd 1609 3f3e
000001d0: 6ead 0bbe 163c 803e c00d e03b b397 7cbe
000001e0: e4da 8abe 3463 abbe 251b 393e a9d5 473d
000001f0: 5e50 ca3d 7db5 efbd 29d3 2bbc a8da 453c
00000200: d03f 3cbe 80db d8bc e48e 54be 0030 46bb
00000210: 970e 38bd e3b8 2a3e dae9 043e 95d7 fabc
00000220: c8f3 053e 1050 ccbd 1b32 763e ac6d 90be
00000230: 9c3e 893c 253f 82bc 95e5 39be 760e bd3d
00000240: 0790 303e 8dac 39be b3ba 4a3e 951a e03d
00000250: ff63 0c3d 0d2b bbbd 336b 013e b850 88be
00000260: 7d0e a1be 4bf0 6bbc e89e 68be 2c8e 6b3d
00000270: a89f 6c3e f6c0 7f3e 2400 ac3e 8cac d23c
00000280: 59df 8cbe 8b6c 86be 7968 05be 00b2 0f3c
00000290: 84a4 853e 950f b3be 5eb7 40be 39d0 d33d
000002a0: 2996 f73e 3ec9 103e 6e27 e03e 4454 b0bd
000002b0: 7c1a 5b3e bab5 8bbd 4d45 99bd 7f39 433d
000002c0: e497 8dbd 9e33 e43b 9091 5e3e bf3a 48be
000002d0: b5d7 5bbe 1187 64bd 795a 9fbd a322 163e
000002e0: 7c05 493d d9a3 2fbe cc52 29be e1d3 283e
000002f0: c0c0 f73c be33 50be 2247 35be 8e04 76be
00000300: 00a6 483d 4836 853e 124a 1d3d 6680 803e
00000310: 0d8f ddbd b0b5 5e3a 5e96 28bd 01ae 783e
00000320: 2040 903e d0af 4c3d 90cf 8bbe d693 60be
00000330: 954f 3dbf bc10 b3be cbb2 0dbe 7bff 133e
00000340: df12 dbbd 8d22 803d b21a 2fbe 348f 023e
00000350: d763 f13d 785c 74bd c7ac db3d f47d 173e
00000360: 6206 87be 256d a43e 41a2 fdbd 0290 f4bd
00000370: 0ae2 073e 4e2c a6bd 4e96 adbd 0010 093d
00000380: cdcc 413e 0b2f 94bb f2f5 c13d f337 c7bb
00000390: 7e78 373e c639 a8bd 3cd0 44bd f068 65be
000003a0: efd5 e73d 7aac 73be bf1f bfbd 71ba 773e
000003b0: 10c3 a33c 50af bc3d 7c7e 19be b093 28be
000003c0: 34b8 433e 00c7 e03a f803 31be 8c0d 76be
000003d0: f6a0 9b3e ba07 a0be f904 183e 6940 9dbe
000003e0: a46a 81be 97aa 3d3e 9cd5 18be 4bed 993d
000003f0: 477c 8bbe dd30 2bbe 184e 083e f516 8dbd

conv1.0.bias f4 [64]
-1.4720867 0.0 -1.4330212 0.38738537 0.0 0.32528475 0.0 0.0
1.06129 0.0 0.6557741 0.28134868 -0.016169606 0.0 1.2616162 1.560201
1.382575 1.4352726 0.33356205 -0.0019989272 -0.54192567 0.77822304 0.0 0.017044984
1.7514966 1.2717992 1.6766343 -1.3672793 -1.3559327 0.0 1.1022266 1.6501942
0.0 1.3409027 0.37026754 -1.593546 1.3052981 0.36223146 -1.0468456 -1.4620655
0.0 1.312942 0.20533523 1.4200711 -0.031338193 -1.5246183 -1.4880834 0.0
-1.3453964 1.1533891 0.0 -0.38950098 -1.3730965 -1.4177232 -0.061686378 1.7591934
1.4170232 0.0 1.1848668 0.0 0.0 -0.049030118 -1.4635664 0.57336
00000000: 566d bcbf 0000 0000 3d6d b7bf 6057 c63e
00000010: 0000 0000 b98b a63e 0000 0000 0000 0000
00000020: 5ad8 873f 0000 0000 d0e0 273f ef0c 903e
00000030: 1f76 84bc 0000 0000 a47c a13f abb4 c73f
00000040: 38f8 b03f 03b7 b73f a5c8 aa3e 6f00 03bb
00000050: a4bb 0abf a039 473f 0000 0000 eca1 8b3c
00000060: 0a31 e03f 51ca a23f f49b d63f 0203 afbf
00000070: 348f adbf 0000 0000 c315 8d3f 9039 d33f
00000080: 0000 0000 b3a2 ab3f b593 bd3e 51f9 cbbf
00000090: 0214 a73f 6776 b93e 09ff 85bf f624 bbbf
000000a0: 0000 0000 7c0e a83f 6643 523e e4c4 b53f
000000b0: 7a5c 00bd b126 c3bf 8479 bebf 0000 0000
000000c0: f335 acbf 41a2 933f 0000 0000 ac6c c7be
000000d0: a0c1 afbf f477 b5bf dbaa 7cbd 402d e13f
000000e0: 0461 b53f 0000 0000 b7a9 973f 0000 0000
000000f0: 0000 0000 ced3 48bd 2556 bbbf b9c7 123f

conv2.0.weight f4 [64, 64]
0.30801034 -0.013032541 0.23803283 0.37399095 0.036639288 0.12336866 0.21560429 -0.1437349
-0.21476397 -0.11525725 0.12547997 0.2296405 0.12487637 -0.0018398613 0.037164923 0.0034688946
-0.1487013 -0.12339921 -0.10356965 -0.12650865 -0.12566738 -0.049815495 0.12531246 0.16924572
-0.16956621 0.024215834 -0.5012582 0.09936751 0.029462593 -0.12839627 0.08967806 -0.32296184
-0.10913725 -0.20924667 0.13394079 -0.05373237 -0.16818313 -0.04997623 -0.0936708 0.20526075
-0.05661623 -0.048950974 0.21703862 -0.20316629 -0.07166891 0.17732914 0.16948253 0.10395841
0.1466823 -0.032194067 0.09146692 -0.030995948 0.14987874 0.10817783 -0.055402998 -0.37438008
0.07232716 -0.18249755 0.04916946 0.20239185 -0.17751263 0.1484922 0.14282444 -0.022484932
-0.09417202 -0.026559621 -0.13648516 -0.20600282 0.18846102 -0.09730497 -0.20698602 0.03248377
-0.0032228234 0.20086516 0.15337573 0.085649446 -0.20273547 0.116798386 -0.16984653 -0.04111114
0.122518785 -0.05961615 0.12890676 0.02468443 -0.07541163 -0.11256159 -0.080548406 0.1027969
0.033926375 -0.087717466 0.028093621 -0.030005006 -0.1363546 -0.2058335 -0.05931892 0.1784788
-0.18576735 -0.20968719 0.09769397 -0.18176255 -0.09930138 -0.22758915 -0.019643217 -0.17202786
0.07905273 -0.1063638 0.049022518 -0.07396815 0.18111372 -0.037833676 -0.13427615 0.12523349
0.07659308 -0.103240296 0.10532756 -0.21338996 0.04074697 0.10645229 0.09825297 0.042363916
0.14581656 0.1270655 0.12162775 -0.01261954 -0.18362558 -0.2225599 -0.17475258 0.13400431
0.2685383 -0.027535483 0.14965355 0.17600527 0.0341406 0.33999422 -0.10660116 0.031138927
0.11830669 -0.14731708 0.2086003 -0.122203216 -0.057700828 -0.103815965 -0.25417465 -0.2745764
-0.1816523 0.09756766 0.062566586 0.0068898946 0.17625114 0.25496033 -0.18558916 0.16765082
-0.29300192 0.122895464 -0.7181077 -0.16930841 0.16369073 0.063868925 -0.08301889 -0.2604173
-0.1416575 -0.001298662 0.15953834 0.12728423 0.08241419 0.17053755 -0.16643012 -0.071150005
0.055237696 -0.17782049 0.1693304 0.011313778 -0.14568658 0.18735121 0.09926438 0.14506455
0.05009551 0.06980137 0.010869473 0.117529035 -0.05247512 -0.08963669 -0.03378189 -0.40711224
0.042181615 0.12636961 -0.04240119 0.14814906 0.12003215 -0.13104972 -0.01955522 -0.052804623
-0.092037015 -0.19041887 0.04055878 -0.0065151155 -0.11025468 -0.19517979 0.010485217 0.13675584
0.19459668 -0.11322528 0.0343356 -0.19011861 0.16698392 0.16647835 0.023299731 -0.1456003
0.11073081 -0.1783835 0.105079934 0.20555128 0.12519552 -0.034293175 -0.0017999113 -0.022487443
0.028135613 0.0002755338 -0.07681555 -0.13956808 -0.15847611 -0.12069011 -0.002188485 0.0695118
-0.15381403 0.07679646 -0.12734747 0.1751743 0.09542239 -0.017209142 -0.19701762 -0.08901351
0.010194913 -0.06914547 -0.008137882 -0.08030465 -0.021572262 0.0822002 -0.093634814 -0.03496082
-0.013419035 -0.07273555 -0.11670129 -0.044046387 -0.17115372 -0.17319566 0.06397532 -0.203124
-0.23536053 -0.1834526 0.044757176 -0.0471832 0.1028624 -0.046098083 0.1736425 -0.18672043
00000000: 88b3 9d3e 7086 55bc e1be 733e be7b bf3e
00000010: 1413 163d b5a8 fc3d 5fc7 5c3e 3e2f 13be
00000020: 16eb 5bbe fe0b ecbd d27d 003e e126 6b3e
00000030: 2fbf ff3d 8027 f1ba 3f3a 183d 6556 633b
00000040: 2745 18be bab8 fcbd 531c d4bd 7c8b 01be
00000050: f3ae 00be 550b 4cbd e951 003e c04e 2d3e
00000060: c4a2 2dbe 4960 c63c 7552 00bf 3181 cb3d
00000070: 895b f13c 507a 03be 21a9 b73d 415b a5be
00000080: 5a83 dfbd c244 56be c627 093e 7916 5cbd
00000090: 3338 2cbe e0b3 4cbd 7ad6 bfbd e02f 523e
000000a0: 6ce6 67bd d180 48bd 5f3f 5e3e d30a 50be
000000b0: 26c7 92bd c595 353e d48c 2d3e 26e8 d43d
000000c0: e333 163e eddd 03bd 0253 bb3d 37eb fdbc
000000d0: d079 193e 578c dd3d 41ee 62bd bfae bfbe
000000e0: 4320 943d a3e0 3abe ea65 493d cf3f 4f3e
000000f0: dfc5 35be 570e 183e 9240 123e 5232 b8bc
00000100: 43dd c0bd 9093 d9bc c4c2 0bbe 67f2 52be
00000110: edfb 403e d447 c7bd 25f4 53be b40d 053d
00000120: 0136 53bb 99af 4d3e 870e 1d3e fa68 af3d
00000130: e399 4fbe fe33 ef3d 40ec 2dbe 2864 28bd
00000140: 21eb fa3d 1030 74bd 2200 043e 0037 ca3c
00000150: 6a71 9abd b186 e6bd 90f6 a4bd 2e87 d23d
00000160: 62f6 0a3d 37a5 b3bd 9824 e63c 0fcd f5bc
00000170: 8aa0 0bbe 04c6 52be 65f8 72bd 26c3 363e
00000180: cc39 3ebe 3db8 56be c713 c83d f61f 3abe
00000190: 865e cbbd 210d 69be d0ea a0bc 1228 30be
000001a0: 66e6 a13d 44d5 d9bd d6cb 483d 9d7c 97bd
000001b0: e075 393e 7cf7 1abd b07f 09be 353d 003e
000001c0: d5dc 9c3d a66f d3bd fab5 d73d e682 5abe
000001d0: 4be6 263d a903 da3d da38 c93d c985 2d3d
000001e0: f050 153e 751d 023e f817 f93d 30c2 4ebc
000001f0: 5808 3cbe bee6 63be 57f2 32be 6d38 093e
00000200: da7d 893e 1892 e1bc c83e 193e ba3a 343e
00000210: 04d7 0b3d b913 ae3e b551 dabd 1017 ff3c
00000220: c74a f23d 4ada 16be 519b 553e ae45 fabd
00000230: b457 6cbd 779d d4bd 2e23 82be 4795 8cbe
00000240: 0f03 3abe 8ed1 c73d e922 803d a0c4 e13b
00000250: 2e7b 343e 298a 823e 160b 3ebe a8ac 2b3e
00000260: 5904 96be 9eb0 fb3d e8d5 37bf 2f5f 2dbe
00000270: 8b9e 273e b6cd 823d cf05 aabd 6b55 85be
00000280: aa0e 11be de37 aaba 055e 233e cc56 023e
00000290: c5c8 a83d 65a1 2e3e a86c 2abe 18b7 91bd
000002a0: ec40 623d 9316 36be f364 2d3e 6d5d 393c
000002b0: dd2e 15be ffd8 3f3e 204b cb3d cd8b 143e
000002c0: f330 4d3d 05f4 8e3d e015 323c 10b3 f03d
000002d0: 27f0 56bd 7193 b7bd e15e 0abd 0471 d0be
000002e0: a1c6 2c3d 0967 013e dfac 2dbd 63b4 173e
000002f0: 6ad3 f53d e631 06be 4532 a0bc a949 58bd
00000300: e77d bcbd 2afd 42be f720 263d c07c d5bb
00000310: 35cd e1bd 36dd 47be 30ca 2b3c b909 0c3e
00000320: 5a44 473e a8e2 e7bd 7ca3 0c3d 74ae 42be
00000330: d5fd 2a3e 4d79 2a3e 14df be3c 3f18 15be
00000340: d6c6 e23d 2aaa 36be 2634 d73d 097c 523e
00000350: 4133 003e 0077 0cbd 00eb ebba 9637 b8bc
00000360: a87c e63c 8575 9039 7951 9dbd efea 0ebe
00000370: 9047 22be 602c f7bd b06c 0fbb 345c 8e3d
00000380: 6d81 1dbe 7647 9d3d 6067 02be e460 333e
00000390: d06c c33d 30fa 8cbc fdbe 49be b74c b6bd
000003a0: 9008 273c 249c 8dbd c054 05bc c476 a4bd
000003b0: 50b8 b0bc 9458 a83d 9cc3 bfbd 1433 0fbd
000003c0: 83db 5bbc 60f6 94bd 1601 efbd fc69 34bd
000003d0: ec42 2fbe 345a 31be 7e05 833d bdff 4fbe
000003e0: 5a02 71be 00db 3bbe 4d53 373d 2c43 41bd
000003f0: 86a9 d23d 58d1 3cbd 57cf 313e a433 3fbe

conv2.0.bias f4 [64]
-0.95275426 -0.030579254 -1.013024 -0.020727817 1.0924909 -0.023199253 -0.021112958 -0.69551235
-0.9602177 -0.03429914 0.0 -0.8964413 -0.029532282 -0.051948823 0.0 -1.2733074
0.9997464 -0.02787517 0.0 1.0158645 0.0 1.066553 0.97531295 0.0
1.2389452 0.0 -0.047395945 -0.03303102 -0.005655394 -0.94327563 -0.029300716 -0.007875774
-0.01140121 1.1509345 -0.94355774 0.11051104 0.0 0.0 -1.2347437 1.355992
0.0 -0.8725745 -0.022301147 -1.0050503 1.0360985 -0.018432591 -1.2068579 1.526072
-0.007543167 1.1007376 -0.4962535 -1.0764576 1.6358168 0.9948337 -0.03370005 1.0755544
1.0697545 0.9306188 -0.01859485 1.020957 -0.014927771 -0.94732386 -0.015591615 0.99378276
00000000: b4e7 73bf 5881 fabc c5aa 81bf 62cd a9bc
00000010: bed6 8b3f 5c0c bebc 15f5 acbc 190d 32bf
00000020: d4d0 75bf 417d 0cbd 0000 0000 2d7d 65bf
00000030: afed f1bc 4ac8 54bd 0000 0000 bdfb a2bf
00000040: 61ef 7f3f 785a e4bc 0000 0000 d907 823f
00000050: 0000 0000 cf84 883f 1cae 793f 0000 0000
00000060: c295 9e3f 0000 0000 4022 42bd 894b 07bd
00000070: e250 b9bb 837a 71bf 0e08 f0bc 6409 01bc
00000080: 24cc 3abc d251 933f 008d 71bf 9d53 e23d
00000090: 0000 0000 0000 0000 150c 9ebf 2591 ad3f
000000a0: 0000 0000 0b61 5fbf e5b0 b6bc 7da5 80bf
000000b0: e09e 843f f2ff 96bc 527a 9abf 5456 c33f
000000c0: ac2c f7bb f8e4 8c3f f014 febe 5dc9 89bf
000000d0: 7262 d13f 6cad 7e3f 1009 0abd c4ab 893f
000000e0: b7ed 883f 093d 6e3f 3a54 98bc b8ae 823f
000000f0: 9c93 74bc d183 72bf f973 7fbc 8c68 7e3f

conv3.0.weight f4 [1, 64]
-0.26008523 -0.1469219 -0.12121282 -0.2035076 0.8099741 -0.11094901 -0.2498851 -0.007150491
-0.19298685 -0.07679408 0.30049974 -0.30610374 -0.41629747 -0.12428311 -0.19524014 -0.06732535
0.46104094 -0.04277961 0.2822507 0.89938647 0.0053456128 0.5249436 0.46879062 -0.08881678
1.2091184 -0.2734164 -0.1676989 -0.071626514 -0.19224706 -0.20772678 -0.0885216 -0.2398879
-0.25448728 0.4360434 -0.21430245 -0.22215001 -0.15100522 -0.08813377 -0.20054889 1.3895645
-0.13148844 -0.12887208 -0.23940253 -0.15929124 0.34977338 -0.12470958 -0.06517424 0.19858703
-0.17140202 1.4846656 -0.006654242 -0.20614351 0.2674636 0.28700534 -0.2775176 0.73557305
0.37244308 0.27136064 -0.044056706 0.9444079 -0.07274009 -0.14693876 -0.002557827 0.56785893
00000000: e429 85be b272 16be 6d3e f8bd 4c64 50be
00000010: 765a 4f3f 3c39 e3bd e1e1 7fbe aa4e eabb
00000020: 589e 45be 3746 9dbd 1adb 993e a1b9 9cbe
00000030: f124 d5be 2588 febd 08ed 47be e0e1 89bd
00000040: 8f0d ec3e ac39 2fbd 2a83 903e 313e 663f
00000050: 402a af3b b462 063f 5305 f03e 92e5 b5bd
00000060: 64c4 9a3f 3cfd 8bbe 43b9 2bbe ecb0 92bd
00000070: 6adc 44be 54b6 54be d04a b5bd 2ca5 75be
00000080: 284c 82be 1541 df3e 1a72 5bbe 4b7b 63be
00000090: 1da1 1abe 7a7f b4bd b05c 4dbe 40dd b13f
000000a0: e8a4 06be 0bf7 03be f025 75be 3e1d 23be
000000b0: 7f15 b33e bc67 ffbd 127a 85bd 665a 4b3e
000000c0: 0384 2fbe 8609 be3f d40b dabb 4917 53be
000000d0: fdf0 883e 5df2 923e c916 8ebe 844e 3c3f
000000e0: dcb0 be3e c8ef 8a3e ce74 34bd b7c4 713f
000000f0: c2f8 94bd 1d77 16be 37a1 27bb 345f 113f
