Tetris-PPO/trained_models/tetris_3000.pth (torch, 20976 bytes, 5 tensors)

conv1.0.weight f4 [64, 4]
00000000: 7827 2c3e 4f1e 263d 083f 323e 7778 573d
00000010: ac1e e8bd c0cb 48bc ad90 90be 0c25 87be
00000020: 1d64 833d 514e 3b3e bec3 1f3e 6f7f 283d
00000030: c203 273e 0155 00be 5e63 993e 375e fabd
00000040: b075 8dbc 90b3 1fbd b8a3 48be 6085 b3bc
00000050: 6337 01bd 3d86 08bf d3de 823d 5b3e 7fbd
00000060: fe62 3a3e b8d6 7bbd a324 2ebd 6565 31be
00000070: c81c 5c3d b282 8abd dfa4 28be 9035 d7bc
00000080: 0f6f 263d 06f6 0dbe a60e 4a3c 853d 1d3e
00000090: 42b0 8d3e 5c24 233e 8cfd 6dbe 1a32 5abe
000000a0: 8ab5 01bd 88cc 1bbe 4cd7 eb3d 8419 b43c
000000b0: 1bd3 cd3e 9072 11bf d2bd 113e 11bb 85bd
000000c0: edfd 48be df08 87be 5ac7 713d 8682 08be
000000d0: 60d1 763d 3042 2abd 3247 e2bd 1364 24be
000000e0: ffeb 303c 93c7 a3be 7570 bd3d 31eb 063d
000000f0: b1d7 d2bc 187f 02be a58b cfbd b69b 6e3d
00000100: 3081 39be c629 bbbe 6e14 3fbe d95e 3d3e
00000110: d659 3cbe 326d 0e3d 0aa6 a8bc ca09 a6bb
00000120: ed0e 123d f323 283e 3605 4f3d 8e5e 69be
00000130: 4017 573e abdc ccbd e1a8 14be 8140 38be
00000140: 1ec1 1bbe 41a4 2b3e 1667 27bd d210 58bd
00000150: b144 24bc 1b98 853c 0928 c53d 9c98 3d3c
00000160: 1ced 9f3d 682f a53d b86c fd3d 137a 93be
00000170: 5fdb 60be 1871 a0be 4c5c 913e a0b9 6638
00000180: a9b5 c73e 6456 953e 5424 4dbd ede0 36bb
00000190: 18b3 73be bb5d d73d 4a6a 83be b8f5 563e
000001a0: a9e8 1ebe 0620 17be b84e 42bd b6e4 7e3c
000001b0: c8c2 51bc 8800 a03e 3395 923c b323 213e
000001c0: 9567 9b3d 4098 c63d c04a 5fbd dd9c 383e
000001d0: 6ead 0bbe 163c 803e c00d e03b b397 7cbe
000001e0: 17fa 95be a789 c0be a526 003e f8dc f63c
000001f0: 9c5c b03d 7b78 0fbe 5168 15bd e895 ea3b
00000200: d03f 3cbe 80db d8bc e48e 54be 0030 46bb
00000210: 4acf 80bd 9595 193e 611d b83d 6c18 c6bc
00000220: 9505 eb3c ecdc 00be 41ac 843e 7a6c 69be
00000230: cb2b 0b3e bf33 363b 0e5b 0cbe f137 de3d
00000240: 157f 213e 113f 67be 3355 113e 0f1e b03d
00000250: d794 c5bd 3a69 733e 1b02 513e 8b35 21be
00000260: ef27 50be 206a b3bb e6ce 41be 82fc 8e3d
00000270: 9771 793e d3f0 873e d1e5 c43e ee3c d73c
00000280: 59df 8cbe 8b6c 86be 7968 05be 00b2 0f3c
00000290: ad88 7c3e ceb6 bdbe a8fd 20be ee3b d43d
000002a0: 21d0 6d3e fe8e 083d 5994 143f 8e52 5abd
000002b0: 4106 493e c756 c4bd e063 9cbd 9671 1a3d
000002c0: a782 95be 9499 3c3e 8c94 a83e f4b7 2cbe
000002d0: 0fd9 44be 2cda 3ebd 1e7e b4bc 8a37 113e
000002e0: 6502 8b3d d232 28be 7501 0ebe 2cae 223e
000002f0: c0c0 f73c be33 50be 2247 35be 8e04 76be
00000300: 8265 6f3d fb36 873e a12b 953d 0e48 723e
00000310: a400 fdbd b133 35bd ef41 dbbd 1d3c 5b3e
00000320: 2040 903e d0af 4c3d 90cf 8bbe d693 60be
00000330: 4818 78bf 189f f5be abab 35be ab5f 0c3d
00000340: 018f 58bb 2153 773d 1926 2bbe 9fd2 eb3d
00000350: 5f49 013e 63f1 4abd 0613 143e 22ff 0e3e
00000360: 6206 87be 346d a43e d4a1 fdbd b78f f4bd
00000370: 70e2 f93d 40e1 cdbd df08 96bd e216 033d
00000380: 3df3 2d3e 7a0b adbc 8400 543d b31c 31bc
00000390: 7e78 373e c639 a8bd 3cd0 44bd f068 65be
000003a0: 9e31 d53d c00d 8fbe 300f 22be fa44 573e
000003b0: 10c3 a33c 50af bc3d 7c7e 19be b093 28be
000003c0: 34b8 433e 00c7 e03a f803 31be 8c0d 76be
000003d0: 7387 813e ba07 a0be 74d8 e13d b64b b4be
000003e0: 9b28 36be 07f6 533e 6ce3 d1bd 5ada b43d
000003f0: 6c03 5ebe d862 41be 24ab 433e aac9 023d
0.16811931 0.04055625 0.17406857 0.05260512 -0.11333975 -0.012255609 -0.2823538 -0.26395452
0.064155795 0.18291594 0.15602013 0.041137155 0.16310027 -0.12532426 0.29958624 -0.12225001
-0.017268032 -0.038989604 -0.19593704 -0.021914184 -0.03154696 -0.5332983 0.063901566 -0.062315326
0.18201825 -0.06148407 -0.04251541 -0.17323835 0.053738385 -0.067632094 -0.16469143 -0.026270658
0.040633257 -0.13863382 0.012332594 0.15355499 0.27673537 0.15931839 -0.23241252 -0.21308175
-0.03166727 -0.15214741 0.11515674 0.021984823 0.40200123 -0.56815434 0.14232567 -0.06529821
-0.19628115 -0.26373956 0.059028007 -0.1333104 0.06025827 -0.041567028 -0.11048736 -0.160538
0.010798453 -0.319882 0.09249965 0.03293914 -0.025737615 -0.12743795 -0.10134057 0.058253966
-0.18115687 -0.36555308 -0.18660137 0.18493213 -0.18393645 0.034772106 -0.020586986 -0.005067085
0.035658766 0.16419964 0.05054208 -0.22789976 0.21004963 -0.100030266 -0.14517547 -0.17993356
-0.15210387 0.16761877 -0.040869795 -0.052750416 -0.010026143 0.016307881 0.09626777 0.011572029
0.07808897 0.08065683 0.12374252 -0.28804073 -0.21958683 -0.31336284 0.2839073 5.500915e-05
0.39005783 0.29167473 -0.050083473 -0.0027905062 -0.23798788 0.105159245 -0.2566703 0.20992172
-0.1551844 -0.1475831 -0.047438353 0.015557459 -0.012802787 0.31250405 0.01789341 0.15736274
0.07588116 0.09697008 -0.054514647 0.18028589 -0.13640377 0.25045842 0.0068375766 -0.24667244
-0.29292366 -0.3760502 0.12514742 0.030134663 0.08611414 -0.14010803 -0.036476437 0.0071589835
-0.18383718 -0.026471853 -0.20757633 -0.0030241013 -0.06289537 0.14998467 0.089899786 -0.024181567
0.028689185 -0.12584275 0.2591267 -0.22795287 0.13590924 0.002780184 -0.1370661 0.10850514
0.15771134 -0.22582652 0.14192657 0.08599483 -0.096475296 0.2377061 0.2041096 -0.15743081
-0.20327733 -0.0054752976 -0.18926582 0.06981756 0.24359737 0.26550922 0.38456586 0.02627417
-0.2751415 -0.26254687 -0.13028134 0.008770466 0.24661513 -0.3705353 -0.15721762 0.10362993
0.23223926 0.033339493 0.5803886 -0.053301387 0.19631292 -0.09586864 -0.07636237 0.03770598
-0.29201242 0.1841796 0.32925832 -0.16867048 -0.19223426 -0.046594784 -0.022032794 0.14181343
0.06787566 -0.16425636 -0.13867743 0.15886754 0.030243278 -0.20332238 -0.17702916 -0.24025175
0.058446415 0.26409134 0.07283712 0.23660299 -0.12353638 -0.04423875 -0.10705935 0.2140965
0.28173923 0.049972355 -0.27306795 -0.21931395 -0.9691205 -0.4797294 -0.17741267 0.034270924
-0.0033044221 0.060382012 -0.16713752 0.11514782 0.12625645 -0.04954661 0.14460382 0.13964513
-0.26372057 0.32114565 -0.12384382 -0.11941474 0.12201393 -0.10052729 -0.07325911 0.032004245
0.1698732 -0.021123637 0.051758304 -0.010810065 0.17917058 -0.082141444 -0.04805015 -0.22403312
0.10409854 -0.27940178 -0.15826106 0.21022406 0.019990474 0.09213126 -0.14989656 -0.16462588
0.19113237 0.001714915 -0.1728667 -0.24028605 0.25298652 -0.31255895 0.11027613 -0.35214013
-0.17788927 0.2069932 -0.102484554 0.0883071 -0.21680993 -0.18885362 0.19108254 0.031930603

conv1.0.bias f4 [64]
00000000: 45e8 0dc0 0000 0000 ed64 0bc0 6480 803f
00000010: 0000 0000 de85 573f 8f05 90bc 0000 0000
00000020: c3cc f23f 0000 0000 e7f4 c53f dcf1 823f
00000030: 1f76 84bc 0000 0000 bcab 0640 6572 1940
00000040: 3e88 0c40 368c 1540 0a18 5d3f d458 3b3f
00000050: a4bb 0abf 2078 e13f 0000 0000 e755 42bd
00000060: 90d5 2740 f16d 0440 6d18 2140 0b11 08c0
00000070: d5ad 06c0 0000 0000 6e79 fe3f 6dfa 1f40
00000080: 0000 0000 3b8b 1440 36d9 533f 548c 11c0
00000090: e2c5 0940 6c81 7a3f 2ee6 e1bf 9cc0 10c0
000000a0: 0000 0000 9a2c 0840 5244 9fbe c068 1540
000000b0: 278e bcbe 0252 13c0 daa7 0fc0 0000 0000
000000c0: 282d 08c0 e629 fa3f 0000 0000 60ff 1fbf
000000d0: c273 08c0 7414 0dc0 d4a8 7cbd c0e9 2540
000000e0: 7505 1640 0000 0000 c1ea f93f 0000 0000
000000f0: 0000 0000 98c9 b3bd c1e8 09c0 4a3c ba3f
-2.2173016 0.0 -2.178035 1.0039182 0.0 0.8418864 -0.017580776 0.0
1.8968738 0.0 1.5465363 1.023006 -0.016169606 0.0 2.1042318 2.397607
2.1958156 2.3366828 0.86364806 0.73182416 -0.54192567 1.7614784 0.0 -0.047445204
2.6224098 2.0692103 2.5171158 -2.1260402 -2.1043599 0.0 1.9880807 2.4996598
0.0 2.320998 0.8275331 -2.27419 2.1527028 0.9785373 -1.764837 -2.261756
0.0 2.1277223 -0.31106812 2.3345184 -0.36827204 -2.3018804 -2.2446198 0.0
-2.127756 1.9544036 0.0 -0.62499046 -2.1320653 -2.2043734 -0.061684445 2.592392
2.344083 0.0 1.9524766 0.0 0.0 -0.08778685 -2.1548312 1.4549649

conv2.0.weight f4 [64, 64]
00000000: dac6 f83e 7086 55bc 1670 d23e a721 113f
00000010: 1413 163d cf20 883e 5fc7 5c3e 3e2f 13be
00000020: 9302 5cbe fe0b ecbd ab40 8d3d e6a6 823e
00000030: 2fbf ff3d 8027 f1ba e84b 31bd 4d91 01be
00000040: fa35 2fbe 9f2e 04bf c69b d5bd 7c8b 01be
00000050: f3ae 00be 3a7c 77bd e951 003e 3e36 583e
00000060: bcaf e1be a8c4 0f3c c159 75bf b691 253e
00000070: 1df3 b63d 507a 03be 689f 253d f848 4ebf
00000080: 5a83 dfbd e5db f4be c99a 4e3e 7f60 933d
00000090: d1b2 3bbe 6450 003c 09bf 113d af11 b73e
000000a0: 6ce6 67bd 07dd 00be e8cd de3e badc afbe
000000b0: db4c 503e 5c7d 843e 0483 7c3e 26e8 d43d
000000c0: eb1d 4b3e 0962 0dbd 0253 bb3d 956f 113c
000000d0: 0f88 683e 8517 423e 2eee 62bd ff30 1ebf
000000e0: 4238 9fbe a3e0 3abe 1789 2e3d cf3f 4f3e
000000f0: dfc5 35be 570e 183e d987 823e 61d5 1cbd
00000100: f692 a2bd 9093 d9bc b38a 14be 67f2 52be
00000110: edfb 403e d447 c7bd 25f4 53be b40d 053d
00000120: e9b4 63bc 99af 4d3e 5b16 fe3d 8d61 9f3d
00000130: e399 4fbe fe33 ef3d 1aa9 36be 5b7d 6fbd
00000140: 5deb e13d 0c36 90bd 2200 043e 0037 ca3c
00000150: 6a71 9abd 03b7 06be 90f6 a4bd 27f9 c83d
00000160: ffac 80bb 7972 e0bd 462e fa3b 8d3d 04bd
00000170: c708 0dbe 04c6 52be 6392 87bd 837c 273e
00000180: cc39 3ebe a7a7 5dbe c713 c83d f61f 3abe
00000190: 6a24 dabd 210d 69be d0ea a0bc 2202 33be
000001a0: 66e6 a13d b53c 0bbe e98b 243d 6d59 acbd
000001b0: e075 393e 0717 1abd 2744 d7bd 353d 003e
000001c0: 8ee1 923d 7358 ebbd fab5 d73d ec3f 5bbe
000001d0: 4be6 263d bdd8 d33d da38 c93d 0ac4 bc3c
000001e0: bb78 0c3e 751d 023e f24b d93d 30c2 4ebc
000001f0: 5808 3cbe bee6 63be 57f2 32be 7baa e03d
00000200: a81b f23e 1892 e1bc a56c b33e 9c20 c83e
00000210: 04d7 0b3d 4678 fa3e b551 dabd 1017 ff3c
00000220: 4b70 0a3e 4ada 16be 8b09 313e f0bf b4bd
00000230: b457 6cbd 779d d4bd 0f87 a2be 8ef5 c9be
00000240: 0657 41be bbc1 a0be 8707 7a3d a0c4 e13b
00000250: 2e7b 343e b592 873e 160b 3ebe f304 663e
00000260: 2cf3 12bf 2df4 f93d a525 96bf cadf b1bd
00000270: 5323 793e b6cd 823d 2c09 ebbd 5389 3fbf
00000280: aa0e 11be 9cc8 8cbe cd35 6d3e e546 8d3e
00000290: 0ad6 ac3d 8c19 6f3e 4745 a0bc 4eb8 de3d
000002a0: ec40 623d 8540 76be bcac d23e 78f8 fbbd
000002b0: f23b 153e 9a67 943e b078 493e cd8b 143e
000002c0: 13c0 f83d bcb3 ab3d e015 323c 2e6a 2d3e
000002d0: c95f 3b3d f345 5c3c cc5e 0abd 7317 25bf
000002e0: ccc3 b3be 0967 013e 62b9 05bd 63b4 173e
000002f0: 6ad3 f53d e631 06be e915 ec3d 071e 50bd
00000300: e77d bcbd 2afd 42be f720 263d c07c d5bb
00000310: 35cd e1bd 36dd 47be 30ca 2b3c b909 0c3e
00000320: 5a44 473e a8e2 e7bd 7ca3 0c3d 74ae 42be
00000330: d5fd 2a3e 4d79 2a3e 14df be3c 3f18 15be
00000340: d6c6 e23d 2aaa 36be 2634 d73d 097c 523e
00000350: 4133 003e 0077 0cbd 00eb ebba 9637 b8bc
00000360: a87c e63c 8575 9039 7951 9dbd efea 0ebe
00000370: 9047 22be 602c f7bd b06c 0fbb 345c 8e3d
00000380: 6d81 1dbe 7647 9d3d 6067 02be e460 333e
00000390: d06c c33d 30fa 8cbc fdbe 49be b74c b6bd
000003a0: 9008 273c 249c 8dbd c054 05bc c476 a4bd
000003b0: 50b8 b0bc 9458 a83d 9cc3 bfbd 1433 0fbd
000003c0: 83db 5bbc 60f6 94bd 1601 efbd fc69 34bd
000003d0: ec42 2fbe 345a 31be 7e05 833d bdff 4fbe
000003e0: 5a02 71be 00db 3bbe 4d53 373d 2c43 41bd
000003f0: 86a9 d23d 58d1 3cbd 57cf 313e a433 3fbe
0.48589212 -0.013032541 0.4110114 0.56691974 0.036639288 0.2658753 0.21560429 -0.1437349
-0.21485357 -0.11525725 0.068971 0.25517958 0.12487637 -0.0018398613 -0.04328528 -0.12653084
-0.17110434 -0.5163364 -0.10430102 -0.12650865 -0.12566738 -0.060421206 0.12531246 0.21114442
-0.44079387 0.008774914 -0.9584008 0.16168866 0.08933089 -0.12839627 0.040435225 -0.8058009
-0.10913725 -0.47824016 0.20176233 0.071961395 -0.18329932 0.007831667 0.035582576 0.3575568
-0.05661623 -0.12584315 0.4351647 -0.34348089 0.20341818 0.25876892 0.24659353 0.10395841
0.19835632 -0.03451732 0.09146692 0.008876701 0.22708152 0.18954284 -0.055402927 -0.6179351
-0.3109761 -0.18249755 0.042611208 0.20239185 -0.17751263 0.1484922 0.2549427 -0.03828943
-0.07938187 -0.026559621 -0.14506035 -0.20600282 0.18846102 -0.09730497 -0.20698602 0.03248377
-0.013898113 0.20086516 0.12406608 0.07782278 -0.20273547 0.116798386 -0.17837945 -0.058469158
0.1103122 -0.070415586 0.12890676 0.02468443 -0.07541163 -0.13155751 -0.080548406 0.09813147
-0.0039268727 -0.10959334 0.0076349108 -0.032285262 -0.1377288 -0.2058335 -0.06619718 0.16356091
-0.18576735 -0.21645986 0.09769397 -0.18176255 -0.10651477 -0.22758915 -0.019643217 -0.17481282
0.07905273 -0.13597377 0.04017249 -0.08415494 0.18111372 -0.037619617 -0.10511046 0.12523349
0.071719274 -0.1149148 0.10532756 -0.21411103 0.04074697 0.10344074 0.09825297 0.023042697
0.1371793 0.1270655 0.106101885 -0.01261954 -0.18362558 -0.2225599 -0.17475258 0.109700166
0.47286725 -0.027535483 0.35043827 0.3908738 0.0341406 0.48919886 -0.10660116 0.031138927
0.13519399 -0.14731708 0.17288797 -0.08825672 -0.057700828 -0.103815965 -0.31743667 -0.39445156
-0.18880853 -0.31397805 0.061042335 0.0068898946 0.17625114 0.26479116 -0.18558916 0.22462825
-0.574023 0.12204776 -1.1730238 -0.086852625 0.24329881 0.063868925 -0.11476359 -0.74818915
-0.1416575 -0.27496803 0.23165055 0.2759315 0.08439262 0.23349589 -0.019564284 0.10874997
0.055237696 -0.2404805 0.4114741 -0.12303251 0.14573649 0.28985292 0.19674945 0.14506455
0.1214601 0.08383891 0.010869473 0.16935036 0.045745645 0.013444412 -0.03378181 -0.64488906
-0.3511032 0.12636961 -0.032647498 0.14814906 0.12003215 -0.13104972 0.115276165 -0.050809886
-0.092037015 -0.19041887 0.04055878 -0.0065151155 -0.11025468 -0.19517979 0.010485217 0.13675584
0.19459668 -0.11322528 0.0343356 -0.19011861 0.16698392 0.16647835 0.023299731 -0.1456003
0.11073081 -0.1783835 0.105079934 0.20555128 0.12519552 -0.034293175 -0.0017999113 -0.022487443
0.028135613 0.0002755338 -0.07681555 -0.13956808 -0.15847611 -0.12069011 -0.002188485 0.0695118
-0.15381403 0.07679646 -0.12734747 0.1751743 0.09542239 -0.017209142 -0.19701762 -0.08901351
0.010194913 -0.06914547 -0.008137882 -0.08030465 -0.021572262 0.0822002 -0.093634814 -0.03496082
-0.013419035 -0.07273555 -0.11670129 -0.044046387 -0.17115372 -0.17319566 0.06397532 -0.203124
-0.23536053 -0.1834526 0.044757176 -0.0471832 0.1028624 -0.046098083 0.1736425 -0.18672043

conv2.0.bias f4 [64]
00000000: 5b1a c5bf 3b75 0cbd 4c16 cfbf 62cd a9bc
00000010: eab4 ee3f 5c0c bebc 15f5 acbc b73b 33bf
00000020: 2dcf b8bf 417d 0cbd 0000 0000 debe bebf
00000030: dbfb 0bbf ba97 a6be 0000 0000 3245 f9bf
00000040: 23cc db3f 785a e4bc 0000 0000 1357 e33f
00000050: bb70 f4bc 0e46 e43f 7ec0 d63f 0000 0000
00000060: 0489 fd3f 04c9 68bd 4022 42bd 894b 07bd
00000070: e250 b9bb 8c27 c4bf 0f09 f0bc 7683 08bf
00000080: 24cc 3abc ed3c f13f ba08 c3bf bde9 903d
00000090: 0000 0000 0000 0000 8ef3 edbf 2370 0540
000000a0: 0000 0000 3f39 a5bf e5b0 b6bc 7a16 d0bf
000000b0: 04a5 eb3f 6b1f a0bc 6f16 f1bf 1f80 1640
000000c0: c8e5 4fbc 5fa6 ea3f e05e 11bf c962 dbbf
000000d0: fa05 1c40 cd83 dd3f 88b6 30bd 70ee eb3f
000000e0: 8f79 e83f ee6b d23f 4300 18bf f7c7 e33f
000000f0: 9c93 74bc 071e c9bf f973 7fbc a4da d93f
-1.5398668 -0.034291487 -1.617868 -0.020727817 1.864896 -0.023199253 -0.021112958 -0.7001299
-1.4438225 -0.03429914 0.0 -1.4901998 -0.54681176 -0.32537633 0.0 -1.9474242
1.7171673 -0.02787517 0.0 1.7760948 -0.02983891 1.7833879 1.6777494 0.0
1.9807439 -0.05683233 -0.047395945 -0.03303102 -0.005655394 -1.5324569 -0.029301194 -0.53325593
-0.01140121 1.8846718 -1.5237038 0.07075832 0.0 0.0 -1.8589952 2.0849693
0.0 -1.2908095 -0.022301147 -1.6256859 1.8409734 -0.019546231 -1.8834971 2.35157
-0.012689061 1.8332022 -0.5678539 -1.7139522 2.4378648 1.7305847 -0.043142825 1.843214
1.8162097 1.6439188 -0.593754 1.77954 -0.014927771 -1.5712289 -0.015591615 1.7019849

conv3.0.weight f4 [1, 64]
00000000: 488b 23bf c4fa 09be c3d1 00bf 4c64 50be
00000010: 6a3c c73f 3c39 e3bd e1e1 7fbe dd73 0ebb
00000020: 54be 15bf 3746 9dbd 1adb 993e ce8c 25bf
00000030: 8378 60bf 1f15 e8be 08ed 47be b675 efbe
00000040: 868a 593f ac39 2fbd 2a83 903e b442 d53f
00000050: 76a9 c8bc 06c8 693f fb5a 4b3f 92e5 b5bd
00000060: b963 0040 cfbf c6be 43b9 2bbe ecb0 92bd
00000070: 6adc 44be 3be3 11bf 924a b5bd 2e31 f2be
00000080: 284c 82be 3b5c 553f 281d 14bf c03e 4cbe
00000090: 1da1 1abe 7a7f b4bd a6a2 24bf 7cd5 0c40
000000a0: e8a4 06be 9cd9 e1be f025 75be d0e6 0dbf
000000b0: 9630 813f 27b5 f9bd aadb e7be 65a6 233f
000000c0: 7600 11be b330 1540 736a 92bb f849 16bf
000000d0: 7990 393f 3666 173f 8176 7fbe 5b52 b83f
000000e0: 35c2 473f 840d 053f 808d c9be 9dfa e23f
000000f0: c2f8 94bd 6216 f8be 37a1 27bb dd6f 773f
-0.638844 -0.13474566 -0.5032007 -0.2035076 1.5565312 -0.11094901 -0.2498851 -0.002173654
-0.5849354 -0.07679408 0.30049974 -0.64667976 -0.87683886 -0.45328614 -0.19524014 -0.46769494
0.84976995 -0.04277961 0.2822507 1.6660981 -0.024494868 0.91320837 0.794357 -0.08881678
2.0060866 -0.38818213 -0.1676989 -0.071626514 -0.19224706 -0.5698735 -0.08852114 -0.47303146
-0.25448728 0.8334386 -0.5785699 -0.19945812 -0.15100522 -0.08813377 -0.6431068 2.20053
-0.13148844 -0.44111335 -0.23940253 -0.55430317 1.0092952 -0.12192755 -0.45284778 0.6392577
-0.14160332 2.3310974 -0.004468256 -0.5870662 0.7248607 0.59140337 -0.2494755 1.4400133
0.7803071 0.5197375 -0.39365768 1.7732731 -0.07274009 -0.48454577 -0.002557827 0.96655065
